trained-model/model_20240817_004020_epoch_150.pt (torch, 95432 bytes, 10 tensors)

encoder.conv1.bias f4 [32]
0	0xbe9df860	-0.30853558
1	0x3e8e94c7	0.27847883
2	0xbd2f2c31	-0.042766754
3	0xbe42588b	-0.18979089
4	0xbe1a5bac	-0.15074033
5	0x3d98fffb	0.074706994
6	0xbcd36e34	-0.025809385
7	0xbec8615c	-0.3913678
8	0xbe6ee8e7	-0.23331033
9	0xbdc3fd55	-0.095698036
10	0xbdb132ea	-0.08652289
11	0xbe8e8a10	-0.27839708
12	0x3e62ecdb	0.22160666
13	0xbd0c60df	-0.03427207
14	0xbeb7a628	-0.35868955
15	0x3ca57f00	0.02020216
16	0x3e42b476	0.19014153
17	0xbe15203e	-0.1456308
18	0xbdb28e5e	-0.08718561
19	0xbdc96c37	-0.098350935
20	0x3dc790eb	0.09744438
21	0x3e8aee70	0.27135038
22	0xbe31aad2	-0.17350319
23	0xbc9a5a36	-0.018841844
24	0xbe6541e4	-0.22388417
25	0xbeae6a20	-0.34065342
26	0xbd2f87e1	-0.042854194
27	0xbd820fa5	-0.0635064
28	0xbe7385c5	-0.23781498
29	0xbe985c0f	-0.29757735
30	0x3e4fa218	0.20276678
31	0xbcfdec7b	-0.030996552

encoder.conv1.lin.weight f4 [32, 658]
0	0xbf0202cb	-0.5078551
1	0xbda29865	-0.07939223
2	0x3e94e5d0	0.29081583
3	0xbdb794e8	-0.089639485
4	0xbe8ccf01	-0.2750168
5	0xbf7a7d5e	-0.97847545
6	0xbf041e12	-0.51608384
7	0xbf766293	-0.9624416
8	0xbfc05fc2	-1.5029223
9	0x3f10b828	0.56531
10	0x3db88c27	0.09011107
11	0xc00510ce	-2.0791507
12	0xbf918cee	-1.1371133
13	0x3f030184	0.5117419
14	0xbe273f27	-0.16332684
15	0xbf780810	-0.968873
16	0xbf949bf5	-1.1610094
17	0x3eb7b8de	0.3588323
18	0x3ea3e3af	0.32009646
19	0x3eaaa5d0	0.3332963
20	0x3e0ea455	0.13929875
21	0xc010ac8b	-2.2605312
22	0xbfddaedd	-1.7318989
23	0x3e7260af	0.23669694
24	0xbff77d7f	-1.9335173
25	0x3e99ec38	0.30063033
26	0xbfb75f7a	-1.4326012
27	0xbeefeb83	-0.4685937
28	0xbfd1a99d	-1.6379887
29	0xbef3291c	-0.474923
30	0xbda80703	-0.082044624
31	0xbf949844	-1.1608968
32	0x3df894a6	0.121377274
33	0x3ed6c19e	0.41944593
34	0x3eb8f30b	0.36122927
35	0xbf567c54	-0.8378346
36	0xc039f3e4	-2.905511
37	0x3eeb1fdb	0.4592274
38	0x3ec95466	0.39322203
39	0x3f21159e	0.6292361
40	0x3f03ca1e	0.5148028
41	0x3fc59ea1	1.5439035
42	0xbe3dcfb7	-0.18536268
43	0xbe7af40d	-0.2450716
44	0xc03946f7	-2.8949564
45	0xbec4c0ce	-0.38428348
46	0x3f1a8800	0.6036377
47	0xbf3ac1c8	-0.72951937
48	0x3e956c54	0.2918421
49	0x3e8aa676	0.27080125
50	0x3d9a28bf	0.07527303
51	0xbe7f13ee	-0.24909946
52	0xbf995194	-1.1978021
53	0xbf0d11f4	-0.5510552
54	0x3c84cf31	0.016212078
55	0xbf4c2a6f	-0.7975225
56	0xbf62d2ec	-0.8860309
57	0xbf20e921	-0.62855726
58	0x3e9061f6	0.28199738
59	0xbf87bde6	-1.0604827
60	0x3ebc78c1	0.36810878
61	0x3f0a7730	0.54088116
62	0xbfc56c50	-1.5423679
63	0x3ee4761e	0.44621366
64	0xbec4200e	-0.38305706
65	0xbea48fba	-0.32140905
66	0xbe9bbe1e	-0.30418485
67	0xbf0027ea	-0.50060904
68	0xbd3db0e9	-0.046311293
69	0xbd941a96	-0.07231633
70	0x3ec5d409	0.38638332
71	0x3e9197c1	0.28436092
72	0xbf01b5a7	-0.50667804
73	0x3ee6c9bf	0.45075795
74	0x3e3c5f12	0.18395641
75	0xbda5145f	-0.08060526
76	0x3e5752e0	0.21027708
77	0xbf0560c0	-0.52100754
78	0x3e965c64	0.29367363
79	0xbdf14ed6	-0.11782615
80	0x3e8e52bc	0.27797496
81	0xbe8ea82f	-0.2786269
82	0x3fc1e33b	1.514747
83	0xbed8e42a	-0.42361575
84	0xbc58324c	-0.013195585
85	0x3eec80c8	0.46192002
86	0x3f4868b4	0.78284764
87	0x3f03598d	0.5130852
88	0xbe909f00	-0.28246307
89	0xbf95d6d9	-1.1706191
90	0xc01ec389	-2.4806845
91	0xbf3abc06	-0.7294315
92	0x3edafbff	0.42770383
93	0xbeb7adab	-0.35874686
94	0x3ef294c4	0.47379124
95	0x3f17db53	0.5931904
96	0x3f9d33b2	1.2281401
97	0x3f2e3149	0.68043953
98	0x3ecd48ea	0.40094692
99	0x3f36779d	0.71276265
100	0x3ea6778a	0.32513076
101	0xbf7ce23f	-0.98782724
102	0x3df95461	0.12174297
103	0xbfe39fba	-1.778312
104	0x3e4b6057	0.1986097
105	0x3ea7904e	0.32727283
106	0x3e473032	0.19451979
107	0x3ef4207f	0.47681043
108	0xbf87dd5d	-1.061443
109	0x3f4317e2	0.7620832
110	0xbf1b0b29	-0.60563904
111	0x3e6c5e86	0.23082933
112	0x3ea3d1e0	0.3199606
113	0x3f14dab0	0.5814619
114	0x3f0245a6	0.50887525
115	0xbf283728	-0.6570916
116	0x3e90034f	0.28127524
117	0xbf2196da	-0.63120806
118	0xbfb63005	-1.4233404
119	0xc0143d60	-2.316246
120	0xbfcd7706	-1.6051948
121	0x3e931b8c	0.28731954
122	0x3f5d6906	0.8648838
123	0xbfc1f9b6	-1.5154331
124	0xbff3555d	-1.9010426
125	0x3d22817f	0.03967428
126	0x3f1be925	0.60902625
127	0x3eb1c001	0.347168
128	0x3ed76f50	0.42077112
129	0x3f0d87f0	0.5528555
130	0xbfc21ced	-1.5165077
131	0xc06995da	-3.6497712
132	0xc08d72af	-4.4202495
133	0x3de44d03	0.11147501
134	0x3f1a0513	0.6016399
135	0xbfe0680e	-1.7531755
136	0xbf7fda3f	-0.9994239
137	0x3fab2ba8	1.3372698
138	0xbf28f562	-0.65999424
139	0x3efafc97	0.49020836
140	0xbf8f337a	-1.1187584
141	0xbd9e12cb	-0.07718428
142	0xbe075e26	-0.13219509
143	0xbec87324	-0.39150345
144	0x3f2eb468	0.6824403
145	0xbeae3ab0	-0.3402915
146	0xbf58dbd5	-0.8471044
147	0xbdb43904	-0.08799937
148	0xbda67fff	-0.08129882
149	0xbf637e26	-0.8886436
150	0x3f4fcbca	0.8117033
151	0xbeff422b	-0.4985517
152	0x3e8eec5e	0.2791471
153	0x3f405e24	0.7514365
154	0xbd6bf877	-0.05761
155	0x3f0c0eb3	0.5470993
156	0x3f1e38f8	0.6180568
157	0x3f5666f0	0.8375082
158	0xbfcf25b3	-1.618338
159	0xbfcd677c	-1.6047206
160	0xbfc6f463	-1.5543331
161	0x3f9ab5c7	1.2086724
162	0xbc9c7e40	-0.01910317
163	0xc082abea	-4.0834856
164	0xbe479a11	-0.19492365
165	0xbfc41e0b	-1.5321668
166	0xbfcd3ebf	-1.6034774
167	0x3eb298c5	0.3488218
168	0xc0019a98	-2.0250607
169	0xbed1b663	-0.40959463
170	0xbdd97070	-0.10617149
171	0xbf6ccbd8	-0.9249854
172	0xbf41041f	-0.75396913
173	0xc02a0b2a	-2.6569314
174	0xbf277547	-0.65413326
175	0x3e56965c	0.20955795
176	0x3f005819	0.50134426
177	0xbef431ae	-0.47694153
178	0xc00dea27	-2.2174165
179	0x3c69a40f	0.014260306
180	0x3edd9c39	0.4328325
181	0xbf327bf6	-0.697204
182	0x3ef31472	0.47476536
183	0xbfe9216e	-1.8213327
184	0xbfaa391b	-1.3298677
185	0xc031a32d	-2.7755845
186	0xbeaa4341	-0.33254436
187	0x3ea07f66	0.31347197
188	0x3ed2ad86	0.41148013
189	0xbe51b304	-0.20478445
190	0xbe1a6424	-0.15077263
191	0x3eb8b934	0.360788
192	0xbfafb327	-1.3726548
193	0x3f2161bf	0.63039774
194	0x3e888013	0.26660213
195	0xbffc4337	-1.9708012
196	0x3f293b0f	0.6610574
197	0x3e31dd5c	0.17369598
198	0xbf1632cf	-0.5867128
199	0x3ec96066	0.3933136
200	0x3bbeba47	0.005820546
201	0xbf465035	-0.77466136
202	0xbe813a35	-0.2523972
203	0x3f1c0a88	0.6095357
204	0xbffccce3	-1.9750026
205	0xbd85c37c	-0.06531426
206	0xbfcd043a	-1.6016915
207	0xc005f69f	-2.0931776
208	0x3df8e96b	0.12153896
209	0x3eccb6b3	0.39983138
210	0xbecf7644	-0.40519917
211	0x3ea9b76d	0.33147755
212	0xbee6aa59	-0.4505184
213	0x3dea333a	0.11435552
214	0xbd312be9	-0.043254767
215	0x3ece8708	0.40337396
216	0x3ebab74e	0.36467975
217	0x3df221a4	0.11822823
218	0xbf6acbde	-0.91717327
219	0x3e6e44e3	0.23268466
220	0x3e8bb5b7	0.27287075
221	0x3f34147a	0.70343745
222	0x3ea3aa9f	0.3196611
223	0xbf074e9c	-0.52854323
224	0xbfb332d4	-1.3999887
225	0x3e609977	0.21933542
226	0x3f04db4e	0.5189713
227	0xbeb6fd9d	-0.35740367
228	0x3f4812ad	0.78153497
229	0xc008f6c1	-2.1400607
230	0xbec1638d	-0.37771264
231	0xbfce8c19	-1.6136504
232	0x3e74925c	0.23883957
233	0x3e7c167e	0.24617955
234	0xc054d696	-3.3255973
235	0x3eab2fa9	0.334348
236	0xbfb91e36	-1.4462345
237	0xc00347ae	-2.05125
238	0xbf7e747e	-0.993965
239	0xc03fea7e	-2.9986873
240	0x3e92c554	0.28666174
241	0xbd3c3e0d	-0.045957614
242	0xbda64a90	-0.081196904
243	0xbeca99a2	-0.39570338
244	0x3f8e9404	1.1138921
245	0xbdc0d195	-0.094149746
246	0xbe888336	-0.26662606
247	0x3f2144b9	0.6299549
248	0x3f3e8679	0.7442394
249	0xc00ed36d	-2.2316544
250	0xbf16bf2f	-0.58885473
251	0x3e9008c4	0.28131688
252	0xbd802800	-0.062576294
253	0xbfc98519	-1.5743743
254	0xbc2eaedf	-0.01066181
255	0x3eafd14c	0.34339368

encoder.conv2.bias f4 [24]
0	0xbf321229	-0.6955896
1	0xbeb4f4a9	-0.3534291
2	0xbe29c161	-0.16577674
3	0xbf9ca5b1	-1.2238065
4	0xbe4ef3ec	-0.20210236
5	0xbece71ae	-0.40321106
6	0x3d16f3da	0.03685365
7	0xbeaca986	-0.33723086
8	0x3da12531	0.07868422
9	0xbeb6e4e5	-0.35721508
10	0xbdae2837	-0.08503764
11	0xbf4c22b0	-0.7974043
12	0xbecce9b1	-0.40022042
13	0xbd31935f	-0.043353435
14	0xbe0eee76	-0.13958153
15	0x3c9d3dcd	0.019194508
16	0xbe9932d9	-0.29921606
17	0x3dafd2c2	0.08585121
18	0xbe063280	-0.13105202
19	0xbed2b4aa	-0.4115346
20	0xbfaaf993	-1.3357414
21	0xbcedd40a	-0.029031772
22	0xbeb97de3	-0.36228856
23	0x3f19e34d	0.6011246

encoder.conv2.lin.weight f4 [24, 32]
0	0x3ee4be0a	0.44676238
1	0xc0641053	-3.5634964
2	0x3dc756df	0.09733366
3	0x3e904909	0.2818072
4	0x3ef3cea8	0.47618604
5	0x3ed21b59	0.4103649
6	0xbe9de153	-0.3083597
7	0xbeadd1e4	-0.33949196
8	0x3f158dea	0.5841967
9	0x3e660f17	0.22466694
10	0x3f4a0f18	0.7892928
11	0x3e2fd34c	0.17170447
12	0xbf49a6f1	-0.7877036
13	0xbfcb45ae	-1.588064
14	0xbe782644	-0.24233347
15	0x3f267a7e	0.6503066
16	0xbf2c58ac	-0.673228
17	0xbe3ab569	-0.18233265
18	0xbf27bc26	-0.65521467
19	0x3de60ac8	0.11232525
20	0x3d2dc338	0.042422503
21	0xbf9db0b4	-1.231955
22	0xbe2cc175	-0.16870673
23	0x3ead4e41	0.33848765
24	0xbe4481f0	-0.19190192
25	0x3f30f2f0	0.69120693
26	0x3f075e0c	0.5287788
27	0xbedf68a2	-0.43634516
28	0x3f65cd21	0.89766127
29	0x3f29fb69	0.66399246
30	0xbef95e5f	-0.48704812
31	0x3ebb72bc	0.36610973
32	0xbf4233ed	-0.7586048
33	0x3f3d822d	0.7402676
34	0x3f1a936a	0.60381186
35	0xc028947c	-2.6340628
36	0xbea69e44	-0.32542622
37	0xbd1aa96e	-0.037759237
38	0xbf912384	-1.1338964
39	0xbf274ecb	-0.65354604
40	0x3efa664e	0.48906177
41	0xbf0d84d1	-0.55280787
42	0xbe7166b1	-0.2357433
43	0xbdb42234	-0.08795586
44	0xbe1bb3d4	-0.15205318
45	0xbfa67e38	-1.3007269
46	0x3f8e1d62	1.1102717
47	0xbf004442	-0.50104153
48	0xbf00f556	-0.5037435
49	0x3f1145b7	0.56747
50	0x3f20c06d	0.6279362
51	0xbf23777f	-0.6385421
52	0x3f5be6f4	0.8589928
53	0xbf248da2	-0.64278615
54	0x3e6d1938	0.23154151
55	0xbe8046ae	-0.25053924
56	0x3f017de7	0.50582737
57	0x4007dd66	2.122888
58	0xbf9ae7a7	-1.2101945
59	0x3e2c5554	0.16829425
60	0x3f007c6f	0.5018987
61	0xbf998e7f	-1.1996611
62	0x3de8f03c	0.11373946
63	0xbe935cb9	-0.2878168
64	0x3f3208d7	0.6954474
65	0xbd3504ae	-0.044193916
66	0x3ecdf656	0.40227002
67	0x3eaa128e	0.3321728
68	0x3f32baf5	0.69816524
69	0x3f0eb798	0.5574889
70	0xbf3787dc	-0.7169168
71	0x3f00c5f9	0.5030208
72	0x3f1b27ab	0.60607404
73	0xbf806841	-1.0031816
74	0xbff3c491	-1.9044362
75	0x3e71ed48	0.23625672
76	0x3e5ab8b2	0.21359518
77	0x3ddcc09d	0.107789256
78	0x3ef32328	0.4748776
79	0xbf709257	-0.93973297
80	0xbfab4bd8	-1.3382521
81	0xbe8860a6	-0.26636237
82	0xbf90adeb	-1.1303076
83	0xbf58c132	-0.8466979
84	0x3efc6fc3	0.49304017
85	0xbf33e31a	-0.70268404
86	0x3da00337	0.07813113
87	0xbf6ede68	-0.93308115
88	0x3ec78bea	0.38973933
89	0x3eacb625	0.33732715
90	0xbf9976c5	-1.198937
91	0x3ebb24f1	0.36551622
92	0x3f16c6a5	0.5889686
93	0x3d858f19	0.06521434
94	0xbe711dbe	-0.23546502
95	0xbfb88753	-1.4416298
96	0x3dc2c0d9	0.09509439
97	0x3d108d5b	0.035291057
98	0xbed87383	-0.42275628
99	0xbe59e3e1	-0.21278335
100	0xbcc03db8	-0.02346693
101	0x3e20a723	0.15688758
102	0xbd0ab449	-0.03386334
103	0xbf21536f	-0.63017935
104	0x3f4de51b	0.8042771
105	0xbf171478	-0.5901561
106	0xbf6f8592	-0.9356319
107	0xbf3f41d2	-0.7470981
108	0x3e4c7375	0.19965918
109	0xbd313b6f	-0.04326957
110	0x3f578574	0.8418801
111	0xbaabdfaa	-0.0013112922
112	0xbf23be7c	-0.6396253
113	0x3f8b11d0	1.0864811
114	0xbe89aafd	-0.26888266
115	0xbf3b709b	-0.732187
116	0x3f2327e0	0.6373272
117	0xbf2fa1ca	-0.68606246
118	0x3f8fcc63	1.1234249
119	0xbee3ea07	-0.44514486
120	0xbd098a40	-0.03357911
121	0x3f7a29de	0.97720134
122	0xbf46c5d1	-0.77645594
123	0x3f1bb0f2	0.6081687
124	0xbe4ac87a	-0.19803038
125	0x3e92168a	0.2853282
126	0x3d256e8c	0.04038863
127	0xbf05e973	-0.5230934
128	0x3f3d2233	0.7388031
129	0xba99ab0b	-0.0011723948
130	0xbf57b533	-0.84260863
131	0x3efa2b96	0.48861378
132	0x3e3b5258	0.1829313
133	0xbf471b5e	-0.77776134
134	0xbf6c5f96	-0.9233335
135	0x3f3e6259	0.74368817
136	0xbe77c959	-0.24197902
137	0x3d1f48cf	0.038887795
138	0xbca8343c	-0.02053272
139	0x3ebb29d5	0.36555353
140	0xbebc05db	-0.36723217
141	0x3f638d1a	0.8888718
142	0x3f04c46c	0.51862216
143	0x3f3b608a	0.7319418
144	0xbf71a9dc	-0.9439981
145	0x3f2d40b7	0.6767687
146	0x3ef54c5a	0.47909814
147	0x3f2db3c6	0.6785244
148	0xbef47845	-0.47748008
149	0xbf156023	-0.5834982
150	0xbec7c094	-0.39014113
151	0xbf939ba0	-1.1531868
152	0x3f0dc252	0.55374634
153	0xbf790d4f	-0.9728593
154	0x3f30e8f5	0.69105464
155	0xbe141cce	-0.14464113
156	0xbe436f24	-0.19085366
157	0xbf387918	-0.72059774
158	0x3d1834c3	0.037159692
159	0xc0022486	-2.0334792
160	0x3d3c2746	0.04593589
161	0x3f1ea427	0.61969227
162	0x3f79ce1d	0.9758013
163	0x3fea8990	1.8323231
164	0xbf4d977e	-0.80309284
165	0xbfbc5661	-1.4713861
166	0xbd94a106	-0.07257275
167	0xbf7259e1	-0.94668394
168	0xbeac08f0	-0.3360057
169	0x3ecff682	0.40617758
170	0xbdce4c0d	-0.10073099
171	0xbf406b19	-0.7516342
172	0x3f718927	0.943499
173	0xbfd3e31d	-1.6553684
174	0x3f4d5058	0.8020072
175	0xbebe8860	-0.3721342
176	0xbecede6d	-0.40404072
177	0x3f3f95da	0.7483803
178	0xbfb26497	-1.3936948
179	0x3f68266d	0.90683633
180	0x3d27c7d0	0.04096204
181	0xbfec4a8e	-1.8460252
182	0xbd160089	-0.036621604
183	0xbfb8bd41	-1.4432756
184	0xbfcfc663	-1.6232418
185	0xbfc7daef	-1.5613688
186	0xc00484ca	-2.0706048
187	0x3faa89fe	1.3323362
188	0xbf9c0f56	-1.219218
189	0x3f0d95d2	0.5530673
190	0xc0045a1b	-2.0679996
191	0xc0063074	-2.0967073
192	0xbe656ae3	-0.22404055
193	0x3f23f688	0.6404805
194	0xbe91e961	-0.28498366
195	0x3f16bcab	0.58881634
196	0xbe0555a9	-0.13020958
197	0xbe915de6	-0.2839195
198	0xbe839380	-0.2569847
199	0x3ecfacd2	0.4056154
200	0xbed3fffd	-0.4140624
201	0xbf3372ce	-0.70097053
202	0xbeedcfe5	-0.46447673
203	0xbe5c0974	-0.21487981
204	0xbf4df311	-0.80449015
205	0xbd5316cb	-0.05153541
206	0x3ed83bd4	0.42233145
207	0xc0010411	-2.0158732
208	0xbd24fd19	-0.040280435
209	0xbf85736d	-1.042585
210	0x3cc7c7a2	0.024387185
211	0x3dd4e7e2	0.10395791
212	0x3f7f72be	0.9978446
213	0xbf52c481	-0.8233109
214	0x3f12e38c	0.5737846
215	0xbf02936a	-0.51006186
216	0x3de66f61	0.112517126
217	0xbf717657	-0.943212
218	0x3f249a5c	0.64298034
219	0x3f6b2ab8	0.9186206
220	0xbe022fdc	-0.1271357
221	0xbc4f4885	-0.012651567
222	0xbec0898c	-0.3760494
223	0xbf297f22	-0.66209614
224	0xbebc13d0	-0.36733866
225	0x3e1e3459	0.15449657
226	0xbe3edfac	-0.18640012
227	0x3e9ecd61	0.31016067
228	0xbf926696	-1.1437557
229	0xbf5edec8	-0.8705869
230	0xbecacacf	-0.39607856
231	0x3f1dd1fb	0.6164853
232	0x3ec553e5	0.3854057
233	0xbe7b4a09	-0.24539961
234	0xbeb533cf	-0.3539109
235	0x3f416dd3	0.75558203
236	0xbf8e933c	-1.1138682
237	0xbed61544	-0.418131
238	0x3ed0eab5	0.40804067
239	0xbec74642	-0.3892079
240	0xbe8c7e46	-0.2744009
241	0xbe0ae7ba	-0.13564959
242	0x3f17a450	0.59235096
243	0xbea23d1f	-0.31687257
244	0xbdbe4baf	-0.09291779
245	0xbda02003	-0.07818606
246	0x3f4b7513	0.79475516
247	0x3eafca3e	0.34333986
248	0x3f1ea7ce	0.619748
249	0x3efe7eeb	0.49706206
250	0x3e66dbc1	0.22544767
251	0x3f4aeada	0.79264605
252	0xbecc4a9f	-0.3990068
253	0xc03752ba	-2.8644242
254	0xbebb5356	-0.36587018
255	0xba352c27	-0.0006911181

encoder.conv_mu.bias f4 [16]
0	0x3cbf83da	0.023378301
1	0x3d20527b	0.03914116
2	0xbc810cb2	-0.015753124
3	0xbc58995a	-0.013220156
4	0x3e120015	0.14257844
5	0xbd686729	-0.056739006
6	0x3ae51042	0.0017476159
7	0xbd5b0632	-0.053472705
8	0x3c3c4273	0.011490452
9	0xbbeb4c9c	-0.0071807634
10	0x3d2f61fe	0.042818062
11	0x3cc1e37a	0.02366804
12	0xbd143e40	-0.03619218
13	0x3daf289d	0.08552668
14	0xbc4af92f	-0.012388512
15	0x3d409ad1	0.047022644

encoder.conv_mu.lin.weight f4 [16, 24]
0	0xbfb16bb9	-1.3860999
1	0x3e940b82	0.2891503
2	0xc0280eac	-2.6258955
3	0xbef94233	-0.48683318
4	0xbf197200	-0.59939575
5	0x3f1a3c82	0.6024858
6	0xbeb03718	-0.34417033
7	0x3fbf403a	1.4941475
8	0xbeb30b33	-0.34969482
9	0x3e7142b6	0.23560604
10	0x3b6c0976	0.0036016381
11	0x3f2e10a4	0.6799414
12	0x3f421f3b	0.75828904
13	0xbee037ba	-0.43792516
14	0x3e828ef1	0.2549968
15	0x3dd7ae94	0.10531345
16	0x3f7b8087	0.9824299
17	0xc01e3010	-2.4716835
18	0xbcc804ae	-0.024416294
19	0xbfbedd93	-1.4911369
20	0x3eddfd4f	0.43357322
21	0xbe0ee282	-0.13953593
22	0xc010dd2a	-2.2634988
23	0xbe62b6ca	-0.22140041
24	0xbf02407d	-0.5087965
25	0xbe2a122e	-0.16608498
26	0xbfedaf21	-1.856907
27	0xbeccfdcf	-0.4003739
28	0xbe6e2315	-0.2325557
29	0xbf8c833a	-1.0977547
30	0xbee1aec6	-0.44078654
31	0x3fc1caa4	1.5139966
32	0xbed4b8aa	-0.41547137
33	0x3f4ee444	0.80817056
34	0x3ea5201b	0.32251057
35	0xbf218067	-0.6308655
36	0x3ea9fb55	0.33199564
37	0x3e1c6426	0.15272579
38	0xbe9ad6df	-0.3024206
39	0xbe82f225	-0.25575367
40	0x3db4cba0	0.08827901
41	0xbf09efd5	-0.5388158
42	0xbea2070d	-0.31646004
43	0xc000dfbb	-2.0136554
44	0xbf130532	-0.574298
45	0xbde6a09f	-0.11261105
46	0x3efaccb7	0.4898431
47	0x3f31934e	0.69365394
48	0x3ede6568	0.43436742
49	0x3e36b24c	0.17841452
50	0x3d06397a	0.032769658
51	0xbf043fc2	-0.51659787
52	0x3fdd0363	1.7266659
53	0x3f25820d	0.64651567
54	0xbeb7eb2d	-0.35921612
55	0xbfa3d0cc	-1.2798095
56	0xbf2f485c	-0.68469787
57	0x3ef1e6e6	0.47246474
58	0xc00bc521	-2.1839068
59	0xbfc87e0c	-1.5663466
60	0xbf23f066	-0.64038694
61	0xbffb9938	-1.9656134
62	0x3f18b6ad	0.5965374
63	0x3ee35f5f	0.444087
64	0x3f013bc7	0.5048184
65	0x4048ba80	3.136383
66	0x3f73e9a4	0.9527838
67	0x3fa62c9b	1.2982363
68	0x3e38c4eb	0.18043868
69	0x3df5c79e	0.120009646
70	0x40d0e08e	6.5274115
71	0x3e83350e	0.25626415
72	0x3fbcac8d	1.4740158
73	0xbdede704	-0.11616328
74	0x404f9487	3.2434404
75	0x3e42e85f	0.19033955
76	0x3f1a7750	0.60338306
77	0x3e9dd9c7	0.30830213
78	0xbf041eba	-0.51609385
79	0xbfd73bc0	-1.6815109
80	0x3f47362e	0.77817047
81	0x3ed33c66	0.41257018
82	0xbefaa48e	-0.4895367
83	0xbf10c24a	-0.5654646
84	0xbf85120b	-1.0396131
85	0x3f0fe15b	0.5620324
86	0x3e103b77	0.14085184
87	0xbe5105d0	-0.20412374
88	0xbec308df	-0.38092706
89	0x405b9450	3.4309273
90	0xbf228093	-0.6347744
91	0x3ff1d075	1.8891741
92	0xbe457e90	-0.19286561
93	0xbe1ef96a	-0.15524831
94	0x403b80c2	2.9297338
95	0xbe4479ab	-0.19187038
96	0x3da116c1	0.07865668
97	0x3f51f24b	0.82010335
98	0xbf229ebe	-0.6352347
99	0x3f494089	0.786141
100	0xbe10f444	-0.1415568
101	0xbe88151f	-0.26578614
102	0xbd0906b0	-0.033453643
103	0x3d8f65e2	0.070018545
104	0x3e0f5a39	0.13999261
105	0xbd4f07a4	-0.050544396
106	0x3f77005f	0.9648494
107	0xc123274b	-10.197093
108	0xbe250bad	-0.16117735
109	0x3eada3c7	0.33914015
110	0xbeb9ff6e	-0.3632769
111	0xbf6cd5fe	-0.92514026
112	0x3e9cc645	0.30620018
113	0xc11155d8	-9.083458
114	0xbe9240d1	-0.28565076
115	0x3efb026e	0.4902529
116	0xbd7c269d	-0.061560262
117	0xbf4b8e77	-0.7951426
118	0xc187de57	-16.983564
119	0x3e92ae48	0.2864859
120	0x3efe1d8e	0.49631923
121	0x3f7624dd	0.9615
122	0x3fc45a9f	1.5340155
123	0x3dd1336e	0.102148876
124	0x3f1be72c	0.60899615
125	0xbf1e86be	-0.6192435
126	0xbf3dee08	-0.7419133
127	0xbf787e6e	-0.97067916
128	0x3e354b2c	0.17704457
129	0xbf09b712	-0.5379497
130	0x3e901942	0.2814427
131	0xbf163a66	-0.5868286
132	0xbe7a0ccd	-0.24418946
133	0x3e3dc490	0.18532014
134	0xbf27908f	-0.65454954
135	0xbd502919	-0.050820444
136	0xbfc85bed	-1.5653054
137	0x4037732f	2.8664052
138	0x3f4c407d	0.797859
139	0x3eb14d4b	0.34629282
140	0x3f657776	0.8963541
141	0x3a026a9a	0.00049749913
142	0x406b6783	3.6781929
143	0x3f34c3a8	0.7061105
144	0x3f2d5bad	0.6771801
145	0xbf00736b	-0.50176114
146	0x40022176	2.0332923
147	0x3f840fc8	1.0317316
148	0xbe8e4020	-0.27783298
149	0x3dd58ae9	0.10426886
150	0x3ee14dd5	0.44004694
151	0xbf538bcf	-0.82635206
152	0xbe7c7686	-0.24654588
153	0xbeb20ae3	-0.3477393
154	0x3e084bea	0.13310209
155	0x40a44e99	5.1345944
156	0xbf3c6437	-0.73590416
157	0x3f40b4a6	0.7527565
158	0xbe906e02	-0.2820893
159	0xbf5fb655	-0.8738759
160	0xbed98e2d	-0.42491284
161	0xc1271fb7	-10.445243
162	0x3e4ee9cb	0.20206372
163	0x3fc8c584	1.5685277
164	0x3e1b22d7	0.15150009
165	0xbee423e5	-0.44558635
166	0xc1acd4f0	-21.603973
167	0x3f87f17e	1.0620573
168	0xbf59e32f	-0.8511228
169	0xbf649336	-0.89287126
170	0xbf4845cb	-0.78231496
171	0xbf474940	-0.77846146
172	0xc01d4511	-2.4573405
173	0x3e61790e	0.22018835
174	0x3eee9e3e	0.46605104
175	0x3f5dba3f	0.86612314
176	0xbbb16575	-0.005413706
177	0xbe86bdaa	-0.26316577
178	0x3f4940fc	0.78614783
179	0xc0695cfc	-3.6463003
180	0x3f12ed33	0.5739319
181	0xbeaac1ca	-0.33350974
182	0xbec27700	-0.37981415
183	0xbf436fa1	-0.7634221
184	0xbdaba080	-0.08380222
185	0x410e18c1	8.881043
186	0xba5467f9	-0.00081026513
187	0xbed7de79	-0.4216192
188	0x3e2919d4	0.16513759
189	0xbe943fa6	-0.2895481
190	0x419043e4	18.03315
191	0x3f8f9bdb	1.1219438
192	0xbf59a092	-0.85010636
193	0xbd55de79	-0.05221412
194	0xbfb3cdab	-1.404714
195	0xbe86eb69	-0.2635148
196	0xbf4bed11	-0.7965861
197	0x3e83d785	0.25750366
198	0xbf20fb28	-0.62883234
199	0x3fbf5863	1.4948848
200	0x3ecbd553	0.3981119
201	0xbe77ca47	-0.24198256
202	0x3f3802d0	0.7187929
203	0x3ecbb3fd	0.39785758
204	0x3f0fb1e0	0.5613079
205	0xbf1340a4	-0.5752051
206	0x3e88a99a	0.26691896
207	0x3dc527be	0.09626721
208	0x3f5eb049	0.8698774
209	0xc003ef2c	-2.061473
210	0xbd9b2431	-0.07575262
211	0xc01a6cf8	-2.412901
212	0xbe8b5179	-0.27210596
213	0xbe95c870	-0.29254484
214	0xbfeb9c30	-1.840704
215	0x3e9b3369	0.3031266
216	0x3f44125c	0.76590514
217	0xbeb039cb	-0.34419093
218	0x3feb547a	1.8385155
219	0x3f2622cc	0.64896846
220	0x3f84ea07	1.038392
221	0xbac1aa0c	-0.0014775409
222	0x3ca28016	0.019836467
223	0xbfe09279	-1.75447
224	0xbe3bf59c	-0.18355411
225	0x3f19e7c8	0.60119295
226	0xbe9dfd4d	-0.30857316
227	0x3cd0dddb	0.025496414
228	0xbfd02c0e	-1.6263444
229	0x3f4928f7	0.7857813
230	0xbc4589e1	-0.012056799
231	0x3e8b8618	0.27250743
232	0xbe3363d5	-0.17518552
233	0x4030dbef	2.7634237
234	0xbf2aab28	-0.66667414
235	0x3fc263d3	1.5186714
236	0xbc749ac6	-0.014929479
237	0x3dc69d41	0.096979626
238	0x4000b85b	2.0112522
239	0x3e3e1232	0.18561628
240	0x3fd81fc9	1.68847
241	0x3e29d276	0.1658419
242	0x400af719	2.1713316
243	0x3efd9d3d	0.49534026
244	0x3e3893b2	0.18025091
245	0xbf4298b0	-0.7601423
246	0xbe2cf612	-0.16890743
247	0xbfa85ffd	-1.3154293
248	0xbf0d0d66	-0.5509857
249	0x3e26d448	0.16291916
250	0x3f77a772	0.96739876
251	0x3e06bba3	0.13157515
252	0xbf61e4c7	-0.8823971
253	0x3f0be1aa	0.5464121
254	0x3ea3cd17	0.3199241
255	0x3e84106e	0.25793785

encoder.conv_logstd.bias f4 [16]
0	0xc070ad88	-3.7605915
1	0xc062e35b	-3.5451267
2	0xc0880777	-4.250911
3	0xc0778626	-3.8675628
4	0xc0b3994f	-5.6124644
5	0xc084b451	-4.1470113
6	0xc0a9661b	-5.293714
7	0xc0a571a9	-5.1701245
8	0xc05d04eb	-3.4534252
9	0xc067b35e	-3.6203227
10	0xc06f51e8	-3.7393742
11	0xc0741169	-3.8135626
12	0xc07d86bc	-3.9613485
13	0xc09d8c50	-4.923378
14	0xc072e926	-3.7954803
15	0xc08b50fa	-4.353635

encoder.conv_logstd.lin.weight f4 [16, 24]
0	0xbf050379	-0.51958424
1	0xbed08d5b	-0.40732846
2	0x3f8a36e5	1.0798002
3	0x3eca544c	0.39517438
4	0xbd004acc	-0.03132133
5	0xbdfb8db0	-0.12282884
6	0xbf17a275	-0.59232265
7	0x3f054a69	0.52066666
8	0xbf6ed859	-0.9329887
9	0x3f5d8f31	0.8654662
10	0xbf1e2b7a	-0.6178509
11	0xbce6f45d	-0.028192693
12	0x3eb240c2	0.3481503
13	0x3ed70051	0.4199243
14	0xbfa90159	-1.3203536
15	0xbf89e780	-1.0773773
16	0x3f2e6e4a	0.6813704
17	0xbc2abf64	-0.010421608
18	0x3ec0ddb8	0.37669158
19	0xbe81ab37	-0.2532594
20	0xbf2a4908	-0.66517687
21	0xbf8becdc	-1.0931659
22	0x3f88f947	1.0701073
23	0xbf21a826	-0.631472
24	0xbe659bdf	-0.22422741
25	0xbe5d2103	-0.21594624
26	0x3f886d35	1.0658327
27	0x3e07935f	0.13239811
28	0x3e05e617	0.13076054
29	0x3dcebc9f	0.1009457
30	0xbea696d9	-0.32536963
31	0x3c8e3724	0.017360277
32	0xbf189a08	-0.59610033
33	0x3f09e225	0.53860694
34	0xbd6340db	-0.055481773
35	0x3e3171c4	0.17328554
36	0x3eb18ca4	0.34677613
37	0xbeaff633	-0.34367523
38	0xbf10cdb8	-0.565639
39	0xbf268aa3	-0.6505529
40	0x3f2670e3	0.65016
41	0xbe5115b4	-0.20418435
42	0x3e395b61	0.18101265
43	0xbee1cb80	-0.4410057
44	0xbe3b07f1	-0.18264748
45	0xbf14bd2e	-0.58101165
46	0x3ebddf5a	0.37084466
47	0xbec03d2e	-0.37546676
48	0xbeade5e4	-0.33964455
49	0xbe351748	-0.17684662
50	0x3f8375b1	1.0270292
51	0x3f36df9e	0.7143496
52	0x3f155ccb	0.58344716
53	0xbe198b58	-0.14994562
54	0xbf1a7f13	-0.6035015
55	0x3ddb404a	0.107056215
56	0xbf383344	-0.71953225
57	0x3f41b5b1	0.75667864
58	0x3dab3796	0.083602116
59	0x3e6351ed	0.22199221
60	0x3eb8798e	0.3603024
61	0x3eadc0fe	0.33936304
62	0x3d014f69	0.031569872
63	0xbf16c50c	-0.5889442
64	0x3f1fb7bf	0.6238975
65	0x3e298c03	0.16557316
66	0x3e1c2100	0.15246964
67	0xbecb2c21	-0.39682105
68	0xbeec17e4	-0.46111977
69	0x3f6c1f35	0.9223512
70	0x3f8ee59b	1.116382
71	0xbf425da3	-0.7592413
72	0x3dc23a24	0.09483746
73	0xbeed3d8f	-0.46336028
74	0x3f92cf25	1.1469465
75	0x3eaec126	0.34131736
76	0x3e1704bd	0.14747901
77	0xbe2c7640	-0.16841984
78	0xbeedadb3	-0.46421584
79	0x3f139a95	0.5765775
80	0xbf6cc2a8	-0.9248452
81	0x3f90106a	1.1255009
82	0xbf0f8f30	-0.5607786
83	0x3b4fb591	0.0031693915
84	0x3db022ca	0.086003855
85	0x3f1f2d43	0.6217844
86	0xbfa1cebd	-1.2641217
87	0xbfa9d901	-1.3269349
88	0x3f01656a	0.5054537
89	0x3c3bc32a	0.011460105
90	0x3eebf9cf	0.46089026
91	0x3d436fda	0.04771409
92	0xbf3eecea	-0.7458025
93	0xbf8efc8e	-1.1170824
94	0x3f52ba43	0.8231546
95	0xbebe653c	-0.3718661
96	0xbfb2c1c3	-1.3965381
97	0xbda945db	-0.08265277
98	0x3f8583f6	1.0430896
99	0x3f1a057f	0.60164636
100	0x3f19e063	0.6010801
101	0x3c9fb4c9	0.019495385
102	0xbe596960	-0.21231604
103	0x3ec8996c	0.39179552
104	0xbf04baa0	-0.5184727
105	0x3eec791b	0.46186146
106	0xbd8d01aa	-0.06885083
107	0x3ede6a76	0.43440598
108	0x3f2558ce	0.6458863
109	0xbe9e03fb	-0.30862412
110	0x3f581908	0.84413195
111	0x3da9a4b8	0.08283371
112	0x3ef842fd	0.48488608
113	0x3e612d59	0.21989955
114	0x3da97d14	0.0827581
115	0xbf6c8b7b	-0.9240033
116	0xbec76294	-0.38942397
117	0x3fb16ba8	1.3860979
118	0x3f600c80	0.87519073
119	0xbecc6d76	-0.39927262
120	0xbf508f70	-0.8146887
121	0xbe8554e2	-0.26041323
122	0x3f88bf4f	1.0683383
123	0x3f24cf1d	0.6437853
124	0x3e2bf80c	0.16793841
125	0x3d90b51c	0.07065794
126	0xbf1c645a	-0.61090624
127	0x3e8df856	0.27728528
128	0xbf4c7084	-0.79859185
129	0x3f8fe441	1.1241533
130	0xbf1a2d99	-0.60225827
131	0x3e03adc0	0.12859249
132	0x3f249103	0.6428377
133	0xbcf0fb53	-0.029416716
134	0xbee3d69b	-0.44499668
135	0xbe6beb9b	-0.23039095
136	0x3f582f6a	0.8444735
137	0xbd3b1cb9	-0.04568169
138	0x3e8340e9	0.2563546
139	0xbf72c6a0	-0.9483433
140	0xbeeb7f85	-0.45995727
141	0x3f12e720	0.5738392
142	0x3f8510f0	1.0395794
143	0xbf47ff60	-0.78124046
144	0xbfbbbf91	-1.4667836
145	0xbe2be497	-0.16786419
146	0x3faf4336	1.3692386
147	0x3f352cfb	0.7077176
148	0x3f771389	0.96514183
149	0xbe057e54	-0.13036472
150	0xbf15f109	-0.58570915
151	0x3ed85593	0.42252788
152	0xbf4e5e35	-0.806125
153	0x3f60db8c	0.87835
154	0xbe42f537	-0.19038855
155	0x3e90dbd9	0.2829273
156	0x3f647506	0.89241064
157	0xbdae7059	-0.08517522
158	0x3f58ebeb	0.8473498
159	0xbe8a2e71	-0.26988557
160	0x3f2e33b3	0.68047637
161	0xbcb52a42	-0.022114877
162	0x3c355929	0.011068621
163	0xbf960070	-1.1718884
164	0xbf238f3f	-0.6389045
165	0x3fdddb07	1.7332467
166	0x3f888078	1.0664206
167	0xbf4c724e	-0.79861915
168	0xbfd2cbf8	-1.6468496
169	0xbe9afccd	-0.30270997
170	0x3fc14e6a	1.5102055
171	0x3f6bc047	0.92090267
172	0x3f56164b	0.83627766
173	0xbd5c7e88	-0.053831607
174	0xbf31bde1	-0.6943036
175	0x3e0b3fc1	0.13598539
176	0xbf52516e	-0.821555
177	0x3f75ea96	0.96061075
178	0xbe933902	-0.2875443
179	0x3eccfe25	0.40037647
180	0x3f796f92	0.9743587
181	0x3ea14961	0.31501296
182	0x3f767292	0.9626857
183	0x3a72ae30	0.00092575233
184	0x3f2ac001	0.66699225
185	0x3e50183f	0.20321749
186	0x3d03f6f2	0.032217927
187	0xbf9db92f	-1.2322139
188	0xbf44758f	-0.7674188
189	0x3fec9209	1.8482066
190	0x3f78dae2	0.9720899
191	0xbf889f3a	-1.0673592
192	0xbe27b548	-0.16377747
193	0xbee93c99	-0.45554045
194	0x3f6f5dc9	0.9350248
195	0x3ed336e7	0.41252825
196	0xbda1094d	-0.07863102
197	0xbe778941	-0.24173452
198	0xbe624d0f	-0.22099708
199	0x3ec7bc31	0.39010766
200	0xbf4b5832	-0.7943145
201	0x3f159056	0.58423364
202	0xbf0113db	-0.5042092
203	0xbcf61b47	-0.030042304
204	0x3eb49031	0.3526626
205	0x3ecd3073	0.40076026
206	0xbfa83e66	-1.3144042
207	0xbf2ba2a3	-0.6704504
208	0x3f172ba2	0.59050953
209	0x3db320c2	0.087464824
210	0x3e8ee0d1	0.27905896
211	0x3e8a75f5	0.2704312
212	0xbf2bf7f4	-0.6717522
213	0xbf93c67b	-1.1544946
214	0x3f364693	0.7120144
215	0xbf0472e3	-0.51737803
216	0xbf5c2b97	-0.8600401
217	0xbdb30e07	-0.0874291
218	0x3f8adb8f	1.0848254
219	0x3eeb173c	0.45916164
220	0xbea6370a	-0.32463866
221	0xbcb30173	-0.021851277
222	0xbe127bca	-0.14305034
223	0x3e0b33db	0.13594
224	0xbf256548	-0.6460767
225	0x3f37724e	0.7165879
226	0xbec7d178	-0.39027
227	0x3d94cd96	0.07265775
228	0x3cba5c08	0.022748962
229	0x3ec63e7b	0.38719544
230	0xbfb22117	-1.3916348
231	0xbf16b2f4	-0.5886681
232	0x3ecf04db	0.40433392
233	0xbd07f31e	-0.03319084
234	0xbd37fb98	-0.044917673
235	0xbe60246c	-0.21888894
236	0xbeb71746	-0.35759944
237	0xbff0f786	-1.8825538
238	0x3f4e7508	0.80647326
239	0xbe1b40d6	-0.15161452
240	0xbf1f3697	-0.6219267
241	0xbf1d556c	-0.6145847
242	0x3f662d8e	0.8991326
243	0x3ea390ac	0.31946313
244	0xbe61eee2	-0.22063783
245	0xbbf8d6e9	-0.0075939787
246	0xbed16f8f	-0.40905425
247	0x3ed71b25	0.42012897
248	0xbf27043a	-0.65240824
249	0x3f5d5f71	0.8647376
250	0xbf17a984	-0.59243035
251	0x3cd1641a	0.025560427
252	0x3cefbdac	0.029265247
253	0x3ec6d53e	0.38834566
254	0xbfb8cfab	-1.4438375
255	0xbec0dcb2	-0.37668377

classifier.weight f4 [2, 16]
0	0x4132ada5	11.167394
1	0x40bd7b12	5.921273
2	0xc088796d	-4.2648225
3	0xc16d8b7d	-14.846555
4	0x3ed4bc4d	0.41549912
5	0xc0cffb98	-6.499462
6	0x3fa81123	1.313023
7	0x3d44ae71	0.048017923
8	0x4114644f	9.274489
9	0xc1532db8	-13.198662
10	0xc1267d85	-10.405644
11	0x41308e18	11.034691
12	0xc01c20b8	-2.439497
13	0xbeddef86	-0.43346804
14	0x410ac86b	8.67393
15	0xc074d5b1	-3.8255427
16	0xc1324ff0	-11.144516
17	0xc0c60740	-6.188385
18	0x408bc368	4.3676033
19	0x416d3e83	14.827762
20	0xbf0442f8	-0.51664686
21	0x40cf1ed9	6.4725156
22	0xbfb5e13b	-1.420936
23	0x3e6878fc	0.22702402
24	0xc1170ede	-9.44113
25	0x41565bb9	13.397393
26	0x412717f3	10.443347
27	0xc1333760	-11.201019
28	0x40330ddb	2.7977207
29	0x3e435dec	0.19078797
30	0xc103c116	-8.23464
31	0x407ace73	3.9188507

classifier.bias f4 [2]
0	0xbfabaf0c	-1.3412795
1	0x3f8a0c41	1.078499
