trained-model/model_20240817_004020_epoch_0.pt (torch, 95404 bytes, 10 tensors)

encoder.conv1.bias f4 [32]
00000000: 0594 ac3d fd9a 023e 2885 cc3d 9a4e ab3d
00000010: fbc4 413e 3643 2a3e af4f 173c 8ddd 9a3d
00000020: 553f 5a3e f00d 7b3c 051f 87bc 00e1 093e
00000030: 3f23 1e3e 8804 123e 8c46 3c3e b819 b93c
00000040: db17 3abc b074 c03d 7c45 043e 4770 b63c
00000050: 66da f73d fcc2 d03d 9ce2 cb3d 22c0 f83c
00000060: 19cb 0a3e 2362 b03d 8a5e f03b 1c85 c03d
00000070: ff72 bf3d 024b ad3d f12a 333e bd03 723b
0.0842667 0.12754436 0.09986335 0.083646014 0.18922798 0.16627201 0.009235307 0.07561789
0.21313222 0.015323147 -0.016494283 0.13464737 0.15443133 0.14259541 0.18386286 0.022595271
-0.011358227 0.093972564 0.12917131 0.022270335 0.12102203 0.1019344 0.09955332 0.030365054
0.13554038 0.08612468 0.0073354887 0.094003886 0.09348106 0.08461572 0.1749685 0.0036928498

encoder.conv1.lin.weight f4 [32, 658]
00000000: 5f1e b03d 8d50 83bd 94fc fe3c e894 b7bd
00000010: 2e8d 4fbc 9285 96bb c00e 06be 673c 40bd
00000020: ad23 383c f7bf c53d a4ac 053e e441 88bd
00000030: 3fa1 48bd 9e50 8fbd c8bb 50bd c1d6 c0bd
00000040: 3927 4abc bef0 e8bd 1211 16bd 1ca8 643c
00000050: ce84 7fbd 7f18 a3bc 64ca 2abd 4e57 e03a
00000060: dee6 1bbd 37cf b23b 9d8e 95bd 12cd 3dbd
00000070: c877 993b 2cc9 a2bc ae41 43bc 90f8 4dbc
00000080: 6d53 483b e595 d1bd de33 a5bc e00e 333d
00000090: 9ba2 a5bd 20a5 30bd bc11 84bd 767f 8cbd
000000a0: 988d 95bc 18d7 3dbb 3716 81bd 0133 eebd
000000b0: 7b18 a6bc 046c 823b 7737 f938 1d32 9ebd
000000c0: b642 08bb 4446 47bd ae4a 773c 73a0 b03b
000000d0: baed 803b 3516 71bd 07e4 e0bc 8cd1 b5bc
000000e0: 7737 8eb9 8e2d 61bd 0033 c93c 5d4b 153d
000000f0: 304e 193c 1169 8dbd 0d7e c9bd 8bbc bbbd
00000100: 4b83 0abd 12fd 11bd 186d 23bd 2ecd a4bc
00000110: c959 1cbd 303a c1bd b937 fdbc 6b54 233d
00000120: 0a66 1ebc 0d17 44bd 80c6 ac3c f285 aebc
00000130: ee52 153d 0455 bebd 087e 0fbd 6940 b43d
00000140: 8e50 8ebc ee4b 163e cf5e 403e 8192 233d
00000150: 1eac 25bc 6258 603d 9669 973e d120 a63e
00000160: c88d 40bd d47a 72bc d501 50bd ba9c ba3d
00000170: 4c2c eb3d 4321 69bd a839 233e 087b e63e
00000180: 3ba2 b83d c740 bf3e 06cf 543e 763c f23d
00000190: 5daf 7b3d 9927 e83b 2687 143d 294d a33a
000001a0: 3c61 8b3c f33c de3d bc5f 2c3e 0f35 cb3d
000001b0: 57b1 2e3e 6607 2a3e e7c8 593d d261 2bbc
000001c0: ac37 1c3e 6be2 f5bd d1e5 bebb bf9e cabc
000001d0: 9357 06bd b844 3ebd dcaf 423c 667e 84bd
000001e0: 8139 9abd fae3 973d 3912 393e 5cb9 22bd
000001f0: 9c78 51bd a0b8 f8bc 0555 f73c 8ce8 6f3d
00000200: 2427 8cbd 698b 9ebc 2a78 523b ee61 22be
00000210: 5e34 01be f48e ebbd 1cf6 41bd 232d 7abd
00000220: e9a4 b43c 011e 5fbc 9962 193c 2d77 54bd
00000230: 9480 35bd d38e 823c e035 e03d 143e 24bd
00000240: ad61 953d c145 b83c 4869 5e3d e8a2 acbd
00000250: 188b 82bd 2491 9cbd 291b 70bd a30e 39bd
00000260: 7300 3abd c926 8a3c 51b4 f8bc b814 eabd
00000270: db64 b23e a64b 8f3e d9c2 58bd 9434 a6bc
00000280: 6272 043c 5c22 adba 5860 f93c 1239 7cbe
00000290: 008c 3ebd 06bd d3bd 73ad b73c 9c2a c93d
000002a0: 79e1 3bbd e0ea de3e 1a96 f8bc 350a d6bc
000002b0: fbc9 1ebd da66 2bbd 08df d6bd e69b f9bd
000002c0: 147a 6abd 551d aebc 2156 1b3d 94e6 b13d
000002d0: bdf5 073e 18c4 d53b 4cbf 4a3e b7eb d6bc
000002e0: 9d6e 02bd 30ad 043d bdd0 46bd a2d6 bdbd
000002f0: 2ca9 63bd 4bda 20bd 4dc1 78bd 4340 98bd
00000300: 8563 c33c 49c6 1f3e a7f5 c3bd 5f82 51bc
00000310: ba3c 6f3d 9966 163d db78 3b3c ade7 5ebd
00000320: 8d2f edbd cf00 d43c ce41 98bd 4517 b13b
00000330: bfc5 71bd d3b6 95bc 7f6b 19bc e592 0dbd
00000340: 606e b6bc 23fc 8fbd 4adf ae3c bec6 cdbd
00000350: 39d2 9cbd 4f5d 0bbd 6c1f d2bc 97f0 b5bd
00000360: 9f9b 9c3d a7bd 0abc 35cd adba 5a4e 32bd
00000370: 9aa6 20bd bf2e a03d dad9 3bbd 52c7 b53d
00000380: 0162 adbc 939b 1f3c 44a1 973e e076 f1bc
00000390: d383 a7bd e9dd 0fbb e44e 01bd eebf adbd
000003a0: 0e42 283e 8da1 1f3e a9bc 36bd 6d16 29bc
000003b0: a44a 0c3d 4140 843d cf45 5dbc 8a34 75bb
000003c0: e775 43bd 493d ccbc 6959 6bbd 6ac1 b6bd
000003d0: 24cd ce3e d429 b5bc ed41 01be e936 923d
000003e0: 6527 2b3f 3863 51be 44e9 bdbd 335a 9fbd
000003f0: 7911 6f3b 8191 cfbb 0583 973c fc4f 92bb
0.08599543 -0.06411848 0.031126298 -0.089639485 -0.012667937 -0.0045935595 -0.13091564 -0.046932604
0.0112389745 0.09655755 0.13054138 -0.06653193 -0.0489819 -0.069977984 -0.050960332 -0.09415961
-0.012338453 -0.11374043 -0.036637373 0.013956096 -0.06238251 -0.019909142 -0.04169692 0.0017115863
-0.03806197 0.005456831 -0.07302592 -0.04633815 0.0046834685 -0.019871317 -0.011917515 -0.012571469
0.0030567304 -0.10233668 -0.020166334 0.043715358 -0.08087655 -0.043126225 -0.06448695 -0.06860249
-0.018255994 -0.0028967317 -0.06303065 -0.11630822 -0.020275345 0.0039801616 0.000118835764 -0.07724402
-0.0020791716 -0.048650995 0.015093489 0.005390221 0.003934589 -0.05885907 -0.027452482 -0.022194646
-0.00027125675 -0.054975085 0.024560452 0.036448825 0.00935702 -0.069048055 -0.098384954 -0.09166821
-0.033816617 -0.035641737 -0.03989896 -0.020117369 -0.038171563 -0.094349265 -0.03091036 0.03987543
-0.009667883 -0.047873545 0.021090746 -0.021304104 0.03645604 -0.09293559 -0.035032302 0.08801348
-0.017372396 0.14677402 0.18786167 0.03993464 -0.010111837 0.05477179 0.29572743 0.32446912
-0.047010213 -0.014799792 -0.050782997 0.091119245 0.11483058 -0.056916486 0.15939963 0.4501574
0.09015318 0.3735411 0.20782098 0.11827938 0.061446536 0.0070847985 0.0362617 0.0012458909
0.017014138 0.10851469 0.16833395 0.099222295 0.17059837 0.16604385 0.05317011 -0.010460334
0.15255612 -0.120060764 -0.005825736 -0.0247339 -0.03279836 -0.046452254 0.011882748 -0.06469421
-0.07530499 0.0741653 0.18073358 -0.039727554 -0.051140413 -0.030361474 0.030191908 0.058571383
-0.06843403 -0.019353585 0.003211508 -0.1585767 -0.12617633 -0.115018755 -0.04735385 -0.061078202
0.022051292 -0.013617993 0.009361886 -0.051871467 -0.044312075 0.015937245 0.10947776 -0.040098265
0.07294021 0.022494199 0.054299623 -0.084295094 -0.06374186 -0.07644871 -0.058619652 -0.045179974
-0.045410585 0.016864197 -0.030359419 -0.11429733 0.34842572 0.27987403 -0.052920196 -0.020288743
0.008083912 -0.0013209092 0.030441448 -0.24631146 -0.046520233 -0.10338788 0.022421574 0.0982258
-0.045869324 0.4353857 -0.030345012 -0.026127914 -0.038766842 -0.041846134 -0.104917586 -0.121879384
-0.05724533 -0.021254221 0.037923936 0.086865574 0.13277335 0.0065236203 0.19799536 -0.026235444
-0.03184377 0.032391727 -0.048538912 -0.092694536 -0.055581257 -0.03927068 -0.06073122 -0.07434132
0.023851166 0.15602984 -0.09568339 -0.012787431 0.058407523 0.03671894 0.011442388 -0.054420162
-0.11581335 0.025879292 -0.07434426 0.0054043853 -0.059026476 -0.018275654 -0.009364008 -0.034563918
-0.022269428 -0.07030513 0.021346707 -0.10047673 -0.07657284 -0.034024533 -0.025649749 -0.088837795
0.0764687 -0.008468068 -0.0013260009 -0.043531753 -0.039221384 0.07821416 -0.045862056 0.08875908
-0.021164896 0.009741682 0.29615223 -0.02947563 -0.0817944 -0.0021952337 -0.031569377 -0.08483873
0.16431448 0.1558897 -0.044613514 -0.010320288 0.03425087 0.06457568 -0.013505413 -0.003741535
-0.047719862 -0.024931567 -0.057458315 -0.089236096 0.40390885 -0.022114672 -0.12622805 0.071393795
0.66856986 -0.20448005 -0.092730075 -0.07780876 0.003647892 -0.006334484 0.018495092 -0.0044651013

encoder.conv2.bias f4 [24]
00000000: 9cd8 90bc c230 f13d f075 6fbd 011b b83d
00000010: f362 90bb f3a3 f0bc 0287 cc3d 03f5 d2bc
00000020: c605 0f3e c95a ae3d 0bb8 c23d 9a3e 7cbc
00000030: c4cb 10bd 68a1 a8bb e5af 133e 7d6a 97bc
00000040: b727 c83d 80b3 3f3d 59f9 af3d 013d bfbc
00000050: 48c1 193e fc9a 6f3d dc47 08ba bb5f b43d
-0.017681412 0.11776878 -0.058462083 0.089895256 -0.004406327 -0.029375052 0.09986688 -0.025751596
0.13967046 0.0851341 0.0950776 -0.015395785 -0.035350576 -0.0051461942 0.14422567 -0.018483395
0.097732 0.046802044 0.08592481 -0.023344519 0.15015137 0.058497414 -0.0005198696 0.08807322

encoder.conv2.lin.weight f4 [24, 32]
00000000: 8104 f33c 6b36 36be d130 96be 51a6 5c3e
00000010: 592c 0e3d cebe 7d3d 941c a1be a087 0abe
00000020: 1118 e83d 9f51 1a3d 71a0 f03d 1576 873c
00000030: d3b8 4dbe 7431 a0be 6283 8abe 6a90 9b3d
00000040: 680b afbe 8752 903c 67cc edbd e577 243e
00000050: 7543 16be 864b 7ebe cf2d d9bd c5f7 283d
00000060: fa4a abbe 7dfb 843e e20f 943e 7496 4fbe
00000070: dd3f 51be 53f0 cfbc 2118 cebd 1a78 833e
00000080: 13a1 f7bd a150 a23e c1c0 e23e abfb 953d
00000090: a949 293e 25f5 363e 86f5 55be 0f3f 16bd
000000a0: 032c ed3e 3807 58be 321c ddbd fbb7 ce3e
000000b0: b65c 253e bb3e 83bd c919 103f bbc7 00be
000000c0: 7e88 77bd 9268 a83e 9514 5a3e e468 cfbe
000000d0: c510 683e 60b6 c43e 3518 933e e20a 24be
000000e0: 2f24 26bd 9197 cb3e 7cf8 dcbe 4750 d5bd
000000f0: fe3f be3e 98dc 67bb 8ad8 bc3e 88b7 173e
00000100: 9623 c23e e976 a3be c1cc 5e3d 659f b53e
00000110: 4dbb a5bd ed19 763e 87ee b8bd f7cf 3e3e
00000120: 4ae0 363e 5c7f 14be 399d b7be c383 f43d
00000130: 40c8 c9bd 7e46 fe3b d5de 1e3e 00f8 4cbf
00000140: 5a34 58be 5b54 aa3d 669c 8cbe 43c6 24bf
00000150: ef24 ad3d e962 d0bd 5660 5a3e 66f3 8bbe
00000160: f061 933e 5d50 5f3e 45fc 03bf 4d76 433e
00000170: ad7e d63d 500f 9bbd 24f3 c8bd 99cb 3fbf
00000180: c1ca eb3e b91e dabd ecef 753e 53b1 c13d
00000190: 694e 853d 0b7c 0d3e fef4 023e b64e 34be
000001a0: a144 bc3e c410 3ebe 3551 9cbe 942f e3bd
000001b0: f2ce 183e 5126 0d3d f1ab d8bc 3fc1 d4be
000001c0: e0e5 9abe c5fb 413e 37ad 513e 4705 8c3d
000001d0: 4795 d33e 98d2 8ebe 18c9 d03e 786c d1be
000001e0: f108 be3e 3e1d 213e 6a16 8cbe 6f99 893e
000001f0: 1a5e f9bd 271c fe3d fea1 8f3e c5bf 72be
00000200: 4ac8 20bd 178a 1c3e 33e0 4bbe 1245 07be
00000210: c0ca a33e aac0 5dbd 320d fe3d d98d 82be
00000220: 69ed 82bd c42e 133e 3ca9 043c f750 8d3e
00000230: b3f2 d03e ed56 a83d f585 b63d 39a4 ed3e
00000240: a14a 103e 3670 9cbe 5afc a43e 6f13 ea3e
00000250: 1444 a4be 45e2 b33d e2ce 02be 119d ec3e
00000260: 4d81 393e fb35 bdbe f922 3d3d 737b 9abe
00000270: 81a5 583e a37f 863e 3f2e c53d 3240 343d
00000280: 6f77 193e 24ba 07be e029 be3d 0197 7abe
00000290: d764 73be 5d5b aa3d 061b 163e a992 9fbe
000002a0: a472 4f3e 8301 4b3e 7b7f 643e 1368 ffbd
000002b0: 8653 723d 6115 06be 0386 fe3d f644 f93d
000002c0: 219b 563e 04d0 203e 5581 4f3e e05b 1b3e
000002d0: adf9 8abe 068d 2a3e 3f94 acbe 7c3a 31bd
000002e0: ff67 a6bd a0ef 87bd 2430 8dbe eb5e 923d
000002f0: 7bbd 93bd 811c 75bc d1b0 82be 3dfb 97bd
00000300: 4f9e 6f3e 46c5 cc3d 4fbd 863d efe2 cb3e
00000310: 20d6 773e 1203 ce3d 3541 d0be ed53 e23e
00000320: 0324 bd3e 3ec3 4bbe eedb 4bbe 557d ac3e
00000330: 598c 923c d168 983e 5ca0 813e d0da 96be
00000340: 966f 99be c358 6f3e 4707 a73e 206b 8fbe
00000350: 9073 cd3e 815d 433d df97 dd3e 8a3e 7a3c
00000360: df8a 133c e57c f53d 85e2 8fbe ec9d c93e
00000370: c64f c13e 1d96 173d b942 263e 663f 2ebe
00000380: 9fc7 0ebe f582 363e 0a68 233d 84a6 fcbd
00000390: 74f1 93be c9a3 6dbe fe94 ccbd 4400 713e
000003a0: 2322 e93d 949e b4bd fc46 8fbe 8ca5 6d3e
000003b0: ea40 5abe f95f f5bd 983d 23bd 872c 693e
000003c0: 934d 223e d5eb 8fbe 3230 d73d f93f b0be
000003d0: 9b0f 9bbd 98c5 823e 696d 8c3e c20c 273e
000003e0: 6b17 973e 91cc 803d ddce 8b3c 5071 8e3e
000003f0: 9671 83be f273 afbe ad76 ddbd b2e3 483e
0.029665234 -0.17794196 -0.2933412 0.2154782 0.034710262 0.061949544 -0.31467116 -0.135283
0.11332715 0.037675496 0.11749352 0.016535798 -0.20090036 -0.3128773 -0.27053362 0.07595904
-0.3418839 0.017617477 -0.11611252 0.16061361 -0.1467417 -0.24833497 -0.106044404 0.041251916
-0.3345564 0.2597312 0.28918368 -0.20272237 -0.20434518 -0.02538315 -0.10063196 0.25677568
-0.12091269 0.3170214 0.44287685 0.073233925 0.16532005 0.17866953 -0.20894441 -0.03668123
0.4632264 -0.21096504 -0.107963935 0.4037474 0.16148648 -0.06408449 0.56289345 -0.12576191
-0.060432903 0.3289228 0.21296914 -0.40509713 0.22662647 0.3842039 0.28729406 -0.16019776
-0.04056185 0.39764073 -0.4315833 -0.10415702 0.37158197 -0.0035379287 0.36883956 0.14816105
0.37917775 -0.3192666 0.054394487 0.3547317 -0.080923654 0.24033327 -0.090298705 0.1863402
0.17858997 -0.14501709 -0.3586214 0.11939194 -0.09852648 0.007759868 0.15514691 -0.8006592
-0.2111372 0.08316871 -0.27463073 -0.64365023 0.0845431 -0.101751156 0.21325812 -0.27334136
0.28785658 0.21808 -0.5155681 0.19088097 0.1047338 -0.0757128 -0.098120004 -0.7492004
0.46053126 -0.10650391 0.24017304 0.0945765 0.06509096 0.1381685 0.1278877 -0.17608151
0.3677111 -0.18561083 -0.30530706 -0.11093059 0.14922693 0.03446037 -0.026449176 -0.41553685
-0.30253506 0.18943699 0.20476232 0.06836944 0.41324827 -0.27895045 0.40778422 -0.40903068
0.37116197 0.15733811 -0.2736085 0.26874873 -0.121761516 0.124077134 0.28053278 -0.23705967
-0.03925351 0.15287052 -0.19909744 -0.13209942 0.31990623 -0.054138817 0.124048606 -0.25498846
-0.06392939 0.14373308 0.008096989 0.27600834 0.40810165 0.08219705 0.08912269 0.46414354
0.14090969 -0.3055436 0.3222378 0.45717952 -0.3208319 0.08783392 -0.12774232 0.46213582
0.1811573 -0.36955246 0.04617593 -0.3017231 0.21156885 0.26269254 0.09627961 0.044006534
0.14986967 -0.13254601 0.09285331 -0.24471666 -0.23768936 0.083182074 0.14658746 -0.3116658
0.20258576 0.19824795 0.22314255 -0.124710225 0.059161685 -0.13094093 0.124279045 0.121713564
0.20957614 0.15704352 0.2026418 0.15171766 -0.27143613 0.16655359 -0.33706853 -0.043268666
-0.081253044 -0.06637502 -0.2757579 0.071470104 -0.07213875 -0.014960409 -0.25525525 -0.07420967
0.23400234 0.099985644 0.065790765 0.39821574 0.24202776 0.10059179 -0.4067475 0.44204655
0.36941537 -0.19898698 -0.19908115 0.3368937 0.017889189 0.2976747 0.25317657 -0.29463816
-0.29967946 0.23373704 0.3262274 -0.28011417 0.4012723 0.047696594 0.4327993 0.0152737
0.009005277 0.11986712 -0.28102508 0.39378297 0.37756175 0.037008394 0.1623639 -0.17016372
-0.13943337 0.17823394 0.03989414 -0.12336448 -0.28895152 -0.2320701 -0.099893555 0.23535258
0.11383464 -0.08819309 -0.27983844 0.23207682 -0.21313825 -0.11981196 -0.039853662 0.22770892
0.15849905 -0.28109613 0.105072394 -0.34423807 -0.07571336 0.25541377 0.27427223 0.1631346
0.29510054 0.06289018 0.017066414 0.27820826 -0.25672597 -0.34268147 -0.10813651 0.19618109

encoder.conv_mu.bias f4 [16]
00000000: c09e c9bd 1c5b 263c 114a 2e3d ff1b 7c3c
00000010: 08f4 ea3d e219 2e3d 5954 d1bb 6a4f a63d
00000020: a546 8cbd 66a4 4c3d 823b 1e3d cd5f 4bbd
00000030: 6b1e 9c3d 308e 3f3d 405d a5bd 6ca8 c83d
-0.09844732 0.010153558 0.042551104 0.015387534 0.114723265 0.042505153 -0.006388229 0.08120616
-0.06849412 0.04996147 0.03863097 -0.04965191 0.07622989 0.04676646 -0.08074427 0.09797749

encoder.conv_mu.lin.weight f4 [16, 24]
00000000: 0b25 08be 272f 203e 627f 7cbf 5f50 91be
00000010: 4eb7 653e 5180 833e e1df 36be 8513 853e
00000020: bc63 eabd 6eb1 7e3d 9771 2d39 de53 0b3f
00000030: a525 003f 5fef 85be f38f 453e d23f a93d
00000040: 8abe ba3e bb7a 2ebe 672a d8bd f91a 4a3c
00000050: adeb 11bc a2cd 82be 22eb acbe 05a2 64be
00000060: 42e2 9e3e aa0a b1bd d531 4fbf dafd 4cbc
00000070: 14c9 883e e263 1bbe 0b22 8abd 6e87 0d3f
00000080: 011c 213e cbdb a03e a5b6 4a3c 068e 14be
00000090: be99 aa3e 0ab8 5f3e c6ec 14be 4d23 80be
000000a0: c106 813d 2527 273e fccd 94be d762 cbbe
000000b0: fd8b d2be 6d31 adbd 09d5 cc3e c888 d13e
000000c0: 161e 033e d062 e43d 78f2 143f ba68 05bd
000000d0: 3494 f83d 4a36 4d3e cf0a 21be ac02 debe
000000e0: 9660 febe c181 bcbd 0426 64bc 177a e2be
000000f0: 94af 7ebd 03b1 2dbf 6bf7 b7bd d37a 763e
00000100: 56ae 9d3e b08c 913e 33ed a53e d653 b23c
00000110: 0372 1a3e 21d9 603e 10d2 e2bd 63ae fe3c
00000120: db39 5dbd b57f 03be f5bc 323f 273e b7bd
00000130: 8a61 8dbe 6ca3 803e 3fdc 9ebe 9eeb 28be
00000140: a6ff d23e a39c 993e 3830 63be 1d0d 3dbe
00000150: 607c fdbe 8098 873d fa2c c33d baeb 263c
00000160: 1f68 9ebd c39f d83e 3c58 aabe 9936 e2bc
00000170: 4044 263e 1bb0 0abe f196 2c3e 5097 b3bd
00000180: 6b64 3bbe 1823 b4bd 23f9 86be 38b8 ee3d
00000190: a290 b6bd f5e9 9dbe bc6b 943e 1250 39bb
000001a0: 6877 60be 42ec 51be 90fd 98be 6b60 adbe
000001b0: 4e05 04be 89aa 013f d195 893e 4b07 e8be
000001c0: c083 523e 53ea b3bc 466e 4cbd 0549 7bbe
000001d0: 204c 3cbd 19a6 1ebe d142 0e3f b248 d33e
000001e0: f572 663d 9efe c33e 1a54 2c3f 246f 3d3e
000001f0: 4447 f1bd aa65 d2bd 7031 9ebe e3c7 2b3e
00000200: eb37 a6bb d537 82be 314b 98bc 6185 b9be
00000210: 41c7 64be 10ad 68be 985f e3be 44c6 3a3e
00000220: 374d 86be 38e1 e93e ab74 c83e 23b1 d0bd
00000230: 3efd 803e 9ce8 243e 4e09 353e dea2 d43e
00000240: 56e0 603e c553 a13d 93b0 01bf 64d6 8e3e
00000250: ac28 63be e866 233e b919 19be a9c8 e83e
00000260: ec46 74bd b0a2 693e 0934 cdbd ea5f 21be
00000270: 030e d6be efea 623e 8d81 d23d 44a5 d0bd
00000280: 72f2 71bd 33e4 1bbe a95a 123e 76fe a93e
00000290: 60e7 5dbe 22fc 41be 64a2 193d 18e9 b93e
000002a0: ee91 10be 6f75 29be 1938 303f ae76 b43b
000002b0: e461 c2be b209 b33d 5fd0 633d 096e 8c3e
000002c0: f436 5a3e 2a01 2bbd 09de 2a3b 14cd 883c
000002d0: 1991 9fbd 63ef 743e c44c e4bd 7ad4 0bbf
000002e0: 508b 903d 9745 e9bc 9031 823d c38e 853e
000002f0: 7245 60bd 6d1f 8cbe 2c2e 143e 44a2 d63e
00000300: bfa6 80bc 5a2a 1dbd faa1 24bf d95e 87bd
00000310: fd34 f93d 2866 fb3c c999 a5be 8dd5 fb3e
00000320: 5351 c13e cadc 03be 1420 8b3e 47b4 033f
00000330: 6784 ab3e c803 4bbe 19f3 713e cc37 863e
00000340: 3a22 1e3e 9363 7d3c ae3d 65be 2973 99be
00000350: 7c4c 8dbe 4c5a bbbe 09fa d8be 729a 483e
00000360: bf24 67be 505f 69be b7f6 133f 8f87 b23e
00000370: 6e37 7abd e724 633d 5b6f 1dbd 2590 09bf
00000380: d613 62be 97a0 ad3e 8b23 3fbe c7e8 01be
00000390: 6c5c 77bf 9435 9b3e b0fb 14be 6c9c 823e
000003a0: 3c73 e13d 7131 eb3e c10a afbe ab9c 6fbe
000003b0: 2c1f 073e 73f2 2d3e f919 a83e 4672 523e
000003c0: 33d0 703e a10d 583d faac 383f fc39 b13b
000003d0: b190 a1be d513 e5bc e7f5 b6bd 73c1 76be
000003e0: c57e 01bf fa04 823c 3bfd 8b3e 2b8c 00bc
000003f0: 4df1 f7be 7d1e c2bb 9de8 0b3e 82bd 093e
-0.13295381 0.15642987 -0.9863187 -0.2838163 0.22433206 0.25683835 -0.1785884 0.25991455
-0.11444804 0.06218093 0.00016540881 0.54424846 0.5005744 -0.26159188 0.19293194 0.08264126
0.36473495 -0.17039005 -0.105549626 0.012335532 -0.008906287 -0.2554751 -0.33773142 -0.2232743
0.31031996 -0.08644612 -0.8093541 -0.012511695 0.2671591 -0.15174821 -0.067447744 0.55284774
0.15733339 0.3141769 0.012372647 -0.14507303 0.3332042 0.21847549 -0.14543447 -0.25026932
0.06300116 0.16323526 -0.29063404 -0.39723846 -0.41122428 -0.08456693 0.40006283 0.40924668
0.12804446 0.111516595 0.5818248 -0.03257058 0.121376425 0.20040241 -0.1572678 -0.43361413
-0.49683064 -0.09204436 -0.013925079 -0.44233772 -0.062179163 -0.67848223 -0.08982738 0.24070291
0.3079707 0.2842765 0.3240753 0.021768492 0.15082555 0.21957828 -0.110752225 0.031089013
-0.054010253 -0.12841685 0.69819576 -0.089474015 -0.2761348 0.2512468 -0.3102741 -0.16496131
0.4121067 0.30002317 -0.22186363 -0.18462034 -0.49508953 0.06620884 0.09530063 0.0101880375
-0.07734703 0.4230939 -0.33270442 -0.027613925 0.16236973 -0.13543741 0.16854455 -0.08769095
-0.18300025 -0.08795756 -0.2636195 0.11656231 -0.08914305 -0.30842558 0.28988445 -0.0028276485
-0.2192055 -0.20500281 -0.29880953 -0.33862624 -0.12892649 0.5065084 0.26872113 -0.45318064
0.20558071 -0.02196232 -0.049909852 -0.24539573 -0.045971036 -0.15493049 0.55570704 0.412664
0.056261975 0.38280195 0.6731583 0.18499428 -0.11781171 -0.10273297 -0.30897093 0.1677547
-0.005072584 -0.2543322 -0.018590542 -0.36234573 -0.22341634 -0.22722268 -0.4440887 0.18239695
-0.26230785 0.4567964 0.3915151 -0.10190036 0.25193208 0.16104358 0.1767933 0.41530508
0.21960577 0.07877306 -0.50660056 0.27897942 -0.22183484 0.15957224 -0.14951219 0.45465592
-0.05963795 0.22815967 -0.100196905 -0.15759245 -0.41807565 0.22159933 0.10278616 -0.10187772
-0.059069104 -0.1522377 0.14292397 0.3320195 -0.21670294 -0.18943837 0.037508383 0.3631065
-0.14118168 -0.16548704 0.688356 0.005507312 -0.3796531 0.087420836 0.05561864 0.274277
0.21310025 -0.041749157 0.0026072285 0.016699351 -0.07791347 0.23919444 -0.111474544 -0.5462109
0.07057822 -0.028475566 0.063571095 0.2608548 -0.05475373 -0.27367726 0.14470738 0.41920674
-0.01570451 -0.038370468 -0.64309657 -0.06609888 0.1216831 0.03068836 -0.3234389 0.49186364
0.37757358 -0.12877193 0.2717291 0.51446956 0.33499452 -0.19825661 0.2362789 0.26214445
0.15442744 0.015465635 -0.2238681 -0.29970673 -0.27597415 -0.3659233 -0.42378262 0.19590166
-0.22572611 -0.22790265 0.5779833 0.34869048 -0.061088018 0.055455115 -0.038436275 -0.5373557
-0.2207788 0.33911583 -0.18665902 -0.12686454 -0.966254 0.30314314 -0.14549136 0.25509965
0.11008307 0.45936158 -0.34187892 -0.23399608 0.13195485 0.16987018 0.32832316 0.20551404
0.23516922 0.052747373 0.7213894 0.0054085236 -0.31555703 -0.027963558 -0.08933621 -0.24097233
-0.5058406 0.015871514 0.27341637 -0.007845919 -0.48426285 -0.0059240446 0.13662954 0.13451198

encoder.conv_logstd.bias f4 [16]
00000000: aee3 d1bd 5d26 bfbd b729 d7bd 0dd6 00be
00000010: e6e5 c1bd 4b61 b7bd f0ef d4bd 173f b4bd
00000020: 1d1a e0bd c6db 97bd 9e20 d5bd feac bdbd
00000030: 9dac bfbd 9789 0bbe 6763 99bd 7696 d5bd
-0.102485046 -0.09333489 -0.10506003 -0.12581654 -0.09467678 -0.08954104 -0.10397327 -0.08801096
-0.10942481 -0.07414965 -0.10406612 -0.09261511 -0.09359095 -0.13626705 -0.074896626 -0.10429089

encoder.conv_logstd.lin.weight f4 [16, 24]
00000000: 44eb b6bc 2849 febd 3718 a33e 9c6f b33d
00000010: b5c7 03bf 6478 e7bd 3fe6 b9bc 01b0 6d3e
00000020: e9bc 1cbf 9aaa 22be 0324 05bf 5d20 583d
00000030: ae0f 4abe 3beb 913e 4013 27bf 80a1 913e
00000040: 7547 483e 9b17 f53c e77c c7be 7b90 293e
00000050: db62 dcbc e297 9cbe 28af d1be 0c58 48bd
00000060: 4dab 153e ea7d c0ba 9c4b d3be 846e d9be
00000070: 4fae 38be fc9f 4cbe 8364 8d3d 5d34 153e
00000080: 158c 3ebe f398 8cbe 578b 62bd 247a 703e
00000090: fae3 0dbf 6f4f 3d3d 970b 1cbf 271b 093e
000000a0: 5ebc 38bc 59f2 f0be 4ffd f1be faac 15bd
000000b0: 8d22 12bf 4e6f 42bf 399a 3dbe 78a1 b2be
000000c0: 91b6 903e 09e8 163e 79dd 443e f967 26bd
000000d0: 206e 25bf a8fe a33a 2a8a f2bd 963d ae3e
000000e0: 8a34 68be f8a3 58be 4c41 b0be 2d91 853e
000000f0: bede 11bf e8ba 68be 79cc ccbd 1b98 d6bd
00000100: a54b b6be 3d56 d0be ecc2 263b 5492 a23d
00000110: 9378 cfbe c943 29bf e9eb e93d fd97 87be
00000120: a30b aa3e cfff febe 3f34 ee3c 3a43 c6be
00000130: 79bf 8cbd 6ee9 ffbb ebc6 41be d15e 833e
00000140: 330f d3be 40ac 173e dad2 e13c 10c7 fd3c
00000150: d5bf 24bf 5ed1 4a3e 30c2 83bd ed92 103d
00000160: 40d0 d1be 6d8b d33d c70b abbe eb06 82be
00000170: 402b c43d ab88 75bd 1b8f a5bc 0986 05bf
00000180: 8aa7 083e 225f 27be 9aaa a63e aee3 47be
00000190: d55a fd3b b897 60be 0765 11bd 1aad 1a3e
000001a0: 3764 9d3d 8b59 c5be 644b 0ebf 42bc cbbe
000001b0: 3368 bcbe fb1e 04be 28d3 1abf 0266 903e
000001c0: 69b1 873d 4a48 81be d9f6 bcbd 6cd7 9fbe
000001d0: 9391 14bf 1bfb 31bf 6ecc e6bc 8268 4cbd
000001e0: 8362 51be 73bf 82be 46ba ee3d 7b08 a7be
000001f0: 8429 7abe 0fd1 8e3e d73a 9fbe 739e b7bd
00000200: b494 55be 32cc 2fbd 3531 0ebf cbc4 c5bc
00000210: 719b bfbd 74b8 23be 357b efbe b86e 64be
00000220: 5541 6ebe d26a 80bd 4a96 a5be 793c 323c
00000230: c085 0dbf 6924 7fbe feff 1f3d c3e8 543e
00000240: fcac 61bd 9b19 fabe b065 8bbe 8884 8cbc
00000250: 66e8 4ebe 66fd 6fbe 3922 5ebd 3e81 c0bd
00000260: 74ef 0bbe 760d dabe fa5f b5bd 85ad fabd
00000270: 0184 2ebe 1910 7bbe a6c5 98be 3827 94be
00000280: c4ca adbd 8204 bbbe a6b8 8dbe 4cec 503e
00000290: fc70 08be 3f65 a6be 51c4 1dbe c2f1 9bbe
000002a0: a3da 863a 8344 c8be 926f 1dbe 3223 d2bd
000002b0: 7843 f9be 92b2 973e 0145 88be f8b9 813e
000002c0: 974b a8be fe83 aebe 60c6 debd a8fa 74be
000002d0: 578f cebe 5f9e e93c 2976 08bf e167 e23d
000002e0: c334 77be 80b9 dcbc d115 e0be d876 a73e
000002f0: 224d 2fbe b1ee c1bd 9a61 66bd abd8 dc3d
00000300: bf9f f03d d44e 39be 5b33 883d 5ee8 aabe
00000310: f55b 0abf 5ee4 963e 9d7f 3cbd 80f8 7abe
00000320: f68c 17bd 3e2d aabe ae04 cabe 91a8 b8be
00000330: 2657 dbbe f4df 7c3e 4550 5ebe ab00 9e3d
00000340: 78a5 c1be 8ef6 2cbe 7a4e a2be e235 24be
00000350: c9c8 9939 3dee 58bf e805 213e 3fe7 af3d
00000360: 38ac a63e 26d1 ebbe adfd 99bd 1b46 46bc
00000370: ad64 ea3d 7724 393e 719a c4be cf35 85be
00000380: 4722 56be 0a50 51be 7f24 24be 4543 e43c
00000390: ccf9 793d 7bbd 00be 1281 18bf 489d 0abe
000003a0: 7fc6 f7be e537 bebe c62a 74bc a93f a93e
000003b0: 730b 06bf a4d4 67be fb64 a03d 8abc 34be
000003c0: ac8f 953e 440c 5cbe dd59 33be 3f90 8fbe
000003d0: f837 2dbd c56d d83d 1223 b6be 9a88 d83d
000003e0: 9577 a9be 462a 0fbd e31f eebe 27b6 62be
000003f0: 5461 1dbf 0be0 9b3e 7fae eabe db5b 353e
-0.02232898 -0.12416297 0.31854412 0.08761522 -0.51476604 -0.113022596 -0.022692798 0.23211671
-0.61225754 -0.15885392 -0.52008075 0.05276524 -0.19732544 0.2849978 -0.6526375 0.28443527
0.19558509 0.029918483 -0.3896248 0.16559021 -0.026902607 -0.30584627 -0.40953946 -0.048912093
0.14616127 -0.0014685963 -0.41268623 -0.4246713 -0.18035243 -0.19982904 0.06903937 0.14570756
-0.18608125 -0.2746044 -0.055308666 0.23484093 -0.5542599 0.046218332 -0.60955185 0.13389264
-0.011275379 -0.47059897 -0.47263572 -0.036541916 -0.5708397 -0.7595109 -0.18515863 -0.34888816
0.28264287 0.14736952 0.1922511 -0.0406265 -0.6462116 0.0012511807 -0.11842759 0.3403136
-0.22676292 -0.21156299 -0.34424818 0.26087323 -0.569805 -0.22727549 -0.099999376 -0.104782306
-0.35604587 -0.40690795 0.0025445772 0.07938066 -0.40521678 -0.66119057 0.114219494 -0.26483145
0.33212003 -0.4980454 0.029077647 -0.38723165 -0.06872458 -0.0078098094 -0.18923537 0.25658277
-0.41222534 0.14811802 0.027566362 0.03097871 -0.6435521 0.1980643 -0.06433523 0.03529637
-0.40979195 0.10329328 -0.33407423 -0.25395903 0.09578562 -0.05994479 -0.02020984 -0.52157646
0.13345161 -0.16344884 0.32552034 -0.19520447 0.0077317753 -0.21932876 -0.035496738 0.15105096
0.0768513 -0.38544878 -0.55583787 -0.39792067 -0.36798248 -0.12902443 -0.6047845 0.28202826
0.06625635 -0.25250465 -0.0922677 -0.3121904 -0.5803463 -0.6952378 -0.028173652 -0.049904354
-0.20447735 -0.2553669 0.116566226 -0.32623658 -0.244299 0.27893874 -0.3109958 -0.08965769
-0.20857507 -0.042919345 -0.55543834 -0.02414169 -0.0935582 -0.15988332 -0.46773687 -0.22307861
-0.2326711 -0.06270374 -0.32341224 0.010878676 -0.5528221 -0.24916233 0.039062493 0.20791917
-0.05509661 -0.4884766 -0.2722602 -0.01715304 -0.2020584 -0.23436508 -0.054231856 -0.09399651
-0.13665563 -0.42588395 -0.08856197 -0.122401275 -0.17042543 -0.2451786 -0.29838294 -0.28936172
-0.0848594 -0.36526877 -0.27679938 0.2040264 -0.1332435 -0.3249912 -0.1540692 -0.30457884
0.0010288547 -0.3911477 -0.15374592 -0.10260619 -0.48684287 0.29628426 -0.26615146 0.25337195
-0.3287017 -0.34085077 -0.10877681 -0.23923743 -0.40343735 0.0285179 -0.533053 0.110549696
-0.24141221 -0.026943922 -0.43766645 0.32707858 -0.17119268 -0.09469355 -0.056245424 0.10783514
0.11749219 -0.18096477 0.0665042 -0.33380407 -0.54046565 0.29471105 -0.04602014 -0.24508858
-0.036999665 -0.33237642 -0.39456695 -0.36066106 -0.42839926 0.24694806 -0.21710308 0.07714971
-0.37821555 -0.16890928 -0.31700498 -0.1603618 0.0002933203 -0.8473852 0.1572491 0.085890286
0.32553267 -0.46058005 -0.07519088 -0.012101675 0.11444984 0.18080316 -0.3839908 -0.26017615
-0.20911513 -0.20440689 -0.16029547 0.027864108 0.06102924 -0.12572281 -0.59571946 -0.1353656
-0.48393628 -0.3715202 -0.014902776 0.3305638 -0.5236122 -0.2263971 0.078317605 -0.17650047
0.29211175 -0.21489054 -0.17514749 -0.2803974 -0.042289704 0.10567812 -0.35573632 0.1057293
-0.33099046 -0.034952424 -0.46508703 -0.22139798 -0.61476636 0.3044437 -0.45836255 0.17710821

classifier.weight f4 [2, 16]
00000000: 4dc7 873f e3d4 213f b1c1 0abf 27ca 81be
00000010: a137 e6bd 9999 a1bf dcc5 f63d f12e 91be
00000020: 30b8 8c3f be64 35bf ed8f 6cbf 2877 df3e
00000030: 240f 2fbf 023c ecbe 6a8d aa3f 5954 8abf
00000040: 92d9 84bf b738 66bf 1011 253f 3454 703e
00000050: 411e 383c 3e27 9e3f aedf 69be e400 0f3f
00000060: a90a a2bf 5445 683f b837 763f 1c50 1abf
00000070: c262 853f 7301 603e 09a4 64bf 7245 963f
1.0607697 0.63215464 -0.542018 -0.25349542 -0.11241079 -1.2624999 0.120494574 -0.28356126
1.099371 -0.70856845 -0.92407113 0.43645597 -0.6838248 -0.46139532 1.3324406 -1.0806991
-1.0378897 -0.8993029 0.6447916 0.23469621 0.011237682 1.2355726 -0.22839233 0.55860734
-1.2659503 0.90730786 0.9617877 -0.6027849 1.0420763 0.21875553 -0.893128 1.1739943

classifier.bias f4 [2]
00000000: 1246 d5bd 246d 22be
-0.104137555 -0.15861946
