trained-model/model_20240817_004020_epoch_100.pt (torch, 95432 bytes, 10 tensors)

encoder.conv1.bias f4 [32]
000000 2a ed 83 be 9d 3d 85 3e ed 7b 08 bc b2 8f 01 be
       -0.2576688 0.2602357 -0.008330327 -0.12652472
000010 e1 6a 06 be bc 19 56 3d d0 3c 79 bc 01 2f 92 be
       -0.13126709 0.052270636 -0.015212253 -0.28551486
000020 86 2c 1d be d8 ea 69 bd f4 46 65 bd ba 8f 49 be
       -0.15349016 -0.05710873 -0.05597587 -0.19683734
000030 a5 63 41 3e 89 92 04 3d d2 65 77 be 11 c5 3c 3d
       0.18885668 0.03236631 -0.24159935 0.046086375
000040 aa 81 46 3e 19 4a f2 bd a0 00 75 bc dd e2 17 bd
       0.193854 -0.11830539 -0.014953762 -0.037081588
000050 0a de c0 3d 62 1b 8a 3e 77 97 9f bd 76 ab bf bc
       0.094173506 0.26974016 -0.077925615 -0.023397189
000060 38 d0 36 be 72 46 84 be a3 cb 01 bd fc 1b c5 3c
       -0.17852867 -0.25834996 -0.031688344 0.024061196
000070 48 a5 36 be 3e 45 73 be 65 67 5b 3e 4b f8 76 bc
       -0.17836487 -0.23756883 0.2142616 -0.015073846

encoder.conv1.lin.weight f4 [32, 658]
000000 dc 77 dd be 65 98 a2 bd 08 2e 7a 3e e8 94 b7 bd
       -0.43255508 -0.07939223 0.24431622 -0.089639485
000010 30 7a 5d be 34 0d 57 bf 75 45 9d be ed 05 20 bf
       -0.21628642 -0.8400452 -0.30717054 -0.6250904
000020 69 3f b8 bf 97 1f d3 3e 91 08 08 be c9 d8 9f bf
       -1.4394351 0.4123504 -0.13284518 -1.2488033
000030 3f 7a 96 bf 57 f0 39 3e c2 66 b4 bc 50 06 26 bf
       -1.1756057 0.18158089 -0.022021655 -0.6485338
000040 ee d3 49 bf 1a 4b 28 3e 84 80 ca bc bc e0 ae 3e
       -0.78839004 0.16434899 -0.024719484 0.34155834
000050 6d d1 80 3e d9 ce d9 bf 3f 5d ba bf 4d 8b 70 3e
       0.2515978 -1.701625 -1.4559706 0.23490639
000060 db 20 0c bf a0 e2 94 3e d8 d2 9a bf d4 04 ed be
       -0.54737633 0.2907915 -1.2095594 -0.46292746
000070 8c 57 7d bf 0d 6a a6 be 60 5c a5 be f8 5c 93 bf
       -0.9896171 -0.32502785 -0.3229704 -1.1512747
000080 ab 49 75 3e 0c 70 b8 3e 52 7d c0 3e bb b2 57 bf
       0.23953883 0.36022985 0.37595612 -0.84257096
000090 ed bb 21 c0 34 01 b3 3e d7 2a ba 3e c2 0d bf 3e
       -2.527095 0.34961855 0.3636081 0.37315184
0000a0 59 6a b2 3e a7 a3 76 3f 33 00 04 3c 0d f4 7a be
       0.34846762 0.96343464 0.008056688 -0.2450716
0000b0 2b d8 fb bf 85 ea 0f be 73 b6 d4 3e c5 92 4f bf
       -1.9675344 -0.14054306 0.41545448 -0.8108333
0000c0 f1 f3 7f 3e 20 15 81 3e 53 2b 7f 3e ed a3 1f 3c
       0.249954 0.2521143 0.2491887 0.009743673
0000d0 9e 7d da bf 18 18 be bd 65 5e 2c be 3a 2a 58 bf
       -1.7069585 -0.09281939 -0.16832884 -0.8443943
0000e0 a8 6f 4e bf 0a ad 05 bf 69 05 7e 3e 1a 83 d9 be
       -0.80639124 -0.5221716 0.24806751 -0.42482835
0000f0 84 83 9b 3e ba f4 ee 3e e8 56 af bf b1 21 c8 3e
       0.30373776 0.46671087 -1.3698397 0.39088205
000100 2f 76 51 bc 3e 92 0a bf 4b 28 7f 3e ba 15 66 3e
       -0.012784525 -0.541294 0.24917714 0.22469226
000110 8c 8d be be 96 1a 94 bd 2c 9d 34 3e a0 a9 7d 3b
       -0.37217367 -0.07231633 0.17638081 0.003870584
000120 a0 0e 3f be db 5e 81 be 18 45 6c 3e 55 fe f7 be
       -0.18657923 -0.2526768 0.23073232 -0.48436227
000130 6a b0 9f bc d6 4a 05 bf 37 1f 7c 3e ea ae 2a be
       -0.0194933 -0.52067316 0.24621283 -0.16668287
000140 97 02 08 3d b0 6d f3 bd 67 0f 8b 3f 43 3f 8c be
       0.033205595 -0.118861556 1.0864075 -0.27392015
000150 ff 74 84 3d 5a a7 ce 3e f1 08 3d 3f e7 f1 ed 3e
       0.06467628 0.40362054 0.7384177 0.4647362
000160 d4 0a ba bd ab a7 96 bf 93 85 d6 bf 54 69 45 bf
       -0.090840966 -1.1769918 -1.6759514 -0.7711384
000170 18 84 79 3e 76 78 d5 be 47 9d f4 3e 4a 99 1f 3f
       0.24366796 -0.41693467 0.47776243 0.62343276
000180 b2 d7 74 3f 11 37 21 3f e1 2a b7 3e 6c 23 21 3f
       0.95641625 0.6297465 0.35774902 0.62944674
000190 65 c9 80 3e 7a 3e ae bf 4c f2 f8 3b fe 52 b0 bf
       0.25153652 -1.3612816 0.0075972434 -1.3775327
0001a0 8f 0f 78 3e e2 f0 b1 3e 8e ae 05 bd e4 15 68 3e
       0.24224685 0.34754092 -0.03263717 0.226646
0001b0 40 47 24 bf b3 9c 41 3f cd cf 27 bf 0b 01 11 3e
       -0.6417122 0.7562973 -0.65551454 0.14160554
0001c0 83 d9 fa 3e 5f 01 02 3f 9d 4e c1 3e 1f 5e 98 bf
       0.48994073 0.5078334 0.3775529 -1.1903723
0001d0 29 cf 12 3f 82 68 4c 3d db 06 b7 bf bc 78 c9 bf
       0.5734735 0.049904354 -1.4298967 -1.573997
0001e0 8b ca 17 bf 0c d1 82 3e 1f b7 56 3f d0 4d 9a bf
       -0.5929343 0.25550115 0.8387317 -1.2054996
0001f0 69 23 ac bf 7f 81 22 3d 88 60 1d 3f 5b 32 e5 3e
       -1.3448306 0.03967428 0.6147542 0.4476498
000200 f1 2b c8 3e 3f 80 bd 3e 93 fe c8 be 4b d1 30 c0
       0.39096025 0.37011907 -0.39256725 -2.7627742
000210 55 22 1c c0 b5 40 07 3e 3e 5e d3 3e ec ca a5 bf
       -2.4395955 0.13208278 0.4128284 -1.2952552
000220 bd 9e b9 bf 8b 5f 54 3f f2 90 d8 3c e3 7f e0 3e
       -1.4501568 0.82958287 0.026436303 0.4384757
000230 fd 3b a2 bf 32 14 b1 bd 2e 0f 6a be 79 d1 f0 be
       -1.2674557 -0.0864643 -0.22857353 -0.47034815
000240 08 8f 0e 3f 8d 4b 0f 3e 76 03 65 bf 04 39 b4 bd
       0.55687 0.13993664 -0.89458406 -0.08799937
000250 ff 7f a6 bd b0 dd 3f bf 22 f1 f5 3e b1 eb 8f 3c
       -0.08129882 -0.74947643 0.48035532 0.017568441
000260 29 52 43 3d 5d c7 9f 3e 90 57 5a be 9b 9c 86 3e
       0.047685776 0.3120679 -0.21322465 0.26291355
000270 3d 70 f7 3e b7 ad 53 3f 93 7b eb bf 88 ee 67 bf
       0.4832782 0.8268694 -1.8397087 -0.90598345
000280 3a 57 7c bf f6 7a 6d 3f 40 7e 9c bc 8f 87 1d c0
       -0.985706 0.9276575 -0.01910317 -2.4613988
000290 47 9c 47 be 24 ff e5 bf 18 7f 1f bf 89 ea bc 3e
       -0.19493209 -1.7968488 -0.62303305 0.36897686
0002a0 9b 80 38 bf 9f cb a6 be 70 70 d9 bd fc e7 07 bf
       -0.72071236 -0.32577226 -0.10617149 -0.53088355
0002b0 ec d2 af be c1 e5 ce bf d2 e4 c8 be 73 6d ea 3d
       -0.34340608 -1.6163865 -0.39237076 0.11446657
0002c0 2c 25 d6 3e ba f3 a4 be 90 2c 07 bf dd 5c 87 3d
       0.41825235 -0.322172 -0.5280237 0.06609509
0002d0 9e 8e 01 3e e5 9e 1b bf b7 e6 ae 3e a5 13 c0 bf
       0.1265206 -0.6078933 0.34160396 -1.5005995
0002e0 03 62 a4 bf 98 7a 24 c0 20 41 5b 3e 4f 84 71 3e
       -1.2842411 -2.5699825 0.21411562 0.23585628
0002f0 3a 9c 89 3c bc bb 87 3d 91 cb 79 3c 96 a9 81 3e
       0.016798127 0.06627604 0.015246288 0.25324696
000300 73 39 aa bf 9d a9 9f 3e b3 e6 b4 bd 53 c6 a7 bf
       -1.3298782 0.31184092 -0.08833065 -1.3107399
000310 48 e2 11 3f 36 bb 50 3e d5 68 d4 be d0 5a 61 3e
       0.569859 0.20383915 -0.4148623 0.22007298
000320 d9 88 33 3e 7e 72 19 bf 13 c4 84 be de 17 00 3f
       0.17532672 -0.59940326 -0.25930843 0.5003642
000330 ff 9b 99 bf 7c c3 85 bd 2f 39 bc bf 23 10 dd bf
       -1.2000731 -0.06531426 -1.4704951 -1.727055
000340 e3 44 98 3e b3 a0 a0 3e c4 4d 97 bc 45 29 2f 3d
       0.29740056 0.31372604 -0.018469699 0.042763967
000350 ba 0a a6 be ec c9 0f 3e de 8f 21 bd ae ba 61 bd
       -0.3243006 0.14041871 -0.039443843 -0.055109672
000360 ee 7c bd 3e a6 18 c7 3d 94 50 c6 3d d2 69 ad 3e
       0.37009376 0.09721498 0.09683338 0.33869797
000370 32 4a 44 3e 71 4f 00 3f 43 9b 0b 3e 4f 27 96 be
       0.19168928 0.5012122 0.13633446 -0.29326865
000380 c7 d7 80 bf 7f 52 24 3e 0c c4 c5 3e cb d0 28 be
       -1.006585 0.16047095 0.38626134 -0.16485898
000390 57 93 1e 3f c3 2e e2 bf 6d cc 7a be 61 31 88 bf
       0.6194357 -1.767052 -0.24492045 -1.0640069
0003a0 fb 06 a3 3e a7 8e 2b 3e 46 4c 37 c0 85 2d 7d 3e
       0.31841263 0.16753636 -2.8640304 0.24724396
0003b0 b0 53 8c bf 73 1a e1 bf b6 80 95 be 8e 82 c4 bf
       -1.0963039 -1.7586197 -0.2919976 -1.5352342
0003c0 e0 1e 6f 3e 0d 3e 3c bd 90 4a a6 bd a2 99 ca be
       0.23351622 -0.045957614 -0.081196904 -0.39570338
0003d0 d3 23 80 3f 47 0f e7 bd f9 87 0b 3c f8 3d 0d 3f
       1.0010933 -0.11282211 0.008516305 0.5517268
0003e0 ee db 45 3f 73 d0 d8 bf 79 e2 88 be c5 bd 8b 3e
       0.7728871 -1.6938614 -0.26735285 0.2729322
0003f0 00 28 80 bd 34 cd ce bd df ae 2e bc a6 43 03 3e
       -0.062576294 -0.10097733 -0.01066181 0.12818775

encoder.conv2.bias f4 [24]
000000 22 fe 10 bf 7b 37 37 be 17 c2 51 be 85 6b 6e bf
       -0.56637776 -0.17892258 -0.20484196 -0.9313281
000010 21 41 1d be 35 98 3e be 60 5c 00 3e 3c 77 9a be
       -0.15356876 -0.1861275 0.12535238 -0.30169094
000020 b8 58 ca 3d 3c da c2 be 29 40 97 bd f0 87 14 bf
       0.09880203 -0.38057125 -0.073852845 -0.58019924
000030 ea 4d 8c be 25 71 88 3c 6a 92 83 bd 72 12 ce bd
       -0.27403194 0.016655514 -0.06424411 -0.10062112
000040 6f ff 14 be 9d 71 0d 3e ec bd 2f be ac aa 89 be
       -0.14550565 0.13812871 -0.17162293 -0.26888025
000050 a5 c2 64 bf d6 6b 6a bd 0e 23 5f be 5d 2c 10 3f
       -0.89359504 -0.057231747 -0.21790716 0.56317693

encoder.conv2.lin.weight f4 [24, 32]
000000 4e a6 e8 3e 06 d6 0e c0 82 b3 bd 3c c5 d8 9b 3e
       0.4543938 -2.231813 0.023156885 0.3043882
000010 1b cc f1 3e cd cf bf 3e d8 e0 49 bf 85 91 bb be
       0.47226033 0.37463227 -0.7885871 -0.3663446
000020 44 c6 02 3f 50 ba ec 3d c3 1e 49 3f 50 90 36 3e
       0.5108378 0.11558974 0.78562564 0.17828488
000030 83 76 32 bf f2 f1 ab bf 88 9d 89 be 4e bb 30 3f
       -0.69712085 -1.3433211 -0.26878 0.69035804
000040 88 b5 e4 be 08 86 9b bd e7 3f 19 bf 86 e5 d1 3d
       -0.44669747 -0.07593924 -0.5986313 0.10248856
000050 ec 5c bc 3b 95 7d 6b bf 8e a1 44 be 6a 7c 72 3e
       0.005748382 -0.919885 -0.19202253 0.23680273
000060 2d 8b 5c be e5 97 2b 3f 4b e5 f2 3e 1e 55 e7 be
       -0.21537466 0.6702865 0.47440562 -0.45182127
000070 fd 7e 6c 3f c5 2a 16 3f 8a a2 d9 be c3 0f c1 3e
       0.9238127 0.5865901 -0.4250682 0.37707338
000080 90 35 5d bf a2 71 52 3f f5 00 2d 3f 95 84 fd bf
       -0.86409855 0.8220464 0.67579585 -1.9806086
000090 15 f3 dc be 73 bf 14 bb 3a e2 81 bf 9f 92 1f bf
       -0.43154207 -0.002269712 -1.0147164 -0.623331
0000a0 a6 fc 0d 3f 75 6b 2c bf 57 29 8d be 78 65 cc be
       0.55463636 -0.67351466 -0.27570602 -0.39921165
0000b0 58 bd 7e bd 5c 2e b8 bf 88 4e 85 3f 6b d5 0c bf
       -0.06219229 -1.4389148 1.0414591 -0.5501315
0000c0 29 80 12 bf 87 11 8d 3e 2f 2d 1b 3f 1a b3 37 bf
       -0.57226807 0.27552435 0.6061582 -0.7175766
0000d0 f5 6d 43 3f ba 75 fa be 64 04 ad 3e 22 1a 9e be
       0.76339656 -0.48917943 0.33792412 -0.30879313
0000e0 53 84 1a 3e e1 c4 ff 3f 8f 53 a0 bf 8c a0 3b 3e
       0.1508954 1.9981958 -1.25255 0.18322963
0000f0 64 98 3b 3f 2b 1a 98 bf 16 34 38 3e 0b 51 6b be
       0.73279405 -1.1882986 0.17988619 -0.22980134
000100 db 5f 30 3f 08 97 b0 bd 98 62 cc 3e 1d b2 ab 3e
       0.68896264 -0.08622557 0.3991897 0.33534327
000110 5e d1 24 3f 31 d2 05 3f f6 47 2f bf 20 cd e4 3e
       0.6438197 0.5227385 -0.6846918 0.44687748
000120 cc 55 04 3f 57 2a 55 bf 37 c5 dd bf c8 a4 33 3e
       0.51693416 -0.8326773 -1.732581 0.17543328
000130 b3 37 3a 3e fc 78 63 3d ad c4 bc 3e 73 ba 68 bf
       0.1818531 0.0555353 0.36868802 -0.909095
000140 ca 18 9b bf ba 40 e1 bd 2b 06 6b bf c5 80 53 bf
       -1.211694 -0.10998674 -0.91806287 -0.8261836
000150 e4 c8 c5 3e e3 73 17 bf 0c be 18 3e 49 23 58 bf
       0.3862983 -0.59161204 0.14916247 -0.8442884
000160 22 9b bf 3e ff a4 94 3e 92 3b 88 bf ec e1 ae 3e
       0.37423044 0.29032132 -1.064318 0.3415674
000170 fb 12 fb 3e 86 91 1f 3e e5 4d 1f be 63 33 ac bf
       0.49037918 0.15582857 -0.15557058 -1.3453182
000180 c4 b8 4f bd b4 2b 04 bd 4a 60 f9 be 5e 77 bf bd
       -0.050713316 -0.03226824 -0.48706275 -0.09348939
000190 69 13 67 bd ef 06 01 3e 58 3d 0d 3e 51 bf 38 bf
       -0.056414995 0.12600301 0.13792932 -0.72166926
0001a0 2a 83 7b 3f f2 6f fa be ec 02 5f bf d9 93 1e bf
       0.98247015 -0.48913532 -0.87113833 -0.6194435
0001b0 73 2d 93 bd 48 2d 3f bc ba 84 5c 3f 0f 2b 89 be
       -0.07186403 -0.011668511 0.86140025 -0.26790664
0001c0 64 40 09 bf e6 81 7e 3f c4 74 6c be 02 1b 34 bf
       -0.5361388 0.9941696 -0.23091418 -0.7035371
0001d0 5b e5 0c 3f 51 fa f7 be b6 8a 8f 3f 9a 1e ff be
       0.5503747 -0.48433164 1.1214206 -0.49828035
0001e0 89 13 25 bd 76 34 8c 3f 5c 5d 3d bf 4d 0e 30 3f
       -0.040301833 1.095351 -0.7397058 0.6877182
0001f0 71 3d 93 be 34 c2 03 3e c5 ba c5 bd 76 9f b3 be
       -0.28757814 0.12867051 -0.09654764 -0.35082597
000200 1b fc 3b 3f 28 5b fc bd 97 bc 18 bf af b7 e2 3e
       0.7343156 -0.12322074 -0.59662765 0.44280764
000210 de b8 f1 3d 48 19 1e bf c4 66 42 bf c3 88 0e 3f
       0.11802839 -0.61757326 -0.7593806 0.5567743
000220 46 97 b3 be 2d 20 ed 3d 35 9c d5 3c dc ff cd 3e
       -0.3507635 0.11578403 0.026075462 0.40234268
000230 87 d5 9b be d0 00 53 3f 79 cd d0 3e 91 6d 2d 3f
       -0.30436346 0.82423115 0.40781763 0.6774531
000240 82 43 8b bf d4 97 0e 3f e4 56 af 3e 5a 14 3e 3f
       -1.0879977 0.5570042 0.3424598 0.74249804
000250 75 df 00 bf 60 7a 17 bf 62 c3 9d be e4 f3 7a bf
       -0.5034097 -0.59171104 -0.30813128 -0.980284
000260 25 6d 08 3f ee e0 58 bf 45 f4 1b 3f 7a ee 33 be
       0.5329154 -0.84718215 0.609196 -0.1757144
000270 dc 72 45 be 45 22 0e bf 26 42 56 bd e9 cb eb bf
       -0.19282097 -0.5552104 -0.052309178 -1.8421603
000280 5c e1 d9 3e 7b 65 90 3d 1d a7 34 3f 92 5e cd 3e
       0.42554748 0.07050606 0.70567495 0.40111214
000290 93 c2 19 bf a5 2f 58 bf 5e a3 ee 3d dc 50 3d be
       -0.6006252 -0.844477 0.116522536 -0.18487877
0002a0 67 35 05 be 18 ea 14 3e 93 8b c2 bb 5e 5f bc 3c
       -0.13008653 0.14542425 -0.0059370487 0.022994693
0002b0 7d 60 1b 3f 12 ec 18 bf aa 68 36 3f f7 e7 1a be
       0.60694104 -0.59735215 0.71253455 -0.1512755
0002c0 16 c1 45 bf a4 b0 41 3e c7 b6 1e bf 47 66 50 3f
       -0.7724775 0.1891504 -0.61997646 0.8140606
0002d0 36 bc 4c 3d db 2e 3f bf 32 c3 bc be 93 08 1b bf
       0.04998418 -0.7468087 -0.36867672 -0.6055996
0002e0 67 04 75 bf cc de 29 bf 85 96 e1 bf c6 47 4e 3f
       -0.9570984 -0.66355586 -1.762406 0.8057827
0002f0 93 00 40 bf 2f b2 d3 be fc 12 a7 bf fa 9a 5c bf
       -0.75000876 -0.4134688 -1.3052669 -0.86173975
000300 8b 5e cf be f0 65 22 3f 45 2a d6 be 93 b6 e7 3e
       -0.40501818 0.63436794 -0.41829124 0.4525648
000310 ef 52 05 be 34 b3 33 be 08 68 a3 be 63 b8 b7 3e
       -0.13019918 -0.1754883 -0.31915307 0.35882863
000320 7b a6 46 be f1 ee 33 bf 2c 80 58 be 68 f6 e9 bd
       -0.19399445 -0.7028647 -0.21142644 -0.114239514
000330 fd 8e 4e bf ab b5 76 bd 1c 35 b3 3e f6 a1 04 c0
       -0.8068693 -0.060231846 0.35001457 -2.0723853
000340 8c a0 e9 bd b1 5e 5b bf 83 cf 85 3d 80 f8 61 bd
       -0.11407575 -0.8569136 0.0653372 -0.05516863
000350 3e 2a 92 3f 8c 4a 35 bf 0b 8e f5 3e c6 56 e8 be
       1.1419141 -0.70816875 0.47959933 -0.45378703
000360 e9 9e 25 bd 9f c2 05 bf 4c 00 20 3f 88 8e 4a 3f
       -0.04043475 -0.52250093 0.62500453 0.79123735
000370 6a de 7b be 18 bc 98 bd b4 ee fe be 28 39 36 bf
       -0.24596563 -0.07457751 -0.4979149 -0.71180964
000380 60 b2 9a be 31 0c 4d 3e 71 91 54 be d5 07 6b 3e
       -0.30214214 0.20024182 -0.20758606 0.22952206
000390 63 3f 92 bf e5 f0 47 bf 8e 3c a0 be b7 a0 03 3f
       -1.1425594 -0.7810195 -0.312962 0.51417106
0003a0 ce 69 af 3e 11 49 16 be 84 7b 9c be de eb 2f 3f
       0.3426041 -0.1467631 -0.30562985 0.6871928
0003b0 f9 fc 7f bf 20 98 9e be 76 15 95 3e d6 40 a2 be
       -0.9999538 -0.30975437 0.29117936 -0.3169009
0003c0 ef f8 6f be c2 49 05 be 93 04 ff 3e 54 53 69 be
       -0.23434804 -0.13016418 0.49808177 -0.22785693
0003d0 8b d2 1c be 54 ff a1 3c 52 86 38 3f e4 65 bd 3e
       -0.15314691 0.01977507 0.72079957 0.369918
0003e0 4d a7 17 3f 0f dc d2 3e 5f a3 32 3e 37 d5 30 3f
       0.59239656 0.41183516 0.17445134 0.6907534
0003f0 40 0d b7 be 2b 47 1a c0 8a 47 b0 be cf 3d d9 3d
       -0.35752296 -2.4105937 -0.3442958 0.10607492

encoder.conv_mu.bias f4 [16]
000000 4f 5d 20 3c 4e d6 42 3d 47 41 a8 bc d4 01 ae bb
       0.0097878715 0.047567658 -0.02053894 -0.0053102765
000010 d6 2b 12 3e e6 94 5b bd d3 98 ca 3c f3 55 f5 bc
       0.14274535 -0.053608797 0.024731075 -0.02994821
000020 fb 75 b4 3b 26 ee b0 3a c7 6f 1c 3d a5 56 37 3c
       0.0055072284 0.0013498708 0.038192537 0.011190091
000030 52 8a c9 bc b3 4e c8 3d ad 3c 5a bc 2e 6a 33 3d
       -0.02460209 0.09780636 -0.01332013 0.043802433

encoder.conv_mu.lin.weight f4 [16, 24]
000000 bf a1 99 bf e6 f3 8f 3e 7e bb 18 c0 32 92 a8 be
       -1.2002486 0.28115767 -2.3864436 -0.32924038
000010 93 0c dd be 30 e2 f9 3e 7f 54 7c be 44 10 a9 3f
       -0.43173656 0.4880538 -0.24641608 1.3208089
000020 6f 90 87 be ae 1b 48 3e 0d c2 fb 3d 0b 38 43 3f
       -0.26477382 0.19541809 0.122928716 0.7625739
000030 a0 3d 3d 3f d1 28 cc be 2d d7 59 3e f1 64 c1 3d
       0.7392216 -0.3987489 0.2127349 0.09443081
000040 1c 21 4d 3f ef df 2a c0 3d fc 6a 3d b2 5e 81 bf
       0.80128646 -2.6699178 0.05736946 -1.0107024
000050 c2 7c a4 3e 26 3b 06 be 5c dc 0e c0 24 7d 4e be
       0.32126433 -0.13108501 -2.2321997 -0.20164925
000060 28 83 3f bf 16 8d a5 be 4d 97 fb bf 4e 4e c6 be
       -0.74809504 -0.32334203 -1.9655548 -0.38731617
000070 94 72 c3 be b0 3d 76 bf fe 92 e5 be 0f 80 ad 3f
       -0.38173354 -0.9618788 -0.4483871 1.3554705
000080 d1 57 a4 be 0d 4a 2b 3f 00 a9 89 3d 1b 31 00 bf
       -0.3209825 0.6690987 0.06721687 -0.5007493
000090 96 48 0f 3f 9c 9e 3f 3e 84 6b b2 be 15 a6 8b be
       0.5597013 0.18712848 -0.34847653 -0.27275148
0000a0 d0 82 30 be 17 05 84 bf f7 e9 b3 be 31 26 d8 bf
       -0.17237401 -1.0314053 -0.3513944 -1.6886655
0000b0 8a a6 1a bf a8 b7 28 be 44 02 c7 3e 34 90 2f 3f
       -0.6041037 -0.1647631 0.38868916 0.6857941
0000c0 51 e8 b3 3d c4 74 c3 3e dd 26 1e 3f 4e 39 98 be
       0.08784545 0.38175023 0.6177805 -0.2973122
0000d0 d6 cf 85 3f 21 78 70 3f a6 db d9 be 53 45 c6 bf
       1.0454051 0.939333 -0.4255039 -1.5489906
0000e0 6e de 15 bf 53 5e c7 3e 9d 95 96 bf f3 42 c6 bf
       -0.58542526 0.3893915 -1.1764408 -1.5489181
0000f0 a3 4c d7 be 9c 3c dd bf 36 85 a4 3e 23 41 e2 3e
       -0.42050657 -1.7284122 0.32132882 0.4419032
000100 51 02 08 3f 5e 4e 53 40 3c d4 41 3f 7e 9a 2f 3f
       0.53128535 3.3016582 0.7571447 0.6859511
000110 4b c3 35 3c d2 74 60 3e 01 be af 40 f5 4b 04 3e
       0.011093925 0.21919563 5.491944 0.129196
000120 de 0a ad 3f f2 a3 ee bd 70 b9 34 40 c2 11 80 3d
       1.3518941 -0.11652364 2.8238182 0.06253387
000130 db 3b f9 3e 62 cb 74 3e 2a b5 02 bf d1 81 c0 bf
       0.4867848 0.2390571 -0.51057684 -1.5039617
000140 6d 2b 38 3f 3f bb eb 3e f1 36 1b bf 70 50 23 bf
       0.7194126 0.46041295 -0.6063071 -0.6379461
000150 5d c0 6a bf bb 67 0d 3e 4a 92 22 3e b7 0b ca bd
       -0.91699773 0.13809101 0.15876117 -0.09865516
000160 97 0f 5d be 2b ac 61 40 eb d2 28 bf 37 8a a9 3f
       -0.21587978 3.5261333 -0.65946835 1.3245305
000170 9d 8f 09 be 7a 2e 20 be 58 c3 3e 40 dc 9d 3a be
       -0.1343369 -0.1564273 2.9806728 -0.18224281
000180 9e a3 9d 3b ea 55 06 3f f8 83 05 c0 ee 4a a0 3f
       0.0048107645 0.52474844 -2.0861797 1.2522867
000190 7c 5f fc be 99 f0 a8 be 0c 7b f2 3c 72 43 5a 3f
       -0.492916 -0.3299606 0.029599689 0.85259163
0001a0 9d 21 2a 3e 02 9a 68 bb b3 82 4f 3f 2d d4 02 c1
       0.16614385 -0.0035492186 0.81058806 -8.176801
0001b0 2f 54 af bd a8 61 86 3f 3e 9c d0 be cc ff 53 bf
       -0.085609786 1.0498552 -0.40744203 -0.8281219
0001c0 97 bb a3 3e 60 90 07 c1 3c 23 a0 be c4 91 88 3e
       0.31979057 -8.472748 -0.31276882 0.2667371
0001d0 ae 46 0b bd 11 1d 65 bf 7f 5a 63 c1 df 39 ce 3e
       -0.034002952 -0.89497477 -14.209594 0.40278527
0001e0 2a 38 fb 3e 9f ef 52 3f 68 f7 bf 3f 1d 22 59 3d
       0.49066287 0.8239688 1.4997377 0.05301105
0001f0 2a 44 1e 3f be 35 0c bf 24 68 2d bf c7 fc 59 bf
       0.6182276 -0.54769504 -0.6773703 -0.8515133
000200 eb 7f 49 3e 5c 32 e8 be a4 7b ed 3e c0 59 26 bf
       0.19677703 -0.4535092 0.46383393 -0.649807
000210 05 0c 8a be 92 30 21 be 44 c1 06 bf 0c a1 04 3e
       -0.26962295 -0.15741184 -0.5263865 0.1295206
000220 93 9a 9f bf 2c b5 44 40 ba 43 3b 3f ce f2 ac 3e
       -1.2469047 3.0735579 0.7315022 0.33778995
000230 bd 84 38 3f 85 0a 2c bc b7 c6 57 40 e0 17 2e 3f
       0.7207754 -0.010500555 3.3715036 0.6800518
000240 bf 9f 84 3f 5a 24 8e be af ef 9a bd 5d 5d a6 3f
       1.0361251 -0.2776211 -0.07565247 1.2997242
000250 53 ea 94 3e 8f 41 2d 3e 05 ec 96 3e 86 ca 38 3f
       0.29085025 0.1691954 0.29476944 0.72184026
000260 b2 75 8f be 88 7c 83 be 1c 92 26 3c e8 e7 83 40
       -0.28019482 -0.25680947 0.010166671 4.122059
000270 d5 8d 81 bf 8d 2d e0 3f 47 41 b6 be b9 ff 09 bf
       -1.0121409 1.7513901 -0.35596678 -0.53905827
000280 31 8c be be 3b 5c f3 c0 d2 d8 fb 3d 0a b9 de 3f
       -0.37216333 -7.6050086 0.122972146 1.740022
000290 ca f8 fb 3c 5b 55 b4 be e3 8c 78 c1 23 3c 52 3f
       0.03075828 -0.3522137 -15.534396 0.8212301
0002a0 14 3e 62 bf 6e e1 59 bf 5e 5e 15 3f 64 54 50 bf
       -0.88375974 -0.85109603 0.5834712 -0.8137877
0002b0 3e 97 0f c0 d2 8d c8 3d 70 51 06 3f 8e 2a d1 3e
       -2.243606 0.09792675 0.52468014 0.4085278
0002c0 ad a8 3c 3c b4 f9 c8 be be fd 4a 3f 2f 83 c2 bf
       0.011514825 -0.39253008 0.7929343 -1.5196284
0002d0 ff 73 10 3f b4 e4 0d bf 42 af f3 be 26 9e 4b bf
       0.56426996 -0.554271 -0.4759465 -0.7953819
0002e0 c2 59 85 be fe 8c ad 40 60 f8 b0 bd 10 b4 2a be
       -0.26045042 5.423461 -0.08641124 -0.16670251
0002f0 b5 cf 2e 3d 0a 7f db be 5a 66 2d 41 84 ed 96 3f
       0.042678554 -0.4287036 10.837488 1.1791234
000300 ac fc 3f bf 96 83 01 bd 3e c4 c0 bf 6e ba 10 be
       -0.7499492 -0.03161963 -1.5059888 -0.14133617
000310 a5 bf 2d bf 7d 2c 72 3e 58 06 05 bf 70 45 b6 3f
       -0.6787055 0.23649783 -0.51962805 1.4239941
000320 9f e0 b4 3e dc 87 34 be d3 1e 12 3f f9 4b fb 3e
       0.35327622 -0.17629951 0.57078284 0.490814
000330 4f 78 07 3f d1 08 c3 be d0 57 2f 3e f2 ea 17 3e
       0.5291795 -0.38092664 0.17123342 0.14835718
000340 cc 43 10 3f 5a 16 10 c0 63 1f f3 bd 8b 11 e2 bf
       0.5635345 -2.2513642 -0.11871221 -1.7661604
000350 85 56 46 be 34 65 93 be 11 3b f1 bf f1 6a 97 3e
       -0.19368942 -0.2878815 -1.8846151 0.29573777
000360 03 0d 35 3f 3b 0d b0 be 96 10 c5 3f fd 1b 00 3f
       0.7072298 -0.34385094 1.5395687 0.50042707
000370 26 70 59 3f d1 c1 54 3d b5 81 8c bc 91 cd cf bf
       0.8493675 0.05194265 -0.017151693 -1.6234609
000380 62 45 16 be 2f c5 10 3f d8 f8 b2 be e2 19 63 bd
       -0.14674905 0.5655088 -0.34955478 -0.055444606
000390 d4 44 b4 bf 9b aa 84 3e a2 36 0f bd 65 c2 a4 3e
       -1.4083505 0.25911412 -0.03496421 0.3217956
0003a0 80 57 46 3c f5 f0 37 40 07 a5 25 bf e2 6d 79 3f
       0.012105823 2.8740819 -0.64704937 0.9743329
0003b0 11 95 82 bd 3a 40 c7 3d d3 3e 05 40 59 53 3f 3e
       -0.063760884 0.09729047 2.0819595 0.18684138
0003c0 46 e3 c3 3f 2c 5e 36 3e 13 a6 fc 3f 57 08 9a 3e
       1.5303733 0.17809361 1.9738182 0.30084488
0003d0 5b 63 97 3e 60 e2 f6 be 53 f7 46 bd f1 e6 9d bf
       0.2956799 -0.48219585 -0.04857571 -1.2336103
0003e0 e8 13 e2 be 1d c8 2b 3e 42 6a 3b 3f 11 da 4e 3d
       -0.44155812 0.16775556 0.7320901 0.050500933
0003f0 63 2f 40 bf ab 8d ab 3e d0 1c aa 3e 54 c2 80 3e
       -0.75072306 0.33506522 0.33225107 0.2514826

encoder.conv_logstd.bias f4 [16]
000000 82 0f 6d c0 17 88 57 c0 23 e8 82 c0 7d 9f 6c c0
       -3.7040715 -3.3676813 -4.090837 -3.6972344
000010 d4 5a ad c0 66 de 7d c0 b2 c6 a1 c0 c8 2d 98 c0
       -5.4173374 -3.9666991 -5.055505 -4.7555885
000020 1e 5c 5e c0 24 e0 60 c0 de d9 61 c0 fa 0c 6d c0
       -3.4743724 -3.5136805 -3.5289226 -3.703917
000030 9d 6f 7c c0 fc 53 95 c0 55 6a 65 c0 56 7d 87 c0
       -3.9443123 -4.666502 -3.584615 -4.23405

encoder.conv_logstd.lin.weight f4 [16, 24]
000000 65 f0 e6 be 77 77 49 bf da 74 b6 3f c1 53 88 3e
       -0.4510528 -0.78697914 1.425441 0.266264
000010 d8 b2 d8 be c1 a8 98 be f8 56 a9 3c 4b 41 54 3f
       -0.42323947 -0.2981625 0.020671353 0.8291213
000020 16 5b 3c bf 54 0b 1d 3f 6c 87 82 bf 44 a9 fa bb
       -0.73576486 0.6134541 -1.0197577 -0.0076495726
000030 5c 8e 62 3e af e6 d1 bc 07 e6 05 c0 dd a7 b1 bf
       0.22124618 -0.025622694 -2.0921648 -1.3879353
000040 b5 8c fd 3e fd f0 52 bd 70 69 57 be b5 50 7b bd
       0.49521413 -0.051499356 -0.21036315 -0.061356265
000050 07 72 09 bf 6d 3c 16 c0 39 46 81 3f e8 0c b0 be
       -0.53689617 -2.347438 1.0099555 -0.34384847
000060 62 00 ad be 12 74 dd be e6 1a c3 3f 8c 2f 84 3e
       -0.33789355 -0.43252617 1.5242584 0.25817525
000070 88 4e ec bd 14 2d 93 be 4d 95 2a be 29 fe bb 3e
       -0.11538416 -0.2874533 -0.16658516 0.36717346
000080 ea eb 0b bf 5a 3a c8 3e 32 1f 1a bf 25 fe b8 3e
       -0.5465685 0.3910702 -0.6020385 0.36131397
000090 c3 1d 73 3e e0 40 19 be 0c e0 b1 bf 20 62 58 bf
       0.23741822 -0.14966154 -1.3896499 -0.84524727
0000a0 96 5b c3 3e 29 37 33 3d 3e 29 5f bc c9 6a 15 bf
       0.38155812 0.043753777 -0.013620673 -0.58366066
0000b0 96 ee 9e be 38 86 9c bf 9a a7 31 3f 89 13 04 bf
       -0.31041402 -1.222846 0.69396365 -0.5159231
0000c0 bf ec 27 bd 02 af 5d be 96 b1 6e 3f 89 41 c1 3e
       -0.040997263 -0.21648791 0.93239725 0.37745312
0000d0 e4 37 8f b9 bd 67 ee be 14 57 ef bd 03 17 98 3e
       -0.00027316727 -0.4656352 -0.11686531 0.29705057
0000e0 c0 f2 c9 be 5d 35 f8 3e 30 26 0a bf 0a b4 09 3e
       -0.39443016 0.48478213 -0.5396452 0.13447586
0000f0 e1 86 c2 3d d2 69 30 3e b9 0c 8b bf 09 f2 a9 bf
       0.09498382 0.17227867 -1.0863258 -1.3276988
000100 7f 8e f6 3e 56 03 00 3e 84 04 5a bd 27 b3 ba bd
       0.4815559 0.12501273 -0.053226963 -0.09116202
000110 41 d8 ca be 69 a1 8e bf 83 46 1d 3f 06 7f 10 be
       -0.39618114 -1.1143008 0.6143572 -0.14110956
000120 93 4f 8b 3d 41 c4 6b bf 76 48 a2 3f 18 8f 28 3e
       0.06802287 -0.92096335 1.2678363 0.16460836
000130 f5 cf 21 bf 35 27 9e be d9 0e 45 3d c2 6b 1c 3f
       -0.6320794 -0.30889288 0.048109863 0.61101925
000140 12 ed 4b bf 10 42 3d 3f 20 68 59 bf ee 68 77 bd
       -0.79658616 0.7392893 -0.8492451 -0.060402803
000150 72 df 9e 3d 91 a3 06 3f 1f a3 04 c0 72 22 cc bf
       0.077574626 0.5259333 -2.0724561 -1.5948012
000160 1d 53 5b 3e 9b 80 85 3d f3 03 04 be 28 17 9d 3e
       0.21418424 0.0651867 -0.12892132 0.3068173
000170 e5 dc 0d bf 8f 53 1d c0 a9 34 56 3f 7e 43 73 be
       -0.55415183 -2.458225 0.83674103 -0.23756215
000180 17 26 2b bf 5f 14 15 3e ce ab 97 3f 21 6e de 3e
       -0.66854995 0.14558552 1.1849306 0.43443397
000190 e7 ba 23 3f 59 bc ce 3a 75 0f 09 be b2 18 f4 3e
       0.63957065 0.0015772685 -0.13384803 0.4767509
0001a0 3b 04 fb be 1f c5 da 3e 31 a1 dd be a6 3a 36 3e
       -0.49026665 0.42728516 -0.43287042 0.1779581
0001b0 51 72 02 3f 07 03 e8 bc 8f 0f fe 3e 5c e4 63 3d
       0.50955683 -0.028321756 0.49621245 0.055637702
0001c0 e5 d6 db 3e 02 89 e9 3e 7a 5c 45 be 93 dc 1b bf
       0.4293739 0.4561234 -0.19273558 -0.60883445
0001d0 d7 31 78 be 79 27 2e 3f ab 95 0c 3f 36 56 4a be
       -0.24237762 0.6802898 0.54915875 -0.1975945
0001e0 6a dd 1b bf d9 74 4d bf 69 bc a8 3f ff 99 00 3e
       -0.60884726 -0.8025642 1.3182498 0.12558745
0001f0 98 a9 a8 be d7 ad 5d be 8e c6 d6 be 4b 2a 1e 3f
       -0.3294189 -0.21648346 -0.4194836 0.61783284
000200 56 ed 39 bf 95 fa 30 3f 5f d5 45 bf a8 2b 90 3e
       -0.7262777 0.6913236 -0.77278703 0.28158307
000210 34 3c c7 3e a4 ef 0c bf e2 3e a3 bf 15 78 36 bf
       0.3891312 -0.5505316 -1.2753565 -0.7127698
000220 49 28 22 3f f2 53 d5 bc 43 d2 d1 be 10 61 bc be
       0.6334272 -0.026041005 -0.4098073 -0.36792803
000230 90 f8 03 bf 47 8c 90 bf cf 7e ae 3f d4 42 ae be
       -0.5155115 -1.1292809 1.3632449 -0.3403536
000240 d1 f6 28 bf 6e fb 01 be dd cb af 3f dc 44 e3 3e
       -0.6600161 -0.12693569 1.3734089 0.44388473
000250 f7 e5 c8 3e 27 eb 6a be 6c 23 ce be f2 de e3 3e
       0.3923795 -0.22941266 -0.402614 0.4450603
000260 82 18 1f bf 6f 09 30 3f 92 cc 2d be a8 ef 32 3e
       -0.6214677 0.68764395 -0.16972569 0.17474234
000270 d6 88 01 3f 57 be 7b be d0 4c 74 bc 83 d5 4d bf
       0.5059942 -0.24584328 -0.014910892 -0.8040392
000280 2d 06 2e 3f 87 49 03 bd 00 56 ca 3c c7 d2 85 bf
       0.67978173 -0.032052543 0.024699211 -1.0454949
000290 00 ab 55 be 3b 64 af 3e e1 59 7c 3f 44 0b af be
       -0.20866013 0.34256157 0.98574644 -0.34188282
0002a0 26 12 5b bf 60 bb 80 be 33 3e 93 3f 26 a1 5d 3e
       -0.8557457 -0.25142956 1.1503357 0.21643505
0002b0 23 45 9c 3e fc ef 80 be 67 b9 18 bf b0 60 29 3f
       0.30521497 -0.25183094 -0.596579 0.6616316
0002c0 e8 a6 2a bf e0 77 5f 3f 4d 76 96 be 5a 98 11 3e
       -0.6666093 0.8729229 -0.2938713 0.14218274
0002d0 45 cc 11 3f 98 36 11 bf 83 8f f9 3d 14 15 4a bf
       0.56952316 -0.5672393 0.12185576 -0.7893841
0002e0 4b a8 37 3f 38 a7 f0 3e 5c 89 40 be 58 48 82 bf
       0.7174117 0.47002578 -0.18802398 -1.0178328
0002f0 27 25 79 be 0e e1 42 3f b0 bc 90 3f a4 55 1a bf
       -0.24330579 0.76124656 1.1307583 -0.6028693
000300 d3 8c 46 bc b9 79 31 bf 5d 3c 97 3f 5e 27 99 3e
       -0.012118536 -0.6932636 1.1815296 0.29912847
000310 6c f4 24 bf 51 51 85 be be 32 28 be 3d 8d 16 3f
       -0.6443546 -0.26038602 -0.16425607 0.5880926
000320 8d 89 20 bf a6 f2 11 3f ba b9 3d bf 62 fc e0 3d
       -0.62709886 0.5701088 -0.7411152 0.10985638
000330 f8 90 88 3e 58 77 87 3e c4 a1 fe bf 73 8e 73 bf
       0.26673102 0.2645824 -1.9893117 -0.95139235
000340 f4 49 96 3e e2 37 bf bc 4d d1 42 bd fa 64 4a 3e
       0.29353297 -0.023342077 -0.047562886 0.19765082
000350 7d f0 fd be ca 0b 22 c0 a8 2d 52 3f 64 a5 1d be
       -0.4959754 -2.5319695 0.82100916 -0.15395123
000360 17 67 d9 be 4e 52 29 bf 7c e7 90 3f 89 4e 7e 3e
       -0.42461464 -0.6614121 1.1320643 0.24834646
000370 9d f5 1d bf 03 6b 01 bf 0d 95 82 bd 26 9c b4 3e
       -0.617029 -0.5055391 -0.063760854 0.35275382
000380 76 25 52 bf 77 56 94 3e 06 e1 32 bf 19 ec e1 bc
       -0.8208841 0.28972217 -0.6987461 -0.0275784
000390 e5 f5 8d 3e f8 29 9d 3d 94 8e 07 c0 79 0c 9b bf
       0.27726665 0.076740205 -2.1180773 -1.2113181
0003a0 35 ea c5 3e ca 0c 11 3e 0b bd 94 be 9b d0 a2 3d
       0.38655248 0.14165035 -0.29050478 0.079499446
0003b0 8e bd 9f be 4b 45 15 c0 b2 16 85 3f 88 3e a0 bc
       -0.31199306 -2.3323543 1.0397551 -0.019561067
0003c0 f1 f9 86 be 8d ff 6e bf 95 f8 92 3f 52 fd 61 3d
       -0.26362565 -0.9335869 1.1482111 0.055173226
0003d0 fb 84 0a bf 20 dc 31 be de 78 fe bd 94 e0 0a 3f
       -0.5410916 -0.17369127 -0.12425397 0.5424893
0003e0 14 f5 32 bf 75 59 e7 3e 0c e2 44 bf bc 63 b5 bb
       -0.6990521 0.45185438 -0.7690742 -0.005535571
0003f0 39 89 60 3e 2b 91 db 3e 2f f4 09 c0 ea b8 52 bf
       0.21927346 0.42884192 -2.1555288 -0.82313406

classifier.weight f4 [2, 16]
000000 7e 80 25 41 9a 12 a4 40 94 00 8f c0 62 c3 52 c1
       10.34387 5.1272707 -4.4688206 -13.172701
000010 56 fc c4 3e 99 b8 c4 c0 39 97 f4 3f 53 64 5d bf
       0.38473767 -6.147534 1.910865 -0.8648121
000020 4e ee 04 41 58 8a 33 c1 29 29 16 c1 3f d0 16 41
       8.30818 -11.221275 -9.385049 9.425841
000030 57 07 40 c0 7b 15 df be d8 25 04 41 a0 02 86 c0
       -3.000448 -0.43571076 8.259239 -4.1878204
000040 c0 22 25 c1 dd 9e ac c0 80 4a 92 40 63 76 52 41
       -10.320984 -5.3943925 4.571594 13.153903
000050 00 c8 f8 be db db c3 40 8a 33 01 c0 bc e6 91 3f
       -0.48590088 6.120588 -2.0187707 1.139854
000060 d0 98 07 c1 57 b8 36 41 99 c3 16 41 86 79 19 c1
       -8.474808 11.420005 9.422753 -9.592169
000070 a7 f4 56 40 fc ac 45 3e e6 3c fa c0 b9 fe 88 40
       3.3586824 0.1930427 -7.819934 4.281094

classifier.bias f4 [2]
000000 d9 be 9c bf 66 38 76 3f
       -1.2245742 0.9617981
