trained-model/model_20240817_004020_epoch_250.pt (torch, 95432 bytes, 10 tensors)

encoder.conv1.bias f4 [32]
-0.36401814 0.28942782 -0.12495855 -0.3252979 -0.16640629 0.06823845 -0.08318866 -0.49332863
-0.3409213 -0.15889357 -0.1244063 -0.37787953 0.24679105 -0.08357875 -0.5976331 -0.050065927
0.17543434 -0.23355626 -0.223787 -0.107025206 0.0067071943 0.3178989 -0.3337293 -0.07129626
-0.25520885 -0.48275113 -0.08146691 -0.17678426 -0.30189154 -0.42520875 0.09484834 -0.037200052
00000000: 9660 babe e22f 943e 45ea ffbd 728d a6be
00000010: 6966 2abe 9ac0 8b3d d15e aabd 9295 fcbe
00000020: 3d8d aebe ffb4 22be bbc8 febd 6d79 c1be
00000030: cbb6 7c3e 562b abbd 7cfe 18bf ee11 4dbd
00000040: 0fa5 333e 5f29 6fbe 6b28 65be 0830 dbbd
00000050: 06c8 db3b a5c3 a23e 91de aabe c603 92bd
00000060: bcaa 82be 282b f7be 20d8 a6bd ef06 35be
00000070: 8791 9abe f6b4 d9be d93f c23d 155f 18bd

encoder.conv1.lin.weight f4 [32, 658]
-0.6877121 -0.07939223 0.39200786 -0.089639485 -0.44959113 -0.6518129 -0.016839009 -2.3105953
-1.5253646 0.7600067 0.58436763 -3.9025252 -2.4357533 0.7296076 -0.31737426 0.07793318
-1.9337397 0.9569436 0.358205 0.13066232 0.35585424 -2.6883552 -1.9643571 -0.014763498
-2.0244825 0.48007658 -1.2727681 0.120778166 -2.532162 -0.6190559 -0.2031079 -2.0345817
-0.23898719 0.9990429 0.4961623 -1.2616764 -2.0818398 0.50830805 0.08286034 0.8921572
0.7151575 2.2770512 -0.6342774 -0.2450716 -3.8712144 -0.06569029 0.62663794 -1.0986805
0.46000877 0.25432548 0.4971841 0.017928766 0.67276555 -1.1523379 0.43003982 -0.6906356
-1.0347099 -0.51538944 0.348769 -2.4731505 0.4709321 0.7600254 -1.26076 0.83726007
-0.43280658 0.36271217 -0.509374 -1.7068776 -0.04397525 -0.07231633 0.6282705 0.22916897
-0.44961548 0.8229095 -0.24697098 -0.5195575 0.58259547 -0.5205501 0.37661025 -0.18657278
0.6543464 -0.5456316 1.9730805 -0.84020025 -0.19441554 0.50417733 0.92644113 0.9385278
-0.67097694 -1.1442708 -3.1439795 -0.83032286 0.5230459 -0.49911168 0.58840704 0.44663402
1.5670598 0.7452611 0.44780505 0.70984954 0.6489042 -0.71586454 0.13423583 -2.1444914
-0.10725616 0.28813842 0.3113139 0.90739244 -1.191967 0.85483575 -0.7909987 0.58900815
0.23809595 0.64558756 0.8905488 0.3497277 0.47130826 -0.58856136 -1.1991113 -4.3068094
-0.55437046 0.17918499 0.7586494 -1.8249911 -2.4042113 0.03967428 0.56980854 -0.14038604
0.35749322 0.67850524 -3.5736206 -5.1764927 -6.0553856 -1.0856856 0.7955282 -1.5469054
0.10130185 1.2000637 -1.254561 0.63617295 -1.7079117 -0.2537812 0.24160019 -0.5529598
0.8149857 -0.6207545 -0.7774463 -0.08799937 -0.08129882 -1.6618744 0.91221005 -0.6722439
-0.035920948 0.94697726 -0.07487355 0.65512764 0.61789584 0.547653 -0.5439517 -1.5634264
-1.3694593 1.4830159 -0.01910317 -7.029923 -0.19484594 0.19864875 -1.0198119 -0.85382783
-2.20811 -0.5515999 -0.10617149 -0.7215782 -1.0875536 -4.840032 0.35692373 0.3102538
0.35078174 -0.47217986 -4.5128336 -0.5314929 1.0091745 -0.64744574 0.5866799 -2.0734825
-1.3184952 -5.3114667 -2.2085195 0.4316505 1.0302916 -0.7245897 -0.24135125 0.7133406
-1.0199174 1.1601459 0.6650872 -2.4115224 0.71000665 0.06375172 -0.5656454 0.5144833
-0.2514925 -0.9822718 0.035480667 0.53906465 -2.3882985 -0.06531426 -2.3171983 -2.0884855
0.06594797 0.5115459 -0.83693707 0.031650655 -0.314494 0.034735974 -0.1400316 0.764867
1.027213 -0.25832444 -0.9374322 0.41201523 0.3357951 0.8073335 -0.059581894 -0.61840695
-2.4796963 0.6241093 0.11932926 -0.61355436 0.8803684 -2.0468302 -0.034828484 -1.9722459
0.3236318 0.44684982 -5.29317 0.62875414 -1.8874992 -2.1543634 -3.5537965 -5.685799
0.06524175 -0.045957614 -0.081196904 -0.39570338 1.0545858 -0.21074906 -0.94640225 0.805616
0.7309635 -3.3650048 -0.42775223 0.44994545 -0.062576294 -5.098244 0.017638603 0.51869625
00000000: e60d 30bf 6598 a2bd 41b5 c83e e894 b7bd
00000010: cf30 e6be 36dd 26bf f6f1 89bc cbe0 13c0
00000020: 263f c3bf cd8f 423f 1e99 153f f9c2 79c0
00000030: 62e3 1bc0 90c7 3a3f e17e a2be 6e9b 9f3d
00000040: c884 f7bf 41fa 743f a566 b73e 58cc 053e
00000050: 8732 b63e 030e 2cc0 0e70 fbbf 99e2 71bc
00000060: 1f91 01c0 99cc f53e 11ea a2bf 8b5a f73d
00000070: f10e 22c0 737a 1ebf 84fb 4fbe 9636 02c0
00000080: 0fb9 74be 47c1 7f3f fc08 fe3e 9d7e a1bf
00000090: dd3c 05c0 7a20 023f afb2 a93d 6a64 643f
000000a0: 9014 373f 35bb 1140 0160 22bf 0df4 7abe
000000b0: fac1 77c0 a188 86bd 586b 203f 90a1 8cbf
000000c0: 4586 eb3e f336 823e ea8e fe3e 59df 923c
000000d0: 5d3a 2c3f cf7f 93bf 2e2e dc3e 7fcd 30bf
000000e0: 6071 84bf 90f0 03bf da91 b23e 1948 1ec0
000000f0: 031e f13e 0691 423f 9560 a1bf ad56 563f
00000100: d398 ddbe 69b5 b93e 5666 02bf f77a dabf
00000110: 641f 34bd 961a 94bd 56d6 203f 45ab 6a3e
00000120: 0034 e6be 32aa 523f f6e5 7cbe b801 05bf
00000130: fa24 153f c542 05bf 0fd3 c03e ef0c 3fbe
00000140: 3f83 273f 83ae 0bbf e78d fc3f 5d17 57bf
00000150: de14 47be c411 013f 3f2b 6d3f 5c43 703f
00000160: 25c5 2bbf 7777 92bf f636 49c0 0a90 54bf
00000170: 56e6 053f 918b ffbe d8a1 163f 37ad e43e
00000180: 6a95 c83f 6ec9 3e3f b446 e53e b3b8 353f
00000190: 961e 263f e642 37bf 1e75 093e 593f 09c0
000001a0: 1ea9 dbbd e186 933e 8964 9f3e df4a 683f
000001b0: 6092 98bf 84d6 5a3f e47e 4abf 3dc9 163f
000001c0: 6dcf 733e 3a45 253f 02fb 633f 820f b33e
000001d0: 514f f13e f5ab 16bf 7b7c 99bf 62d1 89c0
000001e0: 39eb 0dbf 457c 373e d936 423f 4f99 e9bf
000001f0: 99de 19c0 7f81 223d f9de 113f 5cc1 0fbe
00000200: 5a09 b73e 85b2 2d3f 33b6 64c0 d4a5 a5c0
00000210: b8c5 c1c0 bff7 8abf bca7 4b3f ff00 c6bf
00000220: 5877 cf3d b09b 993f 7495 a0bf 3bdc 223f
00000230: da9c dabf 9cef 81be 0a66 773e c68e 0dbf
00000240: e7a2 503f c4e9 1ebf b906 47bf 0439 b4bd
00000250: ff7f a6bd 4db8 d4bf 9986 693f 2d18 2cbf
00000260: d821 13bd 1a6d 723f 4e57 99bd 72b6 273f
00000270: 6c2e 1e3f fd32 0c3f 6b40 0bbf 5b1e c8bf
00000280: 714a afbf 77d3 bd3f 407e 9cbc 21f5 e0c0
00000290: b285 47be 946a 4b3e 3289 82bf 7694 5abf
000002a0: ad51 0dc0 a735 0dbf 7070 d9bd 59b9 38bf
000002b0: f534 8bbf 8be1 9ac0 b5be b63e 96d9 9e3e
000002c0: aa99 b33e 8fc1 f1be 2269 90c0 eb0f 08bf
000002d0: a12c 813f 01bf 25bf a730 163f f0b3 04c0
000002e0: 73c4 a8bf 89f7 a9c0 6258 0dc0 4b01 dd3e
000002f0: 98e0 833f b67e 39bf c824 77be 7d9d 363f
00000300: a78c 82bf a97f 943f 2843 2a3f 6256 1ac0
00000310: ffc2 353f 4390 823d 23ce 10bf 2db5 033f
00000320: a0c3 80be 2a76 7bbf 2d54 113d 2400 0a3f
00000330: e2d9 18c0 7cc3 85bd fa4c 14c0 bfa9 05c0
00000340: bb0f 873d acf4 023f 8241 56bf 1ea4 013d
00000350: 5c05 a1be 4f47 0e3d 7264 0fbe 53ce 433f
00000360: b77b 833f 1a43 84be 8ffb 6fbf a9f3 d23e
00000370: 56ed ab3e 69ad 4e3f 250c 74bd eb4f 1ebf
00000380: 58b3 1ec0 a1c5 1f3f e662 f43d e611 1dbf
00000390: d35f 613f 44ff 02c0 50a8 0ebd 8e72 fcbf
000003a0: 11b3 a53e 80c9 e43e a661 a9c0 08f6 203f
000003b0: 9399 f1bf 17e1 09c0 6771 63c0 11f2 b5c0
000003c0: 779d 853d 0d3e 3cbd 904a a6bd a299 cabe
000003d0: abfc 863f 9ace 57be 6b47 72bf da3c 4e3f
000003e0: 6d20 3b3f 3d5c 57c0 5702 dbbe 405f e63e
000003f0: 0028 80bd d124 a3c0 d57e 903c 47c9 043f

encoder.conv2.bias f4 [24]
-0.8044145 -0.43925944 -0.19288039 -1.5052916 -0.19034933 -0.52863175 -0.082420476 -0.44573417
0.09149527 -0.22382028 -0.1708393 -0.8780868 -0.50591624 -0.107503735 -0.25069302 -0.08616821
-0.51394945 -0.066271074 -0.109119646 -0.5972231 -1.2716931 -0.008528939 -0.57202834 0.59841424
00000000: 1cee 4dbf 9de6 e0be 7082 45be 65ad c0bf
00000010: efea 42be 6954 07bf 11cc a8bd 4537 e4be
00000020: df61 bb3d 2531 65be 7ff0 2ebe 4cca 60bf
00000030: ba83 01bf eb2a dcbd d65a 80be f578 b0bd
00000040: 3192 03bf 21b9 87bd 1f7a dfbd 9de3 18bf
00000050: d7c6 a2bf f7bc 0bbc 7370 12bf ad31 193f

encoder.conv2.lin.weight f4 [24, 32]
0.44559675 -5.9504356 0.2593726 0.2899575 0.5213276 0.39913478 -0.6323386 -0.37666348
0.743535 0.32091722 0.7980502 0.112285055 -0.8938648 -2.0682771 -0.01060744 0.6330253
-1.1081289 -0.22146519 -0.6619613 0.16386338 0.071513444 -1.6256164 0.014096149 0.3095023
-0.17033169 0.7775076 0.67510194 -0.3124484 1.0446031 0.7543332 -0.6116985 0.17660648
-1.4032791 1.13042 0.15051721 -5.5821104 -0.494748 -0.12388625 -1.3227359 -1.6838771
1.0381225 -1.063352 -0.33659998 -0.62953603 -0.64645267 -1.473837 2.0962772 -0.7899179
-0.6064643 1.2641648 0.4130706 -1.3336657 1.5629703 -0.9365914 0.28440598 -0.74197733
0.85730076 3.2233799 -1.5847288 -0.16534463 0.47225738 -1.7028894 -0.1289154 -0.14034247
0.6948612 -0.028300274 0.4734953 0.36219877 0.7224089 0.61228126 -0.86729175 0.5733564
0.75608814 -1.3048357 -2.029807 0.37093592 0.2470656 0.145103 0.6040064 -1.0879699
-1.6165149 -0.36061913 -1.4161874 -0.91128474 0.57840335 -0.842674 0.04188439 -0.9883001
0.42736343 0.41729218 -1.3364452 0.49943024 0.6617195 0.0070523354 -0.363396 -1.6761856
0.20460744 0.118849404 -0.44912684 -0.22102258 -0.14784524 0.15002266 -0.3110945 -0.4968525
0.5865429 -0.573747 -0.9811209 -0.6299573 0.27980566 -0.0075124684 0.97081405 0.26005137
-0.80997056 0.88213897 -0.094290555 -0.59490365 0.79379344 -0.8470458 1.1505044 -0.33213684
0.0027185 0.7931393 -0.7046684 0.7103376 -0.07544493 0.25109717 0.07004148 -0.6719772
0.8641458 0.034643956 -1.0773834 0.47699794 0.3751808 -1.1129823 -1.2892046 0.94661313
-0.11921308 -0.055393968 -0.051537927 0.37285146 -0.54502296 0.94907844 0.6641258 0.75794727
-0.7497457 0.8818443 0.41152722 0.7441588 -0.5001845 -0.5384652 -0.66105247 -1.5349615
0.601241 -1.2083156 0.8245582 -0.080015615 -0.42078736 -0.8123226 0.0644663 -2.2238312
-0.70562756 0.89657515 0.8820335 2.5079057 -0.61596704 -1.4031707 -1.3647349 -0.52994657
-0.31074578 0.8948043 0.32414848 -1.2117426 1.1681738 -1.85677 0.31105438 -0.46547097
-0.89191 1.2866616 -1.5965152 1.2155653 0.22646594 -2.5483816 -0.52228695 -2.088844
-0.95478827 -1.5328243 -2.9052541 1.4577895 -1.285702 0.51233715 -2.3535738 -2.076429
-0.14056529 0.5308144 -0.33609727 0.80968815 -0.26642215 -0.25471425 -0.23864913 0.1539797
-0.7054071 -1.0452307 -0.5971945 -0.27938348 -0.55910677 0.10923261 0.30116132 -1.8547951
-0.097527824 -1.0102237 0.28298053 0.1300616 1.0479947 -0.8583277 0.8712684 -0.7652439
0.4067413 -1.3838679 0.5158506 0.79376227 0.30927286 0.10627474 -0.25048876 -0.61464727
-0.47565928 0.13762018 -0.15018275 0.36621612 -1.0583299 -1.0187624 -0.36594298 0.8079609
0.5224453 -0.41170725 -0.35157382 0.8619546 -1.3116875 -0.5023483 0.49947697 -0.4519122
-0.41723844 -0.266255 0.680357 -0.37978402 -0.04622796 -0.20361973 0.88715446 0.3104328
0.69464445 0.6301007 0.20245562 0.93181926 -0.3474799 -3.5970504 -0.4217794 -0.043780144
00000000: 4225 e43e f869 bec0 7ccc 843e 4f75 943e
00000010: ba75 053f 655b cc3e f1e0 21bf 09da c0be
00000020: 4f58 3e3f 434f a43e 054d 4c3f b5f5 e53d
00000030: 53d4 64bf a75e 04c0 d4ca 2dbc f20d 223f
00000040: 2bd7 8dbf c5c7 62be 4c76 29bf cdcb 273e
00000050: a475 923d 3314 d0bf 89f3 663c 1677 9e3e
00000060: 6e6b 2ebe bd0a 473f 7bd3 2c3f 3df9 9fbe
00000070: 8eb5 853f fb1b 413f 4698 1cbf 54d8 343e
00000080: a69e b3bf 9ab1 903f 2f21 1a3e a6a0 b2c0
00000090: 9c4f fdbe 13b8 fdbd 694f a9bf 4989 d7bf
000000a0: 33e1 843f eb1b 88bf d556 acbe 4629 21bf
000000b0: ec7d 25bf b1a6 bcbf 6829 0640 0f38 4abf
000000c0: 3f41 1bbf 27d0 a13f fd7d d33e 8fb5 aabf
000000d0: 690f c83f 74c4 6fbf a99d 913e 3af2 3dbf
000000e0: 1078 5b3f db4b 4e40 65d8 cabf 1a50 29be
000000f0: b8cb f13e 48f8 d9bf 6602 04be f0b5 0fbe
00000100: 6ce2 313f fad5 e7bc fa6d f23e 1e72 b93e
00000110: caef 383f 77be 1c3f d506 5ebf 7cc7 123f
00000120: fe8e 413f db04 a7bf 5ce8 01c0 50eb bd3e
00000130: c4fe 7c3e e195 143e 2aa0 1a3f 9942 8bbf
00000140: f6e9 cebf 12a3 b8be a145 b5bf f549 69bf
00000150: 3e12 143f 7cb9 57bf f78e 2b3d 3c01 7dbf
00000160: 61cf da3e 52a7 d53e a310 abbf 52b5 ff3e
00000170: 7366 293f 4717 e73b 0a0f babe 408d d6bf
00000180: 9d84 513e 5167 f33d f4f3 e5be be53 62be
00000190: be64 17be 8a9f 193e c747 9fbe 7363 febe
000001a0: ad27 163f 15e1 12bf bd2a 7bbf e244 21bf
000001b0: b042 8f3e 272b f6bb 4587 783f 7425 853e
000001c0: 3b5a 4fbf dcd3 613f 681b c1bd 9b4b 18bf
000001d0: 0c36 4b3f fed7 58bf ba43 933f d70d aabe
000001e0: dd28 323b 2d0b 4b3f 2665 34bf afd8 353f
000001f0: df82 9abd cf8f 803e e871 8f3d b306 2cbf
00000200: a938 5d3f d2e6 0d3d b3e7 89bf 1339 f43e
00000210: b317 c03e 3476 8ebf a804 a5bf 3d55 723f
00000220: fd25 f4bd c9e4 62bd 6f19 53bd 63e6 be3e
00000230: a086 0bbf cef6 723f 2604 2a3f d508 423f
00000240: 56ef 3fbf 8cc0 613f b2b3 d23e 3181 3e3f
00000250: 170c 00bf dbd8 09bf bc3a 29bf 9e79 c4bf
00000260: eeea 193f 16aa 9abf 3f16 533f 3adf a3bd
00000270: 7171 d7be 60f4 4fbf e806 843d 4053 0ec0
00000280: 02a4 34bf f385 653f f3cc 613f 8781 2040
00000290: 04b0 1dbf 199b b3bf a2af aebf 94aa 07bf
000002a0: 121a 9fbe e511 653f caf6 a53e 621a 9bbf
000002b0: b886 953f a4aa edbf 8542 9f3e 3652 eebe
000002c0: 3754 64bf 54b1 a43f 9c5a ccbf a597 9b3f
000002d0: b0e6 673e af18 23c0 99b4 05bf 9faf 05c0
000002e0: 016d 74bf 9633 c4bf afef 39c0 d998 ba3f
000002f0: e291 a4bf 8728 033f f4a0 16c0 36e4 04c0
00000300: 59f0 0fbe 74e3 073f f114 acbe b947 4f3f
00000310: 7c68 88be e869 82be 7060 74be dbac 1d3e
00000320: 8f95 34bf 1fca 85bf bde1 18bf 5a0b 8fbe
00000330: 9f21 0fbf 59b5 df3d d131 9a3e ed69 edbf
00000340: abbc c7bd 034f 81bf d3e2 903e de2e 053e
00000350: b124 863f 5dbb 5bbf 720b 5f3f 06e7 43bf
00000360: 6540 d03e 9522 b1bf c90e 043f 0134 4b3f
00000370: 0359 9e3e 92a6 d93d 1040 80be 8659 1dbf
00000380: 9d89 f3be 4eec 0c3e 82c9 19be ae80 bb3e
00000390: 5b77 87bf ce66 82bf e15c bbbe 87d6 4e3f
000003a0: fabe 053f 4bcb d2be 7c01 b4be 0fa9 5c3f
000003b0: 60e5 a7bf e699 00bf 72bb ff3e 0961 e7be
000003c0: 47a0 d5be 9352 88be e02b 2e3f 0d73 c2be
000003d0: 8859 3dbd b181 50be 8e1c 633f 0cf1 9e3e
000003e0: 38d4 313f 484e 213f 8750 4f3e b58b 6e3f
000003f0: e3e8 b1be 1336 66c0 78f3 d7be cf52 33bd

encoder.conv_mu.bias f4 [16]
0.029534534 0.030119386 -0.0131664025 -0.008226106 0.117561504 -0.070686154 0.0009185131 -0.04114228
0.018987013 -0.008994508 0.056413144 0.028610567 -0.011491975 -0.029635873 -0.008654067 0.03738063
00000000: 68f2 f13c eebc f63c e5b7 57bc cac6 06bc
00000010: 16c4 f03d e7c3 90bd 5fc8 703a cf84 28bd
00000020: a78a 9b3c b35d 13bc 7811 673d b560 ea3c
00000030: d648 3cbc eec6 f2bc cac9 0dbc 6e1c 193d

encoder.conv_mu.lin.weight f4 [16, 24]
-2.199556 0.41601753 -2.5351987 -0.7134129 -0.74324715 0.9830739 -0.489904 1.6771113
-0.4896667 0.244435 -0.35817078 0.606337 0.80953443 0.054662462 0.29557127 0.1648854
1.4540734 -2.0908918 -0.20749345 -2.234038 0.654208 -0.15303627 -1.9943612 -0.2206125
-0.40034515 0.049737345 -1.5384517 -0.33343554 -0.05344911 -1.1194328 -0.38112283 1.7137032
-0.567865 0.7554074 0.54289395 -0.6815566 0.04554811 0.4646181 -0.1893768 -0.017380044
0.23256868 -0.08706251 -0.4182583 -3.1391428 -0.5014872 -0.062231325 0.8547629 0.77157587
1.277765 0.21230073 0.1496749 -0.3819849 2.0567331 0.6366849 -0.3692345 -0.92739236
-0.6419136 0.627068 -2.5436566 -1.4853388 -0.8875921 -2.1750872 0.9081895 0.6540474
0.28401023 2.856472 1.099485 2.052852 0.14317459 -0.0708975 6.460798 0.21776067
1.8823833 -0.154384 3.6595333 0.25603536 0.7385405 0.390149 -0.6105367 -1.9351285
0.8577128 0.34985024 -0.62342376 -0.49895465 -1.2648227 0.692771 0.14408757 -0.46135882
-0.6129811 3.2460809 -0.5996404 2.736402 -0.15130198 -0.16924459 2.514265 -0.20950268
0.111551605 1.6079996 -0.43468875 0.6296698 -0.1302368 -0.21568306 0.09297362 0.18578832
0.112806894 -0.15614401 0.7955523 -11.4054165 -0.022258405 0.22368984 -0.079322375 -0.851622
0.31938553 -11.792175 -0.27254984 0.8671947 -0.0078928005 -0.36162448 -20.661251 0.21516335
0.7396763 1.4234853 1.61436 -0.07959173 0.67553735 -0.40139693 -0.71477544 -0.86754954
0.09137151 -0.47174785 -0.051487572 -0.51470613 -0.062643535 0.6951722 -0.5529303 -0.22601484
-1.718841 2.7086694 0.76535434 -0.17599013 1.1729147 0.034734536 3.246358 0.7393763
0.532007 -1.1424774 1.9921551 0.7728954 -0.82388574 0.034286007 0.2633173 -1.0369589
-0.064912565 -0.46427533 0.5665889 5.351243 -0.4900221 0.36763227 0.03399998 -1.7230942
-0.2424622 -13.559254 0.25380412 1.4965695 0.12270353 -0.54725766 -24.670332 1.1572119
-1.3114724 -1.5604966 -0.8426645 -0.70223266 -2.7920694 0.026108928 0.23199618 0.12879828
0.1856404 -0.2939905 1.1663357 -4.660069 0.6303833 -0.2947247 -0.14950097 -1.6726869
0.31493473 13.461725 -0.006643388 -0.46995968 0.09838741 -0.3395485 24.690292 1.0264803
-1.4334443 -0.1361667 -1.0628058 -0.24338652 -0.89557683 0.15109906 -0.91854376 1.5623927
0.46036378 -0.38103202 1.1592698 0.32037225 0.465691 -0.8352174 0.45596012 0.09230614
1.40563 -1.7571673 0.009279945 -3.5241475 -0.33645782 -0.31038326 -1.4232348 0.33846265
1.0285999 -0.3328006 2.2170184 0.66395897 1.306804 -0.021544276 0.055090494 -1.9097584
-0.19292352 0.615849 -0.5900752 0.08677455 -1.8455136 1.3193551 -0.013185331 0.17693965
-0.48948482 2.5485067 -0.68480974 2.3726804 0.07185274 0.06816858 1.5905731 0.18837439
2.2803366 0.18871252 2.5570092 0.4998156 -0.07311109 -1.0476413 -0.36078906 -1.3676074
-0.68555737 0.15763298 1.5093833 0.19389717 -0.8456566 0.6056381 0.31529823 0.43007088
00000000: 87c5 0cc0 4000 d53e b240 22c0 3aa2 36bf
00000010: 7245 3ebf bbaa 7b3f b2d4 fabe 95ab d63f
00000020: 98b5 fabe 2b4d 7a3e 2962 b7be e738 1b3f
00000030: a63d 4f3f bfe5 5f3d 1e55 973e b8d7 283e
00000040: 141f ba3f 2cd1 05c0 2a79 54be 7bfa 0ec0
00000050: 2d7a 273f 8ab5 1cbe 3a47 ffbf 3ee8 61be
00000060: 0afa ccbe 63b9 4b3d fceb c4bf 10b8 aabe
00000070: 74ed 5abd 9349 8fbf 8822 c3be a05a db3f
00000080: 9a5f 11bf 6162 413f 19fb 0a3f 7e7a 2ebf
00000090: a890 3a3d 6ce2 ed3e feeb 41be 9860 8ebc
000000a0: 7c26 6e3e d44d b2bd f425 d6be b7e7 48c0
000000b0: 7761 00bf 46e6 7ebd bed1 5a3f ff85 453f
000000c0: ce8d a33f 5d65 593e 6144 193e 8693 c3be
000000d0: 84a1 0340 c8fd 223f 4e0c bdbe 9669 6dbf
000000e0: 7354 24bf 8787 203f 45cb 22c0 951f bebf
000000f0: 3c39 63bf a134 0bc0 1b7f 683f a76f 273f
00000100: ca69 913e 70d0 3640 edbb 8c3f ed61 0340
00000110: 5c9c 123e b532 91bd dbbe ce40 a7fc 5e3e
00000120: f0f1 f03f d716 1ebe cb35 6a40 1117 833e
00000130: fd10 3d3f 9cc1 c73e 224c 1cbf 4ab2 f7bf
00000140: 1193 5b3f 921f b33e b398 1fbf fc76 ffbe
00000150: b6e5 a1bf 7159 313f b18b 133e 3937 ecbe
00000160: 54ec 1cbf cabf 4f40 0982 19bf 3621 2f40
00000170: e8ee 1abe 744e 2dbe b8e9 2040 df87 56be
00000180: 2b75 e43d eed2 cd3f 868f debe 0a32 213f
00000190: cc5c 05be 05dc 5cbe f468 be3d 4b3f 3e3e
000001a0: 4d07 e73d 37e4 1fbe 51a9 4b3f 967c 36c1
000001b0: 4257 b6bc f30e 653e c573 a2bd e603 5abf
000001c0: 8086 a33e c0ac 3cc1 a78b 8bbe 7900 5e3f
000001d0: ce50 01bc d826 b9be 3e4a a5c1 c853 5c3e
000001e0: 6d5b 3d3f c434 b63f 59a3 ce3f fd00 a3bd
000001f0: 04f0 2c3f e683 cdbe 86fb 36bf ba17 5ebf
00000200: fc20 bb3d ef88 f1be a2e4 52bd c8c3 03bf
00000210: 414b 80bd cef6 313f d78c 0dbf 6f70 67be
00000220: fb02 dcbf d75a 2d40 43ee 433f c236 34be
00000230: 1222 963f cd45 0e3d 54c4 4f40 c447 3d3f
00000240: 9c31 083f b33c 92bf f0fe fe3f 79dc 453f
00000250: 2dea 52bf 7c6f 0c3d 86d1 863e 12bb 84bf
00000260: e1f0 84bd 7fb5 edbe f80b 113f 623d ab40
00000270: 2de4 fabe 4c3a bc3e 9043 0b3d 5a8e dcbf
00000280: 0348 78be b4f2 58c1 9df2 813e 978f bf3f
00000290: fd4b fb3d 1419 0cbf d75c c5c1 851f 943f
000002a0: 54de a7bf 5abe c7bf dcb8 57bf 85c5 33bf
000002b0: 44b1 32c0 64e2 d53c 6890 6d3e b2e3 033e
000002c0: 8418 3e3e ec85 96be 7d4a 953f 491f 95c0
000002d0: cd60 213f 28e6 96be c816 19be 9b1a d6bf
000002e0: 203f a13e 3a63 5741 c7b0 d9bb 8e9e f0be
000002f0: 577f c93d 4dd9 adbe b885 c541 b563 833f
00000300: 1a7b b7bf 496f 0bbe 050a 88bf 513a 79be
00000310: 8644 65bf b6b9 1a3e af25 6bbf 7cfc c73f
00000320: cdb4 eb3e a116 c3be f462 943f d507 a43e
00000330: 0d6f ee3e cfd0 55bf 9b73 e93e 000b bd3d
00000340: afeb b33f dcea e0bf e90a 183c a28b 61c0
00000350: 3344 acbe 8eea 9ebe 8f2c b6bf fa4a ad3e
00000360: 29a9 833f d764 aabe a1e3 0d40 37f9 293f
00000370: 5a45 a73f 9f7d b0bc 92a6 613d f772 f4bf
00000380: be8d 45be 48a8 1d3f 2b0f 17bf dbb6 b13d
00000390: ca39 ecbf a1e0 a83f 4907 58bc ab2f 353e
000003a0: c19d fabe bc1a 2340 b14f 2fbf ffd9 1740
000003b0: 8827 933d f89b 8b3d e697 cb3f 37e5 403e
000003c0: 09f1 1140 db3d 413e 0aa6 2340 d5e7 ff3e
000003d0: 44bb 95bd 1c19 86bf 58b9 b8be c20d afbf
000003e0: b080 2fbf 8a6a 213e 7933 c13f fb8c 463e
000003f0: f37c 58bf 190b 1b3f c56e a13e 4032 dc3e

encoder.conv_logstd.bias f4 [16]
-3.9070828 -3.5900013 -4.1089897 -3.9935043 -5.747565 -4.579865 -5.304759 -5.422993
-3.4884613 -3.713703 -3.8328342 -3.9575474 -4.3882647 -5.7356086 -4.089506 -4.5314407
00000000: a50d 7ac0 95c2 65c0 d87c 83c0 9395 7fc0
00000010: 0dec b7c0 418e 92c0 96c0 a9c0 2989 adc0
00000020: f342 5fc0 4fad 6dc0 284d 75c0 7548 7dc0
00000030: aa6c 8cc0 1b8a b7c0 3cdd 82c0 9001 91c0

encoder.conv_logstd.lin.weight f4 [16, 24]
-0.30117843 -0.13703857 0.6467359 0.8015042 0.58749413 -0.057383996 -0.6159878 -0.12511706
-0.6919304 1.2642711 0.028640281 0.27298582 0.32090923 0.18817072 -0.35937175 -0.29837286
0.8515961 -0.21927013 0.62723076 -0.516059 -0.63982373 0.33208132 0.45026413 -1.027474
-0.63392305 0.034515146 0.7720182 0.42773375 0.32065487 0.024680763 -0.28120443 -0.23997556
-0.45102575 0.4821529 0.3594647 0.20167606 0.11939851 -0.03896691 -0.04384499 0.17005298
0.2836822 0.47114095 0.12967713 -0.72337073 -0.19399959 0.36089864 0.3158873 -0.50401914
-0.72051877 -0.16691138 1.1397812 1.0455711 0.50991285 -0.09227468 -0.68189967 -0.108910725
-0.80163574 1.1500812 0.23323852 0.46070346 0.47341076 0.39276186 0.121083654 -0.16381815
0.6632455 0.18181176 0.17519921 -0.52197224 -0.606257 1.6775652 0.8894584 -1.0583874
-0.5136925 -0.12980716 0.81020474 0.7126373 0.7908769 -0.004251043 -0.71697325 -0.16094036
-0.92523426 1.3269027 -0.47833124 0.26845253 0.007744602 0.46995488 -0.6638364 -0.3215632
0.8873482 0.108369455 0.5833488 -0.34726295 -0.52616745 0.13855909 0.7438837 -0.8001102
-1.5078543 -0.10219457 1.0227733 0.8705822 0.35585293 -0.17214993 -0.3958803 -0.009438196
-0.44999656 0.6929107 0.7266949 0.8189935 0.5429052 -0.045143142 0.23352316 -0.19845855
0.60719883 0.35594234 0.26726535 -0.48711845 -0.36844397 1.1229693 0.76085746 -0.7163024
-1.2290395 -0.12157904 0.68299425 0.88394964 0.6421919 0.07834681 -0.45881656 -0.24292882
-0.50074404 0.9972306 -0.028898012 0.40713692 0.56715536 0.37921986 0.20904297 -0.012237947
0.61328787 0.1958738 0.25664765 -0.9765503 -0.5302853 1.8891397 0.77148646 -0.9625213
-2.0678327 -0.20996374 1.3815068 1.1083661 0.5691718 -0.16183229 -0.58145577 0.033227205
-0.8343445 1.1364068 0.85189 0.61448634 0.70075136 0.32328534 0.14488441 -0.117510535
0.85569465 0.45603654 0.22143923 -1.1383753 -0.6770057 1.1526082 0.77202636 -1.1851264
-2.750261 -0.18645199 1.7085019 1.2380697 0.39567608 -0.11515869 -0.74619204 -0.18535168
-0.9126254 1.2303365 0.38961643 0.69355345 0.67665553 0.4287971 0.26562375 0.2962111
0.85188276 0.5771699 0.28012514 -1.2077136 -0.8438081 1.5684192 0.6348662 -1.316301
-0.46091858 -0.122239225 0.5432172 0.66997844 0.58944595 -0.077997304 -0.45427275 0.092470154
-0.4398017 0.8445101 -0.51372087 0.19232759 0.22356763 0.26874334 -0.47133595 0.04590442
0.5029361 0.31877252 0.37421933 -0.19560756 -0.48866832 0.06173623 0.41824389 -0.83026737
-1.1527193 -0.062325925 0.9629818 0.52258164 0.5423595 -0.16281007 -0.4652034 0.08963844
-0.70325744 0.7325268 -0.47193584 0.21304336 0.46079716 0.1953051 -0.37836775 0.09918173
0.62213135 0.22178462 0.007613942 0.18077433 -0.5652045 -0.9643787 0.61098504 -0.57351565
-0.4460122 -0.21646436 0.6557996 0.53116804 0.17493193 0.08814697 -0.5682218 -0.018455865
-0.5518727 0.78437936 -0.23341775 0.23496616 0.078611895 0.45355666 -0.57556576 0.24703793
00000000: 0f34 9abe d753 0cbe 7c90 253f 612f 4d3f
00000010: 0466 163f 7b0b 6bbd 60b1 1dbf b01e 00be
00000020: 5a22 31bf a3d3 a13f 069f ea3c ccc4 8b3e
00000030: 374e a43e d3af 403e 93ff b7be 54c4 98be
00000040: 3402 5a3f 5988 60be 3292 203f 711c 04bf
00000050: 7dcb 23bf 9006 aa3e 0589 e63e 4584 83bf
00000060: c848 22bf c15f 0d3d fca2 453f ebff da3e
00000070: e02c a43e 502f ca3c 07fa 8fbe 27bc 75be
00000080: d9ec e6be bfdc f63e c20b b83e 2b84 4e3e
00000090: 3587 f43d c49b 1fbd ce96 33bd 5e22 2e3e
000000a0: cb3e 913e 6339 f13e 15ca 043e d32e 39bf
000000b0: d4a7 46be b5c7 b83e fbbb a13e 6607 01bf
000000c0: eb73 38bf d1ea 2abe 5ae4 913f 46d5 853f
000000d0: a689 023f 82fa bcbd fa90 2ebf 960c dfbd
000000e0: 0038 4dbf dc35 933f 14d6 6e3e 53e1 eb3e
000000f0: e562 f23e 1518 c93e b5fa f73d f2bf 27be
00000100: 75ca 293f dd2c 3a3e 6c67 333e f99f 05bf
00000110: a933 1bbf 75ba d63f 8cb3 633f 3d79 87bf
00000120: 5a81 03bf 2bec 04be 9469 4f3f 666f 363f
00000130: e976 4a3f 554c 8bbb 8f8b 37bf 8dcd 24be
00000140: 27dc 6cbf f3d7 a93f d5e7 f4be 9c72 893e
00000150: 6ec6 fd3b ed9d f03e 2ff1 29bf efa3 a4be
00000160: 4029 633f cef0 dd3d 5956 153f 73cc b1be
00000170: e9b2 06bf 6fe2 0d3e 2a6f 3e3f 06d4 4cbf
00000180: 5f01 c1bf 634b d1bd 3cea 823f 7ade 5e3f
00000190: 5b32 b63e 1248 30be d3b0 cabe aaa2 1abc
000001a0: f365 e6be 9862 313f ad08 3a3f 8fa9 513f
000001b0: d6fb 0a3f 04e8 38bd b220 6f3e b838 4bbe
000001c0: 6271 1b3f 133e b63e 01d7 883e 9767 f9be
000001d0: b0a4 bcbe 75bd 8f3f 8ec7 423f 985f 37bf
000001e0: 2b51 9dbf 6ffe f8bd b6d8 2e3f 864a 623f
000001f0: b066 243f 4b74 a03d 01ea eabe 55c2 78be
00000200: c330 00bf 814a 7f3f 86bb ecbc 4074 d03e
00000210: 1831 113f 1b29 c23e 5c0f 563e ac81 48bc
00000220: 6f00 1d3f 2493 483e 5267 833e 33ff 79bf
00000230: c7c0 07bf 54cf f13f 2380 453f cc67 76bf
00000240: 5f57 04c0 bc00 57be 37d5 b03f f1de 8d3f
00000250: 3eb5 113f 5db7 25be 49da 14bf 4019 083d
00000260: 9a97 55bf c775 913f 7715 5a3f fa4e 1d3f
00000270: 7164 333f a885 a53e 945c 143e 5da9 f0bd
00000280: ce0e 5b3f 9f7d e93e f7c0 623e 48b6 91bf
00000290: 3f50 2dbf aa88 933f 85a3 453f 39b2 97bf
000002a0: 4704 30c0 45ed 3ebe 31b0 da3f 1179 9e3f
000002b0: 0e96 ca3e 52d8 ebbd 7106 3fbf d5cc 3dbe
000002c0: d1a1 69bf ab7b 9d3f ce7b c73e b88c 313f
000002d0: 4c39 2d3f 4b8b db3e d6ff 873e fba8 973e
000002e0: fd14 5a3f 68c1 133f 906c 8f3e 5c96 9abf
000002f0: cf03 58bf f6c1 c83f 9786 223f 8d7c a8bf
00000300: 85fd ebbe 8f58 fabd 4810 0b3f b583 2b3f
00000310: eee5 163f 0dbd 9fbd 7096 e8be fe60 bd3d
00000320: b02d e1be d031 583f 3683 03bf 86f1 443e
00000330: eaee 643e ba98 893e f252 f1be 4606 3c3d
00000340: 6cc0 003f 2736 a33e ad99 bf3e 594d 48be
00000350: bc32 fabe 21df 7c3d 1024 d63e 678c 54bf
00000360: 4e8c 93bf 7849 7fbd fa85 763f e9c7 053f
00000370: 12d8 0a3f afb7 26be 242f eebe 5c94 b73d
00000380: ae08 34bf e086 3b3f 93a1 f1be 0a28 5a3e
00000390: 9bed eb3e 0ffe 473e 6bb9 c1be ca1f cb3d
000003a0: 0044 1f3f 821b 633e 607e f93b e81c 393e
000003b0: 3eb1 10bf 86e1 76bf 8469 1c3f ecd1 12bf
000003c0: b65b e4be d5a8 5dbe 7ce2 273f a1fa 073f
000003d0: 5b21 333e 6686 b43d fc76 11bf c130 97bc
000003e0: 8747 0dbf 16cd 483f 1005 6fbe f89a 703e
000003f0: 46ff a03d 9438 e83e 4758 13bf 83f7 7c3e

classifier.weight f4 [2, 16]
12.044461 6.375332 -3.8362176 -16.976637 0.3952298 -6.685302 0.6543191 0.5490281
10.729883 -15.969365 -11.444029 13.417962 -0.8969992 -0.3871318 9.177321 -3.2602117
-12.021608 -6.642427 3.9389803 16.957872 -0.4963468 6.6583657 -0.762253 -0.2739607
-10.896558 16.168139 11.481709 -13.584301 1.2551816 0.14442648 -8.738061 3.3535438
00000000: 1db6 4041 b802 cc40 9784 75c0 27d0 87c1
00000010: 8f5b ca3e feed d5c0 7581 273f 1b8d 0c3f
00000020: 9aad 2b41 8582 7fc1 be1a 37c1 f9af 5641
00000030: bda1 65bf 2436 c6be 4fd6 1241 4fa7 50c0
00000040: 8258 40c1 c38e d4c0 4118 7c40 b9a9 8741
00000050: 2b21 febe 5511 d540 0323 43bf 9444 8cbe
00000060: 4d58 2ec1 5958 8141 14b5 3741 4c59 59c1
00000070: caa9 a03f 89e4 133e 19cf 0bc1 76a0 5640

classifier.bias f4 [2]
-1.2997272 1.0369217
00000000: 765d a6bf dab9 843f
