trained-model/model_20240817_004020.pt (torch, 95228 bytes, 10 tensors)

encoder.conv1.bias f4 [32]
-0.3733847 0.29993498 -0.13944384 -0.33120194 -0.170065 0.09041417 -0.12518756 -0.53667253
-0.34769207 -0.1855123 -0.13619317 -0.39998087 0.26105815 -0.13414828 -0.6760807 -0.0636821
0.17833017 -0.28713515 -0.26839003 -0.11125518 -0.05561401 0.34011614 -0.4188496 -0.11330226
-0.25858125 -0.53524476 -0.09552017 -0.16013333 -0.34344006 -0.47616923 0.08957532 -0.026621157
00000000: 482c bfbe 1491 993e 5eca 0ebe 4d93 a9be
00000010: 8525 2ebe 102b b93d 2b31 00be 5f63 09bf
00000020: b204 b2be f0f6 3dbe 3976 0bbe 4bca ccbe
00000030: 6aa9 853e 2b5e 09be a013 2dbf c36b 82bd
00000040: 2f9c 363e 6103 93be 6b6a 89be c1d9 e3bd
00000050: 84cb 63bd b423 ae3e 7473 d6be 040b e8bd
00000060: c364 84be cd05 09bf 14a0 c3bd fef9 23be
00000070: 60d7 afbe 74cc f3be 4473 b73d 9d14 dabc

encoder.conv1.lin.weight f4 [32, 658]
-0.75047034 -0.07939223 0.3366304 -0.089639485 0.2579831 -0.35121387 0.3325067 -1.8420684
-1.4576517 0.6455942 0.62757444 -4.987829 -2.4114742 0.76742107 -0.395452 -0.16241868
-2.5796096 1.1449118 0.60083824 0.24184507 0.35292956 -2.577933 -1.691716 -0.09621764
-1.7350456 0.39692616 -0.710177 0.022721464 -2.808761 -1.34822 -0.29595926 -2.8361294
-0.5710533 1.0573256 0.59689695 -1.5323262 -2.5901735 0.7395708 0.09580552 0.9004039
0.81330717 2.3435864 -0.81951374 -0.2450716 -4.677875 -0.24166137 0.64443016 -1.150184
0.63736707 -0.18589199 0.5960964 0.464213 0.8116149 -1.3663784 0.60972273 -1.1528647
-1.5890415 -0.7674063 0.33638856 -3.0805185 0.40436354 0.73618156 -1.135446 1.0192494
-0.6876566 0.50254977 -0.4660189 -2.0398035 0.22069892 -0.07231633 0.69151556 0.4279495
-0.17074856 0.9545575 -0.3460982 -0.73958397 0.64194494 -0.520675 0.19823548 -0.1540015
0.9027388 -0.6788169 2.3926175 -0.9027065 -0.10404757 0.5302544 0.9810577 1.1556375
-0.71141845 -0.943331 -2.9558551 -0.90454584 0.47138152 -0.42138037 0.6585513 0.3418689
1.7192308 0.7188974 0.49023765 0.70894563 0.6135948 -0.845232 -0.0052856784 -2.252755
-0.19303435 0.054523323 0.3477895 1.0169973 -1.3817153 0.85830736 -0.99047 0.69368654
0.21909034 0.7205653 0.8542351 0.5028212 0.6670234 -0.22482187 -1.3791649 -4.238581
0.33264065 0.27151936 0.6937063 -2.5686224 -2.4281673 0.03967428 0.58761185 -0.33784595
0.4928073 0.69411415 -4.666399 -5.8861904 -7.0528803 -1.3986342 0.7086186 -0.46336538
0.46042988 1.1207701 -1.2656765 0.6870738 -1.7186029 -0.21655495 0.29951668 -0.16714573
0.93799955 -0.77575237 -0.7176088 -0.08799937 -0.08129882 -1.2400852 0.84766114 -0.7121108
0.069351286 0.9601069 -0.06352142 0.6025339 0.5307004 0.35472646 -0.72629267 -1.6430646
-1.5574125 1.613482 -0.01910317 -7.3161163 -0.20410167 0.35882905 -0.9099798 -1.1777073
-2.0289185 -0.69285554 -0.10617149 -0.22449698 -0.5702482 -5.16312 0.74571955 0.10659443
0.29148158 -0.3678576 -5.2187805 -0.5254184 1.0466514 -0.87035674 0.531361 -1.9456468
-1.2246001 -7.0835457 -4.254064 0.50311184 1.1957048 -0.62208146 -0.35200116 0.9044172
-1.0246149 1.1117823 1.2452389 -2.2588518 0.7378496 0.0676867 -0.75329643 0.6225787
-0.060603667 -1.0756563 -0.5140636 0.6151775 -2.219327 -0.06531426 -1.8022352 -2.2825963
0.24417377 0.62417245 -0.72547007 0.6064936 -0.26241487 0.065316685 -0.23774946 0.8652915
1.4332615 -0.51902217 -1.38631 0.5307305 0.36292222 0.7701707 -0.0135362595 -0.7762237
-2.7378647 0.32452175 -0.1462693 -0.78180194 0.9285227 -1.9051507 0.4107134 -2.186103
0.45063025 0.43560976 -5.928777 0.7107958 -1.9319094 -2.0975592 -4.2667885 -6.84122
-0.5221413 -0.045957614 -0.081196904 -0.39570338 1.0640707 -0.20002231 -1.0560005 0.8800011
0.72453207 -4.1113615 -0.37212506 0.6240978 -0.062576294 -4.895731 0.017638603 0.5239603
00000000: d31e 40bf 6598 a2bd d25a ac3e e894 b7bd
00000010: 5c16 843e 4ed2 b3be 513e aa3e e6c8 ebbf
00000020: 5594 babf a945 253f b8a8 203f 4c9c 9fc0
00000030: 9855 1ac0 b575 443f af78 cabe 1551 26be
00000040: 5318 25c0 788c 923f 89d0 193f 3ca6 773e
00000050: 2fb3 b43e dbfc 24c0 268a d8bf c10d c5bd
00000060: f915 debf e839 cb3e 29ce 35bf 5d22 ba3c
00000070: bdc2 33c0 7992 acbf f987 97be 2583 35c0
00000080: 8d30 12bf 7256 873f 3dce 183f 4423 c4bf
00000090: 67c5 25c0 8354 3d3f af35 c43d df80 663f
000000a0: e634 503f 52fd 1540 a7cb 51bf 0df4 7abe
000000b0: 27b1 95c0 1476 77be 60f9 243f 3b39 93bf
000000c0: 7d2a 233f 785a 3ebe c699 183f 54ad ed3e
000000d0: fec5 4f3f 7de5 aebf ca16 1c3f 1291 93bf
000000e0: b665 cbbf bd74 44bf 1f3b ac3e 3727 45c0
000000f0: bd08 cf3e 6576 3c3f 4b56 91bf c476 823f
00000100: 430a 30bf 1aa7 003f 079a eebe 248c 02c0
00000110: e6fe 613e 961a 94bd 2a07 313f 321c db3e
00000120: b6d8 2ebe e15d 743f c933 b1be 6055 3dbf
00000130: 8156 243f f54a 05bf 3efe 4a3e 92b2 1dbe
00000140: e419 673f f2c6 2dbf a520 1940 c617 67bf
00000150: e416 d5bd c1be 073f 9926 7b3f eeeb 933f
00000160: 851f 36bf 247e 71bf bb2c 3dc0 5190 67bf
00000170: eb58 f13e 2bbf d7be d196 283f 7109 af3e
00000180: c10f dc3f a909 383f 6e00 fb3e 767d 353f
00000190: 8c14 1d3f 2061 58bf 7c33 adbb 232d 10c0
000001a0: ccaa 45be d953 5f3d 7711 b23e f82c 823f
000001b0: 0cdc b0bf 08ba 5b3f 718f 7dbf 7195 313f
000001c0: 3859 603e f876 383f 27af 5a3f e4b8 003f
000001d0: 0cc2 2a3f b437 66be 7a88 b0bf 75a2 87c0
000001e0: e04f aa3e 9604 8b3e bc96 313f 4f64 24c0
000001f0: 1867 1bc0 7f81 223d bb6d 163f 25fa acbe
00000200: 3d51 fc3e 77b1 313f 2453 95c0 ac5b bcc0
00000210: 32b1 e1c0 7206 b3bf 0768 353f 3a3e edbe
00000220: 77bd eb3e 6575 8f3f b001 a2bf 12e4 2f3f
00000230: 2efb dbbf 95c0 5dbe 405a 993e 4028 2bbe
00000240: bd20 703f b597 46bf 36b5 37bf 0439 b4bd
00000250: ff7f a6bd 1dbb 9ebf 5200 593f e54c 36bf
00000260: 0c08 8e3d 91c9 753f 8517 82bd a93f 1a3f
00000270: fbdb 073f b59e b53e 51ee 39bf f14f d2bf
00000280: 4b59 c7bf 9486 ce3f 407e 9cbc a01d eac0
00000290: 0700 51be 71b8 b73e 70f4 68bf 1dbf 96bf
000002a0: cdd9 01c0 fb5e 31bf 7070 d9bd 89e2 65be
000002b0: c9fb 11bf 4738 a5c0 7ae7 3e3f 2e4e da3d
000002c0: 133d 953e d557 bcbe 4000 a7c0 d281 06bf
000002d0: acf8 853f b3cf 5ebf 4607 083f f40a f9bf
000002e0: b2bf 9cbf 68ac e2c0 4b21 88c0 f0cb 003f
000002f0: db0c 993f bb40 1fbf 7f39 b4be e387 673f
00000300: 9526 83bf e24e 8e3f fd63 9f3f 0791 10c0
00000310: b6e3 3c3f 539f 8a3d 09d8 40bf 5161 1f3f
00000320: 8d3b 78bd 1baf 89bf ac99 03bf 467c 1d3f
00000330: 7409 0ec0 7cc3 85bd a5af e6bf 0f16 12c0
00000340: b008 7a3e c4c9 1f3f 68b8 39bf 2a43 1b3f
00000350: 3e5b 86be c1c4 853d 9874 73be be83 5d3f
00000360: 1d75 b73f a3de 04bf 9b72 b1bf f4dd 073f
00000370: f1d0 b93e e829 453f 30c7 5dbc 99b6 46bf
00000380: 2d39 2fc0 b727 a63e 9fc7 15be 2c24 48bf
00000390: aab3 6d3f fadb f3bf 0749 d23e 1de9 0bc0
000003a0: 02b9 e63e 3e08 df3e 8bb8 bdc0 b7f6 353f
000003b0: cf48 f7bf 693e 06c0 8889 88c0 46eb dac0
000003c0: 0dab 05bf 0d3e 3cbd 904a a6bd a299 cabe
000003d0: 7833 883f a6d2 4cbe 062b 87bf c147 613f
000003e0: ef7a 393f 4690 83c0 2d87 bebe e0c4 1f3f
000003f0: 0028 80bd d4a9 9cc0 d57e 903c 4322 063f

encoder.conv2.bias f4 [24]
-1.018393 -0.6416749 -0.23275912 -1.6348364 -0.2178683 -0.5508023 -0.020107888 -0.4904977
0.13283572 -0.20938273 -0.25525156 -0.8888176 -0.5563579 -0.20781483 -0.23356396 -0.18358104
-0.5797865 -0.14160067 -0.08339924 -0.6697819 -1.2096689 0.016994262 -0.6733954 0.5829749
00000000: b45a 82bf ce44 24bf 6858 6ebe 5242 d1bf
00000010: de18 5fbe 6101 0dbf 4cb9 a4bc 8422 fbbe
00000020: 1606 083e 6d68 56be 55b0 82be 8d89 63bf
00000030: 796d 0ebf 69cd 54be 642b 6fbe abfc 3bbe
00000040: e36c 14bf c4ff 10be 39cd aabd d476 2bbf
00000050: 6ed6 9abf 8d37 8b3c a463 2cbf d83d 153f

encoder.conv2.lin.weight f4 [24, 32]
0.48654318 -6.830275 0.3174122 0.2898453 0.5763901 0.4821407 -0.7556088 -0.31909528
0.7446633 0.20775853 0.7922806 0.13813251 -1.0432192 -2.3363693 0.053121425 0.6530331
-1.3090049 -0.15485856 -0.6086315 0.023922086 0.04401379 -1.7741079 0.046525016 0.40811834
-0.08233854 0.7841131 0.7959556 -0.31825545 1.0426258 0.8347325 -0.82889694 0.15397479
-1.9847999 1.3325326 1.2349786 -6.996732 -1.0651387 0.9872258 -1.2459654 -2.4511454
1.7645652 -2.3428795 -0.44678053 -2.397394 -1.5607907 -1.472716 1.9236528 -1.4335943
-0.10307818 2.4723353 -0.24066073 -2.5542524 1.5774258 -1.4427967 -1.1298599 -0.10639776
0.9556733 4.4573646 -2.1867814 -1.2174394 0.8414979 -3.0569417 -0.090131275 -0.51387346
0.72640157 -0.01857171 0.5017753 0.3804996 0.78417945 0.5877127 -0.941586 0.5774186
0.75620395 -1.3646785 -2.1121428 0.43579295 0.25360614 0.1883268 0.6432498 -1.1358551
-1.7486515 -0.37019572 -1.5345383 -0.9551648 0.61208576 -0.8459504 0.06438516 -1.0229442
0.43777615 0.43997332 -1.3887156 0.5230392 0.72533804 -0.05495215 -0.3854864 -1.735889
0.26541433 0.1226129 -0.42366746 -0.2781561 -0.15261509 0.22074616 -0.4111803 -0.47232097
0.50747144 -0.5680201 -1.0665501 -0.55470407 0.25562927 -0.047272064 0.9842097 0.30857384
-0.92391807 0.78949845 0.0034857509 -0.6393035 0.8907918 -0.82436776 1.2345523 -0.36683264
-0.0005428403 0.77426815 -0.6614897 0.72467625 0.025026478 0.25529507 0.07435522 -0.67844534
0.92938364 -0.0031609323 -1.1268703 0.4809904 0.4164432 -1.1168368 -1.5631709 1.0294983
-0.11106864 -0.15796469 -0.07644275 0.41938597 -0.5720487 1.0167314 0.7162339 0.7195646
-0.6216051 0.9543427 0.36740795 0.72716975 -0.538316 -0.6206132 -0.7038915 -1.7552341
0.61995906 -1.296809 0.91652614 -0.081954464 -0.5720784 -0.82013386 0.05731133 -2.3210812
-1.1585348 0.87179023 0.6924316 2.417343 -0.40563363 -1.2438616 -1.8767098 -0.4504636
-0.25772783 1.0136178 0.6407152 -1.2611709 1.1308465 -2.0801337 0.18968686 -0.45077538
-1.0064148 1.2100147 -1.7671001 1.1375328 -0.049749594 -2.2869532 -0.6702708 -2.140443
-0.9206785 -1.7174337 -3.1855187 1.7288421 -1.1855029 0.44773328 -2.1086397 -2.0737333
0.0032084866 0.53987044 -0.2868983 1.0048776 -0.1347313 -0.28405392 -0.3406712 0.07633414
-0.7432247 -1.3026016 -0.6451655 -0.061815135 -0.60189945 0.26860744 0.18954585 -2.170444
-0.1822288 -1.0506518 0.13254634 0.097757965 1.0645303 -0.99117213 0.94790596 -0.77655834
0.42681685 -1.7702148 0.46329185 0.8056415 0.4383499 0.009470949 -0.22885773 -0.6192678
-0.5135922 0.09957048 -0.16658293 0.426864 -1.0391425 -1.0564488 -0.32898796 0.8902367
0.57482946 -0.51635236 -0.3243411 0.8850814 -1.3765562 -0.4606236 0.5046713 -0.4534396
-0.40771705 -0.30239534 0.6804364 -0.3493278 -0.055887174 -0.25790265 0.91021407 0.29070747
0.7481581 0.62896794 0.19943361 0.97749877 -0.35431087 -3.7816226 -0.41973168 -0.110673875
00000000: 301c f93e 9d91 dac0 da83 a23e 9a66 943e
00000010: 4d8e 133f 25db f63e 946f 41bf 7560 a3be
00000020: 41a2 3e3f a7be 543e e7d2 4a3f 9c72 0d3e
00000030: 3588 85bf 1387 15c0 da95 593d 2d2d 273f
00000040: 798d a7bf 3e93 1ebe 46cf 1bbf 40f8 c33c
00000050: ce47 343d f815 e3bf 0491 3e3d e3f4 d03e
00000060: 1ca1 a8bd a3bb 483f bfc3 4b3f 61f2 a2be
00000070: c374 853f 07b1 553f 9732 54bf 91ab 1d3e
00000080: ec0d febf 6e90 aa3f c713 9e3f 3be5 dfc0
00000090: 7756 88bf d4ba 7c3f cb7b 9fbf 91df 1cc0
000000a0: 46dd e13f bdf1 15c0 6bc0 e4be e76e 19c0
000000b0: fdc7 c7bf f581 bcbf 413a f63f 0580 b7bf
000000c0: a71a d3bd be3a 1e40 c46f 76be df78 23c0
000000d0: 17e9 c93f 90ad b8bf 409f 90bf 12e7 d9bd
000000e0: 01a7 743f bba2 8e40 3af4 0bc0 0ed5 9bbf
000000f0: 686c 573f efa4 43c0 bf96 b8bd 368d 03bf
00000100: 74f5 393f b323 98bc 5974 003f d8d0 c23e
00000110: fcbf 483f 5774 163f c80b 71bf b5d1 133f
00000120: 9596 413f c9ad aebf 592d 07c0 4120 df3e
00000130: aad8 813e bed8 403e 05ac 243f b363 91bf
00000140: d0d3 dfbf 4b8a bdbe c06b c4bf ae85 74bf
00000150: a7b1 1c3f 3590 58bf 5edc 833d d6ef 82bf
00000160: 3224 e03e 2f44 e13e 6fc1 b1bf e6e5 053f
00000170: c1af 393f 8115 61bd 795e c5be 9c31 debf
00000180: 63e4 873e 791c fb3d f1ea d8be 7a6a 8ebe
00000190: 2147 1cbe 480b 623e 3986 d2be 0ed4 f1be
000001a0: a6e9 013f c469 11bf b784 88bf 1601 0ebf
000001b0: d7e1 823e 5aa0 41bd 2bf5 7b3f 64fd 9d3e
000001c0: e585 6cbf 921c 4a3f 3271 643b 65a9 23bf
000001d0: ee0a 643f c409 53bf cf05 9e3f 7dd1 bbbe
000001e0: 654d 0eba 7036 463f 6457 29bf 6284 393f
000001f0: 5404 cd3c 09b6 823e 8d47 983d 98ae 2dbf
00000200: 16ec 6d3f a527 4fbb 493d 90bf 6044 f63e
00000210: 0b38 d53e 82f4 8ebf fc15 c8bf 9ac6 833f
00000220: f577 e3bd 7fc1 21be 048e 9cbd c2b9 d63e
00000230: c971 12bf 4124 823f 1b5b 373f 6335 383f
00000240: 8321 1fbf ce4f 743f e51c bc3e cc27 3a3f
00000250: 14cf 09bf 82e0 1ebf 3c32 34bf 83ab e0bf
00000260: a3b5 1e3f d6fd a5bf 75a1 6a3f bed7 a7bd
00000270: bb73 12bf 4bf4 51bf 49bf 6a3d 988c 14c0
00000280: de4a 94bf a52d 5f3f 3343 313f bfb5 1a40
00000290: 36af cfbe db36 9fbf 0738 f0bf 2aa3 e6be
000002a0: e7f4 83be 3abe 813f e905 243f 0c6e a1bf
000002b0: 94bf 903f e920 05c0 463d 423e 08cc e6be
000002c0: 33d2 80bf c3e1 9a3f 5630 e2bf ad9a 913f
000002d0: 3bc6 4bbd 715d 12c0 de96 2bbf 05fd 08c0
000002e0: 96b1 6bbf ded4 dbbf 8adf 4bc0 b34a dd3f
000002f0: 8fbe 97bf 4c3d e53e f4f3 06c0 0cb8 04c0
00000300: 7945 523b f334 0a3f 55e4 92be d49f 803f
00000310: 00f7 09be 846f 91be 756c aebe 1355 9c3d
00000320: f943 3ebf a6bb a6bf 9129 25bf de31 7dbd
00000330: 1516 1abf ea86 893e 4f18 423e 8ee8 0ac0
00000340: 309a 3abe c27b 86bf 3aba 073e 5435 c83d
00000350: 8742 883f 75bd 7dbf f7a9 723f 87cc 46bf
00000360: bd87 da3e 6696 e2bf 9734 ed3e 853e 4e3f
00000370: 666f e03e 0a2c 1b3c ae59 6abe 5688 1ebf
00000380: c77a 03bf 9ceb cb3d b794 2abe eb8d da3e
00000390: 9f02 85bf b739 87bf 1c71 a8be 8de6 633f
000003a0: 0628 133f ab2f 04bf 0910 a6be b294 623f
000003b0: fe32 b0bf dbd6 ebbe 2332 013f 3c29 e8be
000003c0: 4ac0 d0be 90d3 9abe 1431 2e3f 18db b2be
000003d0: f3e9 64bd d10b 84be ca03 693f 9cd7 943e
000003e0: 4a87 3f3f 0b04 213f 5338 4c3e 5c3d 7a3f
000003f0: 3c68 b5be 1b06 72c0 12e7 d6be fca8 e2bd

encoder.conv_mu.bias f4 [16]
0.046373926 0.044476524 -0.017951183 -0.00010278049 0.12376332 -0.09797806 0.030272719 -0.036603197
0.05439028 -0.0043872516 0.089214064 0.026022712 0.13913056 -0.05097235 -0.006997036 0.072541974
00000000: 96f2 3d3d 042d 363d 5c0e 93bc db8b d7b8
00000010: a077 fd3d b9a8 c8bd 7efe f73c 3ced 15bd
00000020: 58c8 5e3d efc2 8fbb ddb5 b63d 952d d53c
00000030: 3e78 0e3e 62c8 50bd 6447 e5bb e390 943d

encoder.conv_mu.lin.weight f4 [16, 24]
-3.1596441 0.3979865 -2.4159815 -0.78673387 -0.83431315 1.0667956 -0.5710354 1.5782958
-0.55627316 0.26681766 -0.52227277 0.59123766 0.8519438 0.23513779 0.21432912 0.22365801
1.5503366 -1.9282267 -0.29275513 -2.462242 0.68890935 -0.1786145 -1.8448138 -0.22676419
-1.2777687 0.015788158 -1.5488805 -0.28428835 -0.122604474 -1.1539006 -0.43840116 1.7420275
-0.5951666 0.75567365 0.66404873 -0.68263257 -0.11369589 0.7447138 -0.18935819 0.18729003
0.21715079 0.16225867 -0.26547965 -3.6704628 -0.5088601 -0.14063077 0.9472341 0.7695557
1.9720842 0.32495874 -0.037184525 -0.025160609 2.1732588 0.6001655 -0.3435371 -0.88561296
-0.6508406 0.5767167 -2.520037 -1.463105 -0.9113519 -2.4821093 1.0909954 0.6218852
0.38741642 2.66325 0.90111816 2.474075 0.112470485 0.057250407 6.3794613 0.19988975
2.8613932 -0.13224483 3.6246095 0.26678693 0.8496315 0.42952755 -0.64621365 -1.9419218
0.87078387 0.28594762 -0.69012314 -0.48561192 -1.3150388 0.7475206 0.16878179 -0.5238257
-0.6631779 3.139759 -0.62506187 2.9264514 -0.13203542 -0.1600728 2.336242 -0.21596085
0.069774345 1.9773608 -0.16126238 0.6002297 -0.034252603 -0.19726314 0.022732686 0.25641173
0.095536366 -0.16696218 0.6822389 -11.760517 0.005863734 -0.0073299375 -0.19584946 -0.8003831
0.35038447 -12.34774 -0.16431348 1.0344133 -0.004848945 -0.2992296 -21.351988 0.17443159
1.4483024 1.526477 1.9491186 -0.31960934 0.7681972 -0.35464495 -0.5967416 -0.68066853
0.14154018 -0.5286365 -0.19770563 -0.50867915 -0.004888013 0.5377387 -0.39761648 -0.29923788
-1.6595031 2.5398505 0.61769515 -0.52455574 1.2739019 0.10408781 3.117713 0.78822327
0.8318018 -1.3356315 1.2578864 0.9632872 -0.80787283 -0.05704794 0.13483442 -1.0205696
-0.054044332 -0.5829375 1.0972375 5.4655995 -0.44459254 0.74457 -0.12035941 -2.181787
0.023220852 -14.507901 0.4344288 1.5644734 0.11223297 -0.6556272 -25.39132 1.1470889
-1.6729466 -1.7941931 -0.96668583 -0.6642204 -2.8673704 -0.042008016 0.24080977 -0.081699915
0.20547985 -0.4210318 1.599646 -4.7023244 0.64940906 -0.06275676 -0.15184125 -2.39337
0.49955225 14.251609 -0.01078847 -0.31439963 0.15266472 -0.34770218 26.15472 1.0472478
-2.2846184 -0.15563169 -1.4985963 -0.061365634 -0.9911146 0.111144744 -1.1937453 1.4663175
0.49570575 -0.42925465 1.2543074 0.30579937 0.43561924 -0.50840026 0.42659295 0.18315794
1.3826939 -1.5753622 0.28929195 -3.8712094 -0.4664536 -0.35038814 -1.2744014 0.3227776
1.8617074 -0.32600802 2.3491733 0.60675895 1.4250402 -0.050546695 0.05496745 -1.9128051
-0.2216135 0.5909001 -0.6956927 0.098145396 -1.9344609 1.3341055 -0.023924656 0.13081247
-0.5770514 2.4126303 -0.73734283 2.5370946 0.09833889 0.027724262 1.4333382 0.1679651
3.2103338 0.18989077 2.2978702 0.6525497 -0.23314896 -1.1313555 -0.6065952 -1.3025874
-0.7589058 0.12613471 1.6402991 0.20484252 -0.878909 0.81683475 0.15185112 0.49960187
00000000: 9c37 4ac0 e3c4 cb3e 719f 1ac0 6467 49bf
00000010: 8c95 55bf c28c 883f 602f 12bf 9905 ca3f
00000020: eb67 0ebf 539c 883e abb3 05bf 5a5b 173f
00000030: fd18 5a3f f6c7 703e 1879 5b3e 9b06 653e
00000040: 6e71 c63f 22d0 f6bf 00e4 95be 5f95 1dc0
00000050: 5d5c 303f b8e6 36be dc22 ecbf df34 68be
00000060: ed8d a3bf 2b56 813c b741 c6bf 3e8e 91be
00000070: 0e18 fbbd 04b3 93bf 1e76 e0be c2fa de3f
00000080: d75c 18bf d473 413f 19ff 293f 02c1 2ebf
00000090: 64d9 e8bd 90a5 3e3f 1de7 41be f5c8 3f3e
000000a0: c75c 5e3e 2327 263e f3ec 87be dde8 6ac0
000000b0: a844 02bf 8301 10be ef7d 723f 9a01 453f
000000c0: 416d fc3f fe60 a63e cd4e 18bd 9f1d cebc
000000d0: ac16 0b40 72a4 193f 18e4 afbe 88b7 62bf
000000e0: 7d9d 26bf b5a3 133f 4948 21c0 0647 bbbf
000000f0: 5c4e 69bf e1da 1ec0 bda5 8b3f de33 1f3f
00000100: 725b c63e b072 2a40 aeaf 663f 3f57 1e40
00000110: ed56 e63d 677f 6a3d 8c24 cc40 e6af 4c3e
00000120: 1121 3740 306b 07be 9af9 6740 4c98 883e
00000130: 7381 593f 09eb db3e 426e 25bf e590 f8bf
00000140: b1eb 5e3f ba67 923e e9ab 30bf 20a2 f8be
00000150: 3153 a8bf 835d 3f3f 22d5 2c3e 7119 06bf
00000160: 07c6 29bf d0f1 4840 0e04 20bf fb4a 3b40
00000170: 4b34 07be 20ea 23be fd84 1540 d724 5dbe
00000180: dae5 8e3d 291a fd3f f721 25be a7a8 193f
00000190: 754c 0cbd 59ff 49be e639 ba3c 6648 833e
000001a0: 92a8 c33d 22f8 2abe 35a7 2e3f 142b 3cc1
000001b0: 9124 c03b f92f f0bb c38c 48be e8e5 4cbf
000001c0: 9865 b33e 5890 45c1 cb41 28be a867 843f
000001d0: e6e3 9ebb 9f34 99be dfd0 aac1 329e 323e
000001e0: f961 b93f 9963 c33f b87c f93f d6a3 a3be
000001f0: 92a8 443f 0694 b5be 0fc4 18bf 4b40 2ebf
00000200: e9ef 103e b954 07bf 5873 4abe cc38 02bf
00000210: a02b a0bb 3ea9 093f 6394 cbbe b535 99be
00000220: 996a d4bf e98c 2240 4521 1e3f 4949 06bf
00000230: 380f a33f fd2b d53d 9c88 4740 00c9 493f
00000240: f6f0 543f f9f5 aabf 6c02 a13f fd99 763f
00000250: c1d0 4ebf 1aab 69bd 0912 0a3e 06a2 82bf
00000260: 975d 5dbd 643b 15bf 4772 8c3f 31e6 ae40
00000270: a2a1 e3be 249c 3e3f ff7e f6bd 66a2 0bc0
00000280: a839 be3c 5d20 68c1 746d de3e aa40 c83f
00000290: 66da e53d 2fd7 27bf 6c21 cbc1 cfd3 923f
000002a0: 1d23 d6bf 1fa8 e5bf b978 77bf 590a 2abf
000002b0: ff82 37c0 9910 2cbd d696 763e 4952 a7bd
000002c0: 4f69 523e 7b91 d7be 33c1 cc3f 7179 96c0
000002d0: ac3f 263f 9e86 80bd 467c 1bbe f92c 19c0
000002e0: 50c5 ff3e 9706 6441 1fc2 30bc fdf8 a0be
000002f0: 2454 1c3e 0506 b2be de3c d141 370c 863f
00000300: 3037 12c0 ea5d 1fbe 01d2 bfbf 885a 7bbd
00000310: b0b9 7dbf db9f e33d a5cc 98bf 4bb0 bb3f
00000320: 25cd fd3e 44c7 dbbe 258d a03f bc91 9c3e
00000330: 7c09 df3e 8526 02bf 646a da3e c18d 3b3e
00000340: 1dfc b03f 78a5 c9bf 131e 943e e5c1 77c0
00000350: 02d3 eebe 1366 b3be 961f a3bf 1b43 a53e
00000360: 6e4c ee3f 86ea a6be db58 1640 8e54 1b3f
00000370: b867 b63f 0d0a 4fbd 8d25 613d ccd6 f4bf
00000380: a6ee 62be 3b45 173f eb18 32bf 7400 c93d
00000390: 6a9c f7bf f8c3 aa3f a4fd c3bc b4f3 053e
000003a0: a4b9 13bf 8968 1a40 80c2 3cbf c25f 2240
000003b0: e665 c93d fe1d e33c a077 b73f 0bff 2b3e
000003c0: 1c76 4d40 ba72 423e 4e10 1340 7f0d 273f
000003d0: 9abe 6ebe 42d0 90bf d349 1bbf 2fbb a6bf
000003e0: a747 42bf 7529 013e 52f5 d13f 3dc2 513e
000003f0: 2e00 61bf 151c 513f dc7e 1b3e d1cb ff3e

encoder.conv_logstd.bias f4 [16]
-3.9430597 -3.656242 -4.1177287 -4.001991 -5.742404 -4.72907 -5.261123 -5.4059463
-3.6166754 -3.80938 -4.057385 -4.1431537 -4.6703944 -5.947307 -4.198834 -4.500324
00000000: 175b 7cc0 deff 69c0 6fc4 83c0 4f10 80c0
00000010: c6c1 b7c0 8b54 97c0 1f5b a8c0 83fd acc0
00000020: 9c77 67c0 e2cc 73c0 19d6 81c0 b794 84c0
00000030: df73 95c0 5750 bec0 d95c 86c0 a702 90c0

encoder.conv_logstd.lin.weight f4 [16, 24]
-0.4876786 0.10700936 0.761262 0.49397334 0.4133948 -0.17625362 -0.44674814 0.05708027
-0.5991612 1.482718 0.23834321 0.1653133 0.31186104 0.07252091 -0.05731527 0.15172379
0.29183173 0.20128495 0.41673335 -0.5070265 -0.592454 0.43393642 0.4339571 -1.2156842
-0.9576016 0.106163725 0.48050192 0.31817567 0.27912366 -0.062779084 -0.193491 -0.07935679
-0.22670749 0.60865617 0.27175984 0.21115345 0.011030202 -0.014548506 0.3625759 0.36298004
-0.087623544 0.5192117 0.23740058 -0.8424341 -0.12888461 0.58822024 0.28150177 -0.45845765
-0.78334826 0.19805813 1.045565 0.44437447 0.04255354 -0.1935288 -0.3825862 -0.07906141
-0.6866456 1.5089575 0.3674535 0.5295625 0.59065056 -0.23567754 -0.3648531 0.11539251
0.42527077 0.44434333 0.28098822 -0.5408774 -0.530058 0.8376549 0.6312075 -1.1941876
-0.7814195 0.18165018 0.7743137 0.28871506 0.49090415 -0.07702965 -0.4439583 -0.1851579
-0.9914967 1.4027486 -0.33373526 0.26526615 0.21292573 0.0030346287 -0.40384763 0.015132177
0.6422943 0.23013192 0.57334435 -0.15595177 -0.404902 0.12282818 0.7947463 -1.0974048
-1.4266156 0.22972237 1.1186014 0.3972248 0.09914321 -0.15143363 -0.3224898 -0.42632398
-0.38633007 0.8878624 1.1714028 0.8186957 0.43174887 -0.2921244 0.046392675 0.27804655
0.51097625 0.37348726 0.2874002 -0.6607993 -0.34778553 0.6638905 0.8601497 -0.8579894
-1.4175948 0.113627866 0.8069475 0.4387406 0.23584665 0.058234625 -0.25486752 -0.2967239
-0.3089905 1.1989312 0.49006176 0.56805843 0.596722 -0.06071506 0.82586384 0.40732613
0.35752794 0.19592652 0.082160704 -0.6094519 -0.61692923 2.2591038 0.7279463 -0.9949258
-2.5318508 0.22486532 1.5646279 0.46748084 0.29411224 -0.1960401 -0.5585201 -0.30050528
-0.7708215 1.5830451 1.1593345 0.68822455 0.5662098 -0.3874129 -0.51288944 0.38976556
0.70258033 0.4322612 0.39550155 -0.6200508 -0.70500624 0.32448256 0.68231833 -1.4036671
-2.7190802 0.22411405 1.6946889 0.41670167 0.043493323 -0.18931413 -0.6074485 -0.39784542
-0.8585246 1.6863438 0.7884311 0.6845146 0.55241567 -0.3308672 -0.18034329 0.72952056
0.7412968 0.43631244 0.35991454 -0.71052325 -0.72799474 0.7947504 0.7382685 -1.4604138
-0.71212715 0.18173689 0.55036944 0.36915445 0.483763 0.03489715 -0.22133626 -0.20395167
-0.44840303 1.0545441 -0.12353304 0.18995024 0.21858037 -0.15010165 -0.6594165 0.40874657
0.4986441 0.24408305 0.3496885 -0.15522455 -0.4132833 0.21369816 0.6968026 -0.99343395
-0.78513205 0.014834443 0.8776743 0.5707733 0.20373765 -0.07023533 -0.30962327 -0.194238
-0.62515837 0.89796156 -0.43284312 0.11610308 0.067308046 0.28454047 -0.40773946 0.0951688
0.14134096 0.05681606 -0.034135323 -0.3025598 -0.39246944 -0.44272712 0.52138484 -0.63524526
-0.7533284 0.16545168 0.66777754 0.20512374 0.09473249 0.26027927 -0.25107762 0.025380695
-0.42725533 1.0801631 -0.27313563 0.22444783 0.337743 -0.5628917 -0.3054904 0.4938754
00000000: 02b1 f9be b927 db3d 11e2 423f 13ea fc3e
00000010: 7ca8 d33e d47b 34be 2cbc e4be 00cd 693d
00000020: a162 19bf b4c9 bd3f 3e10 743e e447 293e
00000030: 40ac 9f3e d885 943d 6bc3 6abd 7b5d 1b3e
00000040: f86a 953e a41d 4e3e 135e d53e 7dcc 01bf
00000050: 11ab 17bf ea2c de3e a02f de3e 8a9b 9bbf
00000060: 6125 75bf 5e6c d93d 5904 f63e ece7 a23e
00000070: 4ce9 8e3e 5292 80bd 8122 46be d085 a2bd
00000080: 0226 68be e4d0 1b3f 1b24 8b3e 9c38 583e
00000090: 05b8 343c db5c 6ebc 8ca3 b93e 85d8 b93e
000000a0: f973 b3bd 0feb 043f 2319 733e c3a9 57bf
000000b0: 54fa 03be 9a95 163f 0021 903e f6ba eabe
000000c0: 8389 48bf c0cf 4a3e 13d5 853f 0d85 e33e
000000d0: 9f4c 2e3d 6a2c 46be 57e2 c3be f3ea a1bd
000000e0: 02c8 2fbf 8525 c13f dd22 bc3e 6891 073f
000000f0: e034 173f 7455 71be 07ce babe e952 ec3d
00000100: 17bd d93e f880 e33e b0dd 8f3e f176 0abf
00000110: e2b1 07bf 8d70 563f d196 213f 24db 98bf
00000120: 1c0b 48bf 8102 3a3e 6c39 463f 76d2 933e
00000130: ca57 fb3e b9c1 9dbd 814e e3be 089a 3dbe
00000140: bad2 7dbf 448d b33f 59df aabe f7d0 873e
00000150: 3409 5a3e 9fe0 463b 1ec5 cebe f3ec 773c
00000160: 666d 243f b4a7 6b3e b2c6 123f d2b1 1fbe
00000170: 514f cfbe 578d fb3d 7e74 4b3f c377 8cbf
00000180: 579b b6bf 573c 6b3e 552e 8f3f 0d61 cb3e
00000190: 980b cb3d 6b11 1bbe 621d a5be 2347 dabe
000001a0: 0ecd c5be f34a 633f 87f0 953f 0b96 513f
000001b0: 300e dd3e 5491 95be 3f06 3e3d 1e5c 8e3e
000001c0: 57cf 023f b939 bf3e 1e26 933e 252a 29bf
000001d0: f210 b2be baf4 293f c532 5c3f 31a5 5bbf
000001e0: bf73 b5bf bab5 e83d 1d94 4e3f 9ca2 e03e
000001f0: c981 713e 6e87 6e3d ff7d 82be 32ec 97be
00000200: 0134 9ebe 9476 993f 60e9 fa3e 476c 113f
00000210: c6c2 183f 5bb0 78bd d06b 533f 0d8d d03e
00000220: e70d b73e f6a0 483e df43 a83d 0a05 1cbf
00000230: 13ef 1dbf 2895 1040 b05a 3a3f 75b3 7ebf
00000240: d809 22c0 1843 663e ba45 c83f a659 ef3e
00000250: e195 963e bcbe 48be 2cfb 0ebf d4db 99be
00000260: 8f54 45bf 39a1 ca3f 1365 943f 7c2f 303f
00000270: 20f3 103f fc5a c6be b94c 03bf 5a8f c73e
00000280: 4edc 333f 5751 dd3e 2e7f ca3e a6bb 1ebf
00000290: 4a7b 34bf 9422 a63e 6aac 2e3f 5dab b3bf
000002a0: 6905 2ec0 277e 653e 91eb d83f ec59 d53e
000002b0: 0e26 323d 90db 41be bf81 1bbf 65b2 cbbe
000002c0: 45c8 5bbf 1dda d73f 9fd6 493f 593c 2f3f
000002d0: 1d6b 0d3f 6d67 a9be e9ab 38be dcc1 3a3f
000002e0: a1c5 3d3f 5864 df3e b846 b83e dae4 35bf
000002f0: dd5d 3abf c374 4b3f 2aff 3c3f d7ee babf
00000300: f74d 36bf 3c19 3a3e 03e5 0c3f d001 bd3e
00000310: c9af f73e 50f0 0e3d f9a5 62be b5d8 50be
00000320: 1595 e5be 4dfb 863f e4fe fcbd 5182 423e
00000330: 88d3 5f3e 3fb4 19be 85cf 28bf 3b47 d13e
00000340: 484e ff3e e8f0 793e 5f0a b33e 2ff3 1ebe
00000350: de99 d3be b1d3 5a3e a861 323f b051 7ebf
00000360: 6afe 48bf 2a0c 733c 43af 603f 331e 123f
00000370: 9aa0 503e 8ad7 8fbd f186 9ebe 54e6 46be
00000380: 610a 20bf cfe0 653f 9d9d ddbe 74c7 ed3d
00000390: cdd8 893d 4aaf 913e 3ac3 d0be dce7 c23d
000003a0: afbb 103e f5b7 683d 7bd1 0bbd 1ee9 9abe
000003b0: c1f1 c8be 21ad e2be 7a79 053f 6f9f 22bf
000003c0: 21da 40bf 2a6c 293e 78f3 2a3f f50b 523e
000003d0: 1c03 c23d 5343 853e 3f8d 80be 2deb cf3c
000003e0: 36c1 dabe c942 8a3f 6fd8 8bbe a7d5 653e
000003f0: a7ec ac3e ac19 10bf 3d69 9cbe 3ddd fc3e

classifier.weight f4 [2, 16]
12.243591 6.409774 -3.5985382 -17.617844 0.3687345 -6.6098685 0.33454558 0.7017188
11.107978 -18.06662 -11.708699 13.841259 -0.5039989 -0.3701916 9.487955 -2.8872533
-12.220748 -6.676859 3.7013173 17.599085 -0.46983895 6.582916 -0.44249663 -0.42663863
-11.27467 18.265373 11.7463665 -14.00761 0.86219007 0.12747058 -9.048708 2.9805984
00000000: c0e5 4341 de1c cd40 734e 66c0 58f1 8cc1
00000010: c5ca bc3e 0b84 d3c0 8f49 ab3e d8a3 333f
00000020: 47ba 3141 7088 90c1 d556 3bc1 cc75 5d41
00000030: 1206 01bf c189 bdbe aace 1741 c2c8 38c0
00000040: 2f88 43c1 d4a8 d5c0 62e2 6c40 edca 8c41
00000050: bb8e f0be 3fa7 d240 eb8e e2be 6170 dabe
00000060: 0c65 34c1 7c1f 9241 1ef1 3b41 2c1f 60c1
00000070: 7db8 5c3f a687 023e 82c7 10c1 20c2 3e40

classifier.bias f4 [2]
-1.2361555 0.9733283
00000000: 583a 9ebf 0b2c 793f
