trained-model/model_20240817_004020_epoch_50.pt (torch, 95418 bytes, 10 tensors)

encoder.conv1.bias f4 [32]
00000000: 6340 3abe 7eb4 3b3e 0737 0a3d 9568 09bd
00000010: d41c a2bd 4082 4d3d 8c4f 00bc 67d7 1ebe
00000020: dbb0 14bd 56e1 22bd 522b 71bc a102 cbbd
00000030: 0f96 443e f023 ae3d ea44 06be 7584 5d3d
00000040: 5bb9 213e 08c6 89bd 57bf a9bb 7d90 79bb
00000050: 3d1d 0d3e e1f9 7d3e 546b 2ab9 1170 14bb
00000060: 960c d2bd 5ad9 f9bd 5f52 a3bc faed 403d
00000070: 4ffe a8bd bbec 10be 7180 623e e82d cbbb
-0.18188624 0.18330571 0.033743884 -0.033547003 -0.07915655 0.050173044 -0.007831465 -0.15511857
-0.036301475 -0.03976568 -0.014719801 -0.09912611 0.19197868 0.08502948 -0.13112226 0.0540814
0.15793364 -0.067272246 -0.00518028 -0.0038080506 0.13780685 0.24802352 -0.00016252446 -0.0022649805
-0.10256307 -0.1219966 -0.019936739 0.047101952 -0.082516305 -0.14152806 0.22119309 -0.006200541

encoder.conv1.lin.weight f4 [32, 658]
00000000: a4f4 e3bd 6598 a2bd 1210 2e3e e894 b7bd
00000010: 1662 0f3e e4a4 35bf 6487 02bf acab ddbd
00000020: 5575 33bf da33 8a3e b713 8cbd 2011 46bf
00000030: 42aa 7abf 2560 043e 681f 72bd 97f0 06bf
00000040: 345f 863e fa73 98bc bbc1 343e 6359 2d3e
00000050: fc7c 7d3e 599f 34bf a325 a8bf 6379 06be
00000060: bf1d d4be 6f97 e1bd a9aa 8bbf 1947 aebe
00000070: 1642 9fbd 4002 e6bd aee9 023e 0692 02bf
00000080: bd7c 763d 7ace 683e 49b0 403e 5fb3 14bf
00000090: ce01 8fbf 3eea 633e ebf4 2dbe bd5d 5a3e
000000a0: 7bf0 763e c920 a63e bec0 16bd 0df4 7abe
000000b0: 71fa 91bf 2dca b83d f778 da3e 7578 3dbf
000000c0: f5fe 813e ada0 5b3e 478a 343e 2e5b 963e
000000d0: 7ef4 52bf 7998 f33d f8c9 ea3d 566d 3abf
000000e0: 886f 1ebf a434 1ebf 6521 923c c3ab 1fbf
000000f0: a094 5b3e 4966 d93e f502 f8bd 20a6 343e
00000100: f707 2c3e 0255 4cbf 4728 663e 5ddd 353e
00000110: 1ec5 2cbe 807d 5d3c 2c9d 343e 3f00 063d
00000120: 2b77 273e fd88 73be 5226 523d 32d8 83be
00000130: c1ee 2e3d 708f 05bf d0f3 283d 5d8e eabe
00000140: 424c 8cbd 7011 833c 1df2 e63e e539 eb3d
00000150: b10d 22bd 5a16 a93e a2f4 da3e b6ad aa3e
00000160: ccdf d7bd e7c8 5fbf 555f f4be 46fb f8be
00000170: aa1a 313e 1b05 08bf ec12 e23e e3b8 343f
00000180: ed3c 073f efe2 c23e 7d5d 483e ead5 ee3e
00000190: 7b96 ac3e a243 88bf 5ea2 db3d 5863 64bf
000001a0: 8808 383e 2986 ee3e 3b7b 8ebe 1e3d bc3d
000001b0: 973f 31bf c72f f63e 901f 86be ccb2 15be
000001c0: 5773 093f 1f57 983e 4adb 283e 8b8a 92bf
000001d0: 3cb5 61bd e787 a5be 9b7e 43bf 8567 47bf
000001e0: 7c55 4abe 16ad 4d3e f6b0 2b3f c728 7cbf
000001f0: a8d0 53bf 7f81 223d 9e4c f63e dfb6 c03e
00000200: fd0b a13e 180f 5b3e 5072 aa3e 0147 dcbf
00000210: 215e cabf 2296 073d c189 243e e6fa 83bf
00000220: b657 9dbf f7bd cb3e 47f2 2c3e b9fa a43e
00000230: 105f 8abf 1884 053e 9ea0 98be 3bdc 26be
00000240: 256b ac3e ae75 183e 5328 bcbe 0439 b4bd
00000250: ff7f a6bd a422 8abf 7feb 8e3c 4752 1ebd
00000260: d05c 1dbf 4a75 313d 960a 53bf 76ee 18bf
00000270: 8247 8f3e eb95 253f a3e6 eebf b4aa 97bf
00000280: 46f5 c7bf 21c1 ff3e 407e 9cbc b984 64bf
00000290: 479c 47be 97ab 90bf 1afe 4cbd 4cf9 a63e
000002a0: 190d 343e 8ae6 313e 7070 d9bd 8aa5 283e
000002b0: 0503 353e 6be6 82bf 1ae4 c3be 9d9d 34be
000002c0: 78c7 333e c5b4 b8be 3d7e 9abe 4163 dc3d
000002d0: 61db 813d 1173 f5be aff0 723e 3a7d 5cbf
000002e0: 29a0 47bf a0a6 c3bf c279 3dbf 0de9 c73c
000002f0: c32a ddbe f0e6 b4be 6910 0b3e fa31 2b3e
00000300: bd32 9cbf 69e0 cc3d dd28 4e3e 0afa 5ebf
00000310: 6f6e e13e 9f0d ec3d cbe4 55be b560 6f3d
00000320: 5d02 fabc be66 20bf 038f 0ebf 4629 eb3e
00000330: 02ef 99be 7cc3 85bd 0182 89bf 9095 bcbf
00000340: c34f 4d3d 9e26 583e 4859 a43e 16de f5bd
00000350: 7aa3 aebe 3b61 1d3e 1b59 84be 7e17 83be
00000360: 089f 723d 1402 283e 105c bb3e c0d3 6c3e
00000370: 2c7b 073e 2db8 a63e 62ba 283e cdb7 1abd
00000380: f287 f1be c6cc fabd 6438 a53e b564 e03d
00000390: f81b c13e 058a 3ebf 7fc8 663e 4b74 01bf
000003a0: f2b9 963e 9230 013e 1021 dcbf 69b0 183d
000003b0: 1bae 83be e4be 9dbf 5502 7d3e 7786 52bf
000003c0: 7a64 233e 0d3e 3cbd 904a a6bd bb99 cabe
000003d0: 3429 113f f1d7 64bd 1617 83bd 6d9d eb3e
000003e0: fb80 323f 9e5f 9bbf 9352 f8bd a2bc 583e
000003f0: 0028 80bd 981b 1e3d dfae 2ebc 3b5a 2d3e
-0.11130646 -0.07939223 0.16998318 -0.089639485 0.1400226 -0.7095473 -0.5098784 -0.108237594
-0.7010091 0.26992685 -0.06839698 -0.7736988 -0.9791604 0.12927301 -0.059111983 -0.5271086
0.2624451 -0.01860999 0.17652027 0.1692863 0.24754709 -0.70555645 -1.3136486 -0.13132243
-0.41428944 -0.11015212 -1.0911456 -0.34038618 -0.07776277 -0.11230898 0.12784454 -0.51004064
0.060177553 0.22735015 0.18817247 -0.580862 -1.1172426 0.22257325 -0.1698796 0.21324821
0.24115174 0.32446888 -0.036804907 -0.2450716 -1.1404554 0.09022937 0.42670414 -0.7401193
0.2538983 0.21448012 0.17630874 0.2936644 -0.82404315 0.11894316 0.11464304 -0.72823083
-0.61888933 -0.61799073 0.01783819 -0.6237146 0.21443415 0.4246085 -0.12109939 0.17641497
0.16799913 -0.7981721 0.22476302 0.17760225 -0.16872069 0.013518691 0.17638081 0.03271508
0.16354053 -0.23782726 0.051306076 -0.2575088 0.042708162 -0.52171993 0.041248143 -0.4581174
-0.068504825 0.015999526 0.45106593 0.11485652 -0.03956384 0.33024865 0.42764765 0.33335656
-0.10540733 -0.8741593 -0.47728983 -0.48629206 0.17295328 -0.5313279 0.4415506 0.70594615
0.5282734 0.38063762 0.19566913 0.46647578 0.33708557 -1.064564 0.107243285 -0.89214087
0.17972004 0.4658673 -0.27828392 0.09191345 -0.69237655 0.48083326 -0.26195955 -0.14618987
0.5369162 0.29753968 0.16489902 -1.144853 -0.05510448 -0.32330248 -0.7636506 -0.77892333
-0.19759172 0.20085558 0.67066896 -0.9849972 -0.8274026 0.03967428 0.4810533 0.3763952
0.3145446 0.21392477 0.3329034 -1.7209169 -1.5809976 0.033102162 0.16068174 -1.0310943
-1.2292392 0.3979337 0.16889296 0.32222536 -1.0810261 0.13038671 -0.2981004 -0.16294949
0.33675495 0.14888641 -0.36749515 -0.08799937 -0.08129882 -1.0791821 0.017446278 -0.038652685
-0.61469746 0.043324746 -0.8243803 -0.5973886 0.27984244 0.6468188 -1.8664135 -1.184897
-1.5621727 0.49952033 -0.01910317 -0.8926502 -0.19493209 -1.1302365 -0.050047018 0.32612073
0.17583121 0.173731 -0.10617149 0.16469398 0.17676933 -1.0226568 -0.38259965 -0.1763825
0.1755656 -0.36075416 -0.30174437 0.10761119 0.06340671 -0.4793935 0.23724626 -0.8612858
-0.7797876 -1.5285225 -0.7401391 0.02440312 -0.43196687 -0.3533244 0.13580479 0.16718283
-1.2202984 0.1000374 0.20132776 -0.8710028 0.44029567 0.115260355 -0.20888059 0.058441836
-0.030518705 -0.6265677 -0.5568697 0.45929927 -0.3006516 -0.06531426 -1.0742799 -1.4733143
0.050124895 0.21108481 0.32099366 -0.1200525 -0.34109098 0.15369122 -0.25849232 -0.2560386
0.059233695 0.16407043 0.36593676 0.23127651 0.1323058 0.3256239 0.1647735 -0.037772942
-0.4717403 -0.12246089 0.32269585 0.10956708 0.3771665 -0.7442935 0.2253742 -0.50568074
0.2943874 0.12616184 -1.719759 0.037277613 -0.2571877 -1.232388 0.24707921 -0.8223643
0.15956298 -0.045957614 -0.081196904 -0.39570412 0.56703496 -0.05587 -0.06400888 0.46018544
0.6972806 -1.2138555 -0.12125125 0.21165708 -0.062576294 0.038600534 -0.01066181 0.16928951

encoder.conv2.bias f4 [24]
00000000: 924b a6be dc27 0bbd a3e8 13be e591 27bf
00000010: 714c 1dbe faf3 d7bd acec 523e eade 83be
00000020: 812e 613d 0496 abbe 8f60 13be 7203 6cbe
00000030: cb54 35be dc26 b83e 836a 5dbb 3fb2 6cbd
00000040: e600 a9bc eade 263e 90b3 24be 3b1f 0cbe
00000050: bf6b 7cbe 757a 51bd 2a63 79bc 3290 d33e
-0.3247953 -0.03397356 -0.14444213 -0.6545699 -0.15361191 -0.10544582 0.20598096 -0.25756007
0.05497599 -0.3351289 -0.14392303 -0.2304819 -0.17708127 0.35967147 -0.003378541 -0.057787176
-0.020630311 0.16295972 -0.16084123 -0.13683788 -0.24650477 -0.051142175 -0.015221396 0.4132095

encoder.conv2.lin.weight f4 [24, 32]
00000000: 0c93 a13e 6527 f4bf fb97 723c d257 9b3e
00000010: 6716 ec3e d433 bd3e 652e 9ebf a8fd 47be
00000020: f7a0 da3e 3459 363d d3ca 3c3f 3f9e 693d
00000030: a014 09bf e32a 8dbf c0a2 37be 93d6 223f
00000040: 536a 45be e276 b0bc f026 f8be 2f1d 143d
00000050: c34b 2ebd f878 f5be c77e 47be c16b fb3d
00000060: 75a7 45be 1479 253f 1755 0d3f ac90 e7be
00000070: 35f7 033f ecbe e53e 7a02 f8be aa9f 8b3e
00000080: f8d7 6cbf 0edd 593f c36c 4d3f fff0 cabf
00000090: 6cc5 19bf 066e 033e 1d66 5bbf 4eb6 febe
000000a0: d9d5 303f d568 febe 6a2f 23bf aecf dcbe
000000b0: d9f9 b73c 871e a3bf be34 863f 2fa6 1fbf
000000c0: bfd2 02bf 9a1f dcbc cb80 c33e 4ba5 3abf
000000d0: 2254 143f f00d 6bbe 0f90 d83e a553 f4be
000000e0: 34e5 3fbe f980 c43f e19c 96bf 826b 0f3e
000000f0: c572 4b3f 476b 88bf 3f52 bb3d 2760 19be
00000100: 9a30 153f d91a 06be d5a8 b73e bd80 a53e
00000110: 7460 ff3e 3b57 f83e e881 13bf 09d0 ab3e
00000120: 9848 cf3e f3a5 2abf c0e5 b2bf b856 563e
00000130: 75b6 703d c06f d63d 37d0 853e cda0 77bf
00000140: 9c98 80bf 4fde 11bd d1bb 1bbf c25e 42bf
00000150: 49fc 8e3e d63f e5be 8eff 4b3e 011f 42bf
00000160: af23 ca3e b2f6 663e 3a03 5ebf 0fb2 ad3e
00000170: 67da c63e b90d 2f3e 2edd f1bd a89d a3bf
00000180: 215e 59bf 1b61 c23d 0fc3 fbbd 7c51 d8bd
00000190: bbbf 25bf 61c4 063d 1874 02be 21d4 6bbf
000001a0: 1d7e 613f b14d b2be 8f3d 32bf 3f44 38bf
000001b0: b8e5 a9be d73a bdbe 6d05 233f 9994 35be
000001c0: 00b5 e9be e8e8 853f 142d ee3d 085a 01bf
000001d0: e53b e83e e3ef c5be 3db9 973f 22f9 06bf
000001e0: 6f08 913e 5570 973f 2f3a 18bf 77f6 353f
000001f0: 2c21 04be ce0e 6abe cd8c 353e 3a39 d4be
00000200: 8746 563f 42fe bb3c 60c8 82be aa01 5f3e
00000210: edf0 153e 480a 0ebf 82c1 36bf 87a7 8a3e
00000220: d79f 3abe 0024 0d3d dcc6 d43d 8db9 f23e
00000230: 2455 73be 681a 0d3f 41d1 bd3e 5d01 0e3f
00000240: 1ea4 2bbf e446 143e 5bd0 563e 144d 203f
00000250: 577c dbbe 2195 e5be 4d5a 8bbe 82c5 02bf
00000260: 7fc6 0a3f d2e3 f5be 2b06 ed3e e20d 89be
00000270: e633 34bc b6ec f7bd 72cd 00be ba2e 58bf
00000280: 85ee a23e 7a96 363d 9d53 183f 4abb 07be
00000290: 8218 06bf 5cb4 cebe 96b4 2c3e 1990 223d
000002a0: 30e9 523e 0d69 a93e a599 dc3e 24b6 68be
000002b0: e2fd c23e 91b8 8fbe a840 f43e c2de febc
000002c0: 5dac 1cbf 1ad1 a63e 5807 133e 4861 1a3f
000002d0: 57ac 9abe 9958 dfbe 29b7 efbe 3f2e 62be
000002e0: 79a2 f0be 7b42 c1be a4d9 a3bf 57d7 b23e
000002f0: a75d 2ebf 1af1 88be 53cb 36bf 57dd 94be
00000300: 1b13 ddbe 3376 2b3f 6cdf bbbe 1c24 c13d
00000310: 0e0e a93b d2bb 39bc f8ff 08bf 86f9 5a3e
00000320: 6d00 a3bd 760d 07bf b77f e5bd 403e 463e
00000330: f2b5 aabe 2a81 1d3e ffb5 ec3d 3039 9dbf
00000340: 8355 24be dca9 1cbf ac1f cf3e b295 a2be
00000350: bbce 613f cd6a 0abf 8a45 073f af56 08bf
00000360: 8c0e 8bbe 4bfc afbe 440d 883e 9f35 e33e
00000370: 89f1 a73d 340c eebe 2cac 1bbf 6966 00bf
00000380: 389d fcbd 861e 2e3e c02c 5cbe 87c9 193e
00000390: 8e7b 87bf 32c7 13bf 8d63 8dbe 8228 043f
000003a0: 5a2e af3e 6f59 adbd 7f68 17be d297 143f
000003b0: acaa 65bf 7fc3 aabe 3b50 533e 53a5 91be
000003c0: 2794 05be 46e9 05be afb1 cf3e a888 9bbe
000003d0: d744 4abe 4b0a 133d b62d 273f 4738 bc3e
000003e0: f0c9 133f 5619 ab3e 19c7 0a3e e252 183f
000003f0: bc60 91be cc52 e3bf d796 97be 194f 7b3e
0.315575 -1.9074522 0.014806743 0.3034044 0.46110842 0.36953604 -1.2357908 -0.19530356
0.4270093 0.044518664 0.73746985 0.05703568 -0.53547096 -1.1028713 -0.17933178 0.63608664
-0.1927884 -0.021541063 -0.48467207 0.036160644 -0.04255272 -0.47943854 -0.19481955 0.12276412
-0.19302161 0.64637876 0.5520796 -0.45227563 0.51549083 0.44872224 -0.4843939 0.27270252
-0.9251704 0.8510293 0.8024408 -1.5854796 -0.60066867 0.1283494 -0.8570269 -0.49748462
0.69076306 -0.49689355 -0.63744223 -0.43127197 0.022458004 -1.2743691 1.0484846 -0.6236295
-0.51102823 -0.026870538 0.381842 -0.7290847 0.57940876 -0.22954535 0.42297408 -0.47720066
-0.18739778 1.5351859 -1.1766626 0.14005855 0.79472 -1.0657738 0.091465466 -0.14978085
0.58277285 -0.13096179 0.35870996 0.32324782 0.49878275 0.48504052 -0.57620096 0.33557156
0.40485072 -0.6665947 -1.3976364 0.20931518 0.058767755 0.10470533 0.26135418 -0.9672974
-1.0046573 -0.0356124 -0.6083346 -0.7592584 0.27926853 -0.44775265 0.19921705 -0.7582856
0.3948035 0.22555044 -0.86723673 0.3392491 0.38838503 0.17095079 -0.11809765 -1.2782488
-0.84909254 0.09491178 -0.12293064 -0.10562417 -0.6474568 0.032902125 -0.12739599 -0.9212056
0.8808306 -0.348249 -0.6962518 -0.71979135 -0.33183074 -0.36958954 0.63680154 -0.17732467
-0.45645905 1.0461702 0.11629692 -0.50528 0.45358196 -0.38659582 1.1853405 -0.52723897
0.28326747 1.1831156 -0.5946378 0.710792 -0.12903279 -0.2285721 0.17729492 -0.4144991
0.83701366 0.022948388 -0.255435 0.21777979 0.14642687 -0.5548444 -0.7138902 0.27080938
-0.18225037 0.03445816 0.10389492 0.4740719 -0.23762947 0.5511842 0.3707371 0.5547083
-0.670473 0.14480168 0.20977919 0.6261761 -0.428683 -0.4484034 -0.27217332 -0.51082623
0.5420913 -0.48025376 0.46293768 -0.26768404 -0.010998702 -0.12105696 -0.12578371 -0.844463
0.318226 0.0445771 0.59502584 -0.13255039 -0.52381146 -0.40371978 0.16865763 0.039688203
0.20596766 0.3308796 0.4308597 -0.22725731 0.38084322 -0.280705 0.4770558 -0.031112079
-0.61200505 0.32581407 0.1435827 0.6030469 -0.3020961 -0.43622282 -0.46819428 -0.22087954
-0.46998957 -0.37746033 -1.2800794 0.34929916 -0.6811165 -0.26746446 -0.71404 -0.2907512
-0.4317864 0.6697723 -0.36693895 0.094307154 0.005159146 -0.011336284 -0.5351558 0.21384248
-0.079590656 -0.52754915 -0.11206 0.19359684 -0.33341938 0.15381303 0.115581505 -1.2283077
-0.16048245 -0.61196685 0.4045385 -0.31754833 0.8820607 -0.54069215 0.52840483 -0.5325727
-0.27159536 -0.34372172 0.2657262 0.44376847 0.08200366 -0.46493685 -0.6080959 -0.50156265
-0.123346746 0.17003831 -0.21501446 0.15018283 -1.0584581 -0.5772582 -0.27615014 0.5162431
0.3421505 -0.08464324 -0.14785956 0.5804416 -0.8971355 -0.33352277 0.20636074 -0.28446445
-0.13044797 -0.13077268 0.4056525 -0.30377698 -0.19752823 0.035898488 0.65304124 0.36761686
0.5773001 0.33417767 0.13552512 0.5950147 -0.28394115 -1.7759643 -0.2960727 0.24541892

encoder.conv_mu.bias f4 [16]
00000000: 9e8a 6fbc e5f6 bb3d beb1 23bd 5ac3 8fbb
00000010: 02c6 6e3e fa0a 8cbc b92b 723d 107b 5a3d
00000020: ecef ff3a b919 8e3c 0573 7e3c b0ec 6a3c
00000030: adf4 4f3d 7c80 453e ebbe f4bc 8c78 6f3d
-0.014620451 0.09177951 -0.03996443 -0.0043873014 0.23317721 -0.017095078 0.05912373 0.053340018
0.0019526458 0.01734625 0.0155303525 0.014338657 0.05077045 0.19287294 -0.029876193 0.05846457

encoder.conv_mu.lin.weight f4 [16, 24]
00000000: 764a 4ebf 13e5 853e ba57 f0bf 3b05 6fbe
00000010: 916a f23d 8e30 c63e 5f91 40be 22c0 943f
00000020: 2976 5ebe 65d1 053e 372e 9e3d 0a70 623f
00000030: 77ba 1d3f 750a 49be 7bfe 113e 4512 633d
00000040: 0b40 223f c1f3 2bc0 57ca 3c3d 94c6 1bbf
00000050: 1a7f 2b3e be24 22be f0f1 02c0 7b40 3bbe
00000060: a551 1abf 2c22 a2be 5e1c dfbf 1b42 8abe
00000070: aaca 81bd 9d42 38bf 7eca cdbe 1351 9f3f
00000080: f3f6 29be fe44 e13e 0d79 91be 6120 fabd
00000090: 8bee 0c3f 5e8e 993e ff33 b2be a54e 8ebe
000000a0: cc8f a2bd 3202 b9bf d8c2 debe e5b3 bebf
000000b0: 8643 05bf 7983 22be 0034 aebd 6e0c 253f
000000c0: 3899 b73e d2e5 b73e 27a0 853f 073a f7bd
000000d0: f504 f73e 6b98 133f 658b aebe 6b7b d6bf
000000e0: fa4e dbbe b48f c93d c0ce 1abd 8dde 97bf
000000f0: 638b b1bd 87f1 95bf f0c1 f93d bc19 d63e
00000100: 270f f03e 9012 4140 52fb 073f a186 5d3e
00000110: f724 dcbd 596e 6f3e f4d2 3040 6d0e cd3c
00000120: 9a7b 3b3f 9681 0ebe b6e4 0140 2c14 c6bd
00000130: 89ce dabd 8255 623e 32d6 d4be a542 aabf
00000140: 3bcc 193f f10e f33e d872 d8be eeeb 37bf
00000150: f413 3bbf e992 44bd cc60 493e ade8 9c3c
00000160: 35fa 50be 5ce5 5e40 b845 18bf d574 3a3f
00000170: 8bf1 9c3b f4d5 1cbe c761 2840 0ba6 3abe
00000180: 0601 5abe 458b 213e 6422 2ec0 dc0f e43f
00000190: efdc 27bf f98d 2bbf 9176 043e bed2 04c0
000001a0: 8361 0b3e cc61 033e c0d7 c4bd 3043 a2c0
000001b0: 9255 983d 2426 b03f 3b96 bdbe ef5e 6ebf
000001c0: b1a1 a13e d81c 00c1 8930 4bbe 46b7 4dbc
000001d0: 13a2 26bd 368e 5fbf d810 13c1 d6a6 dd3e
000001e0: 1816 3e3f 9fa1 1b3f 4ec8 b53f a366 1f3e
000001f0: 99da 263c 912b d2be 4018 f1be 8731 21bf
00000200: 5a96 0b3e 0931 acbe 9848 7a3d 4592 2abf
00000210: c557 2bbe 3e90 57be fb2c c7be e89e 3c3e
00000220: 347d 2abf e239 4c40 baf4 1f3f 0986 e03e
00000230: 6a6b c23e cb6c a83d 0103 1040 dba6 123f
00000240: c5d0 a63f 6d1f 353c 4ffb fdbf d6be 8d3f
00000250: 9a5b 93be 2837 8a3e af11 0abe cd36 d83f
00000260: 38e0 94be 1062 033e 0f9e 38bf 0212 dd3f
00000270: 6200 88bf a5c3 9a3f 81fb 85bd d5dd d1be
00000280: d75c b6be 7448 8dc0 2053 063e 3649 b13f
00000290: d860 f23d da8b 48be b40e c0c0 6147 c43e
000002a0: 31e3 69bf 49b5 39bf a094 ea3f 87ae 75bf
000002b0: e620 8ebf ed3e 62be 2872 9b3e 23df 5f3e
000002c0: 6b3b 993e 6ea5 d0be ad5a a23e 27ac 48be
000002d0: f6b4 e43e 9072 e53d ef95 77be f33d 64bf
000002e0: 4496 4cbe dfd3 6a40 6ad3 793d 083c 183e
000002f0: 6def 5dbe 57f0 0fbf 8586 8840 9e48 7f3f
00000300: db53 26bf ca98 95bd 7e3f a8bf 4dff d1bd
00000310: 0561 10be b84f 213e 994e b9be 87f1 a23f
00000320: f4be 8d3e 956e 26be 4661 8e3e 5bfe 1f3f
00000330: 0d2b cf3e 49da 51be 8858 063e 78c5 223e
00000340: c6a6 a73e 565e 0cc0 28d6 1dbe 3190 a4bf
00000350: c58e 32be 005e 9dbe 6ea6 e3bf 6e89 9e3e
00000360: 0b76 053f 06f9 89be 7c7b 803f 1ece b83e
00000370: 2e62 813e 7b29 f03d 1cc1 cbbd 5794 babf
00000380: 8c76 d6bd 42b8 ff3e 3adf 9bbe a784 5cbe
00000390: 6ef0 91bf 9420 193e 7e7d 9cbc 0215 b83e
000003a0: 7115 1e3d b044 3a40 9499 1cbf f073 f13e
000003b0: 3e1d a6bd 2dfa f13d dd39 f43f 0ad9 f63d
000003c0: 48d0 973f caaa 493e 0a86 c53f 529a 283e
000003d0: e0d9 76bd c5df a5be 5bf3 a8bd 109f 87bf
000003e0: 66a6 c5be f42f 0e3e 410d ce3e b7d3 c2bd
000003f0: 66bb 1dbf d5f1 2b3e bb08 a73e 257d 2d3e
-0.8058237 0.26151332 -1.8776772 -0.23341839 0.11836732 0.3870892 -0.18805455 1.1621134
-0.21724762 0.13068159 0.077236585 0.8845221 0.6161265 -0.19632895 0.14257233 0.055437345
0.6337897 -2.6867526 0.046091404 -0.6084988 0.16747704 -0.15834329 -2.0460167 -0.18286316
-0.6028083 -0.31666696 -1.7430532 -0.2700356 -0.06337483 -0.71976644 -0.40193552 1.2446617
-0.1659811 0.4399795 -0.28412667 -0.12213207 0.5505149 0.2999143 -0.34805295 -0.27794376
-0.07937583 -1.4453795 -0.4350803 -1.489865 -0.5205616 -0.15870465 -0.08506012 0.6447209
0.35859084 0.35917526 1.04395 -0.12071615 0.4824597 0.57654446 -0.34090725 -1.6756414
-0.42833692 0.09841862 -0.03779483 -1.1864792 -0.08669164 -1.1714333 0.12195194 0.4181651
0.4688656 3.016758 0.5311786 0.21633388 -0.10749238 0.23381938 2.7628756 0.025031293
0.73235476 -0.1391662 2.0295844 -0.09671816 -0.10683925 0.22102931 -0.41569668 -1.3301588
0.60077256 0.47472337 -0.4227512 -0.71844375 -0.7307732 -0.047991667 0.19665831 0.019153917
-0.20407946 3.482749 -0.5948138 0.7283452 0.0047895364 -0.15315992 2.6309679 -0.18227403
-0.21289453 0.15775783 -2.720849 1.781734 -0.6557149 -0.6701351 0.12935854 -2.0753627
0.13611417 0.12830275 -0.096114635 -5.0707016 0.07438196 1.376164 -0.3702868 -0.9311361
0.31568673 -8.007042 -0.19842733 -0.012555903 -0.04068191 -0.8732637 -9.191612 0.43291348
0.7425246 0.6079349 1.4201753 0.15566497 0.010183954 -0.41048864 -0.47088814 -0.629662
0.13631573 -0.3363116 0.061104387 -0.6662944 -0.167327 -0.21051118 -0.38901505 0.18419993
-0.66597295 3.191033 0.624828 0.4385226 0.37972575 0.082238756 2.2501833 0.5728585
1.3032461 0.011054856 -1.9842318 1.1073864 -0.28780824 0.26995206 -0.13483308 1.6891724
-0.29077315 0.12830377 -0.7211618 1.727112 -1.0625117 1.2090956 -0.06542111 -0.40989557
-0.35617706 -4.4150944 0.13117647 1.3850467 0.11834878 -0.19584599 -6.001795 0.38335708
-0.9136229 -0.72542244 1.8326607 -0.9596943 -1.110379 -0.22094317 0.30360532 0.21862464
0.29928145 -0.40751213 0.31709805 -0.19596921 0.44669312 0.11203492 -0.24178289 -0.89157027
-0.19979197 3.6691816 0.060992636 0.1486665 -0.21673365 -0.56226104 4.266421 0.9972018
-0.64971703 -0.07304533 -1.3144376 -0.10253773 -0.1409951 0.15753067 -0.36192778 1.2729958
0.27684748 -0.16253121 0.2780859 0.6249749 0.40462533 -0.20493425 0.1311971 0.15895641
0.32744426 -2.1932578 -0.15413725 -1.2856504 -0.17437275 -0.3073578 -1.7785165 0.30964226
0.52133244 -0.26947802 1.0037684 0.36094755 0.25270218 0.11726662 -0.09948942 -1.457652
-0.1047183 0.49945265 -0.30443746 -0.21534978 -1.1401498 0.14953834 -0.019102808 0.35953528
0.038594667 2.9104424 -0.6117184 0.47158766 -0.08111046 0.11815295 1.9080158 0.12053116
1.1860437 0.19694057 1.543153 0.16465119 -0.060266376 -0.32397285 -0.08249541 -1.0595417
-0.38603514 0.1388548 0.40244487 -0.09513038 -0.6161407 0.1679147 0.32623848 0.1694227

encoder.conv_logstd.bias f4 [16]
00000000: 2357 3bc0 3add 38c0 df15 51c0 14e2 3dc0
00000010: 6364 98c0 99bc 49c0 6728 7cc0 b8b3 6cc0
00000020: 94aa 30c0 6e57 2dc0 d435 2ac0 d82d 40c0
00000030: e544 5dc0 4e62 80c0 3ff9 3dc0 aa0e 5bc0
-2.9271934 -2.8885026 -3.26696 -2.9669237 -4.762254 -3.152136 -3.939966 -3.6984692
-2.7604113 -2.7084613 -2.6595354 -3.002798 -3.45733 -4.012 -2.9683378 -3.42277

encoder.conv_logstd.lin.weight f4 [16, 24]
00000000: e201 eebd a3ef 7fbf b68d a43f ed0a 0c3e
00000010: 29d1 37bf 574a b1bd 1229 80bd c7aa 733f
00000020: 4b18 6abf 8245 783e 1d0e b6bf c8ff d73d
00000030: 9d01 183e 08ca 99be 06b9 2fc0 965e 97bf
00000040: 8d78 e23c 51c2 29be 72b1 11bf b7df 8e3e
00000050: 08c6 67bf 3c9b 23c0 6cf6 643f 74fb acbe
00000060: 0b1e 11be 2800 3ebf 962a bc3f cf36 0b3e
00000070: 76f3 d1be 1cb8 e5be f029 7cbd 0598 f23e
00000080: 3278 2cbf 3431 b53e 466c a8bf fcba d13e
00000090: 18f6 633e 7474 86be a70f debf e387 7fbf
000000a0: f4ad 87bb 0c0c 4abe 7d4b c8be 3dc6 4c3e
000000b0: bf78 3ebf 0317 fcbf 6b3f 7a3f 04c7 18bf
000000c0: 9df5 783e 7643 70bf f4f1 a13f 70e1 3c3e
000000d0: 1003 40bf b20d f8be f3af 0c3e f0b9 d63e
000000e0: 5411 09bf 851c 9d3e 6213 ebbf bbfd 3c3e
000000f0: a99f b13d 2ee1 26be 457c 08c0 7e27 ccbf
00000100: fa1e a83d 0c40 17be f71b 0bbf 355a 1e3f
00000110: eb38 62bf 6b37 31c0 8321 7f3f 88da c9bb
00000120: b0ef 053f 13c1 b1bf d7aa a43f 4a0e 8cbd
00000130: bf9b 7fbf 3d75 00bc 990d 10bc 97ff 273f
00000140: 5597 72bf da57 bc3e a20f 8fbf 26a3 98bc
00000150: 8a1d f03d 46a5 c03e cde8 11c0 a65f c4bf
00000160: a7f7 12bd e8c4 883e 14fc e0be f301 ba3e
00000170: 7834 88bf 4d6f 41c0 5324 4f3f ff86 5abe
00000180: 551d 14bf 3cf6 96bd 72de c43f d6a6 8b3e
00000190: b05a 683e e86a dbbe 0064 b5bd 5474 203f
000001a0: 9397 f6be 2b22 933e b13a 22bf 65ab a53c
000001b0: f324 953e 9471 eebe 58b1 c2be 6b04 1dbf
000001c0: 6c27 3b3d af82 e5bd 3b4b bcbe 5796 b2be
000001d0: 5ed0 3dbb cb6c 2ebf 3131 df3e 830f 62bd
000001e0: 0d5b f8be 7de1 75bf 8432 9f3f 3706 e73d
000001f0: cd70 3abf fd58 1abe fdb7 9bbe 031a 533f
00000200: 150a 5bbf 0a64 c83e b871 cebf d40e ff3e
00000210: 9e2d b03e c4cf 40bf bb37 0fc0 a428 47bf
00000220: a60a c0be 47de 0b3e f702 25bf ae8c ad3e
00000230: 77d5 8fbf 3dd0 1ec0 c638 943f da7a 95be
00000240: e37c 94be b3e9 39bf 7b0f c33f a61d a33e
00000250: 25ed d3be 8a64 1bbf 50e1 a33d 1ad4 1d3f
00000260: 2219 18bf 7252 c73e 7462 a6bf cc38 8e3e
00000270: 2bac b53e df8e 18bf 071e d3bf adb9 b7bf
00000280: c1f1 2d3e 8293 85be 859c c3be 2820 44bd
00000290: 1067 0fbf 9eea e7bf 0e1e a43f 9607 13be
000002a0: 8f40 8dbe 49e1 0ebf 36d3 663f d048 a9bb
000002b0: 8703 53bd 49c5 aabe d6f0 c1be 8269 6f3f
000002c0: 9b6a 46bf 79f5 d03e 4649 9fbf f006 d23e
000002d0: 5696 b13e 282e 80bf 4806 bebf 78fb 7dbf
000002e0: dded 1ebe 1267 053f 7346 eabe 1a87 fd3e
000002f0: 1cdc e3be 393a ecbf abdb be3f ebf1 99be
00000300: adaf 4f3e 9b90 8fbf ddbf a43f 81ed df3d
00000310: 0df1 9bbf bf29 3f3e ab67 843d 9797 133f
00000320: 777b 30bf 7f8d a33e 3826 e4bf 4a06 85bb
00000330: 709e 2b3e a038 b83d 817c 16c0 0159 95bf
00000340: 1c86 23be ef20 8ebd e3e5 1abf 01ec f93e
00000350: 0a37 75bf 2f4a 44c0 6656 4a3f 59cd 0a3d
00000360: d835 75bd 5138 83bf 5765 773f b5f7 2e3e
00000370: fdaa 5ebf f027 88be 6d1f 8f3d 5fdf 1b3f
00000380: 8d84 6bbf fa2f f93c d47e b2bf 22e8 8e3e
00000390: 7ee2 ef3e c4ad eebc 6f07 24c0 661d 30bf
000003a0: b12d 11be 151c 7abe 8046 03bf 7f1c cf3e
000003b0: 35c5 85bf bb41 22c0 d76b 653f 8656 313d
000003c0: 53e4 a23e ff95 9abf ef74 813f bef8 98bd
000003d0: 76e4 12bf 6e10 a0be 3816 15be 5312 293f
000003e0: abb0 44bf 9fbd 713e 21b3 a0bf 6156 b73d
000003f0: d93d ef3c 20fb 913e 4610 1ec0 0fa2 1bbf
-0.11621453 -0.9997503 1.2855747 0.13676043 -0.7180353 -0.08656757 -0.062578335 0.9518246
-0.9144332 0.24245265 -1.4223057 0.10546833 0.14844365 -0.3003695 -2.745668 -1.182574
0.027645374 -0.16578032 -0.56911385 0.27905056 -0.90536547 -2.5563498 0.8943851 -0.33785594
-0.14171617 -0.7421899 1.4700496 0.13595127 -0.41006058 -0.44867027 -0.061563432 0.47381607
-0.67370903 0.35389102 -1.3158042 0.4096297 0.22261846 -0.26260722 -1.7348527 -0.9981672
-0.00414061 -0.19731158 -0.39120093 0.19997497 -0.74402994 -1.9694523 0.9775302 -0.59678674
0.24312444 -0.9385294 1.2651963 0.18445373 -0.75004673 -0.4844795 0.13738994 0.41938734
-0.53542066 0.3068582 -1.836529 0.18456165 0.08673031 -0.16296837 -2.1325848 -1.5949552
0.08209033 -0.14770526 -0.54339546 0.61856395 -0.883681 -2.7690074 0.9966051 -0.006160084
0.5231886 -1.3887047 1.2864636 -0.06838663 -0.99847025 -0.007840452 -0.008792304 0.65624374
-0.94762164 0.36785775 -1.1176646 -0.018632483 0.11724384 0.37626094 -2.279834 -1.534169
-0.03588071 0.26712728 -0.4394232 0.36329612 -1.0641012 -3.0224183 0.809148 -0.2134056
-0.5785726 -0.07371184 1.5380385 0.27275723 0.22690845 -0.42855 -0.08856964 0.626775
-0.48162517 0.28737006 -0.63370806 0.020223329 0.29129753 -0.46571028 -0.38025928 -0.61334866
0.045691893 -0.112065665 -0.36776146 -0.34880325 -0.0028963308 -0.68134755 0.43592218 -0.055190574
-0.48506966 -0.9604719 1.2437291 0.11280482 -0.7282837 -0.15073009 -0.3041381 0.82461566
-0.8556226 0.39138824 -1.6128454 0.49816 0.34409803 -0.75317025 -2.2377765 -0.7779639
-0.37508124 0.13659011 -0.6445765 0.33896393 -1.1237019 -2.4814599 1.1579826 -0.2919529
-0.2900153 -0.7262222 1.5239099 0.31858557 -0.41391864 -0.60700285 0.08001959 0.61651766
-0.5941335 0.38930088 -1.2998796 0.27777708 0.35482916 -0.59593004 -1.6493539 -1.4353539
0.16986753 -0.26089102 -0.38205352 -0.04788223 -0.56016636 -1.8118474 1.2821672 -0.14358363
-0.27588317 -0.5581251 0.9016603 -0.0051661506 -0.051517036 -0.33353642 -0.37879056 0.9352037
-0.7750642 0.4081228 -1.2444236 0.41020918 0.3468501 -1.0014086 -1.4845667 -0.99211836
-0.15520425 0.521104 -0.45756873 0.49517137 -0.44503868 -1.8455268 1.4910787 -0.3006738
0.20281859 -1.1216005 1.2871052 0.10933972 -1.2182938 0.18668269 0.064650856 0.5765318
-0.6893839 0.3194389 -1.7824163 -0.0040595876 0.16759658 0.08995175 -2.351349 -1.1667787
-0.15969127 -0.06939875 -0.6050703 0.4881287 -0.9578711 -3.0670278 0.79038084 0.03388724
-0.059865803 -1.0251561 0.9663901 0.1708668 -0.8697966 -0.2659297 0.06988416 0.6088771
-0.9199913 0.030418385 -1.3944955 0.27911478 0.46852487 -0.029135592 -2.5629537 -0.6879486
-0.14177586 -0.24424775 -0.5127945 0.40451428 -1.0450808 -2.5352619 0.89617676 0.043295406
0.31814823 -1.2077025 1.011381 -0.07469319 -0.57379854 -0.31262535 -0.14559257 0.66043586
-0.76832074 0.23607491 -1.2554666 0.08952022 0.029204296 0.28511906 -2.4697433 -0.60794157

classifier.weight f4 [2, 16]
00000000: d4c3 0f41 ce68 7f40 939d 93c0 ac70 32c1
00000010: 81fc b33e 1690 aec0 a5bc 3040 aeb5 0bc0
00000020: d462 e640 cd5d 0bc1 5cae f6c0 628e fb40
00000030: 0428 45c0 3d6b 0abf ed04 e940 f7cf 8bc0
00000040: 0b66 0fc1 9240 88c0 72e7 9640 a223 3241
00000050: 0fc9 e7be 6cb3 ad40 78a4 37c0 c74f 1d40
00000060: 62b7 ebc0 c18b 0e41 45e3 f740 6470 00c1
00000070: 8115 5c40 7999 983e 17f6 dac0 08cc 8e40
8.98531 3.9907718 -4.612985 -11.152508 0.35153583 -5.4550886 2.761514 -2.1829638
7.199564 -8.710401 -7.708784 7.8611307 -3.0805674 -0.5406988 7.2818513 -4.3691363
-8.962413 -4.257882 4.7157526 11.133699 -0.45270583 5.428152 -2.8694134 2.4579942
-7.3661356 8.90912 7.746493 -8.027439 3.4388125 0.2980459 -6.8425403 4.462406

classifier.bias f4 [2]
00000000: b528 6ebf 16e4 2a3f
-0.93030864 0.6675428
