trained-model/model_20240817_004020_epoch_200.pt (torch, 95432 bytes, 10 tensors)

encoder.conv1.bias f4 [32]
00000000: e9d2 b2be db82 8f3e 0c73 cabd 20ed 82be
00000010: db1e 25be 67f8 893d abeb 32bd 68c7 e6be
00000020: 08b0 9ebe 246b f4bd e817 d3bd 261d acbe
00000030: e693 683e dabc 3fbd 4d33 fdbe d8fb a5bc
00000040: 83c0 353e 0ef6 49be 1b7e 1cbe c2ab f4bd
00000050: cb60 443d f3c1 923e f275 8bbe 550b 2cbd
00000060: 0444 80be 29d6 d8be 436f 76bd 8520 13be
00000070: 6d31 92be 2286 bfbe 1d76 163e 3edf 14bd
-0.34926537 0.28029522 -0.09885225 -0.25571537 -0.16125052 0.06736832 -0.04368178 -0.4507401
-0.30993676 -0.11934498 -0.10307294 -0.33615988 0.22712669 -0.046810962 -0.49453202 -0.02026169
0.17749219 -0.19722769 -0.1528248 -0.11946823 0.04794387 0.28663597 -0.27238423 -0.042002995
-0.25051892 -0.4235089 -0.0601647 -0.14367874 -0.28553334 -0.37407023 0.14693494 -0.036345713

encoder.conv1.lin.weight f4 [32, 658]
00000000: 2278 35bf 6598 a2bd 1773 a03e e894 b7bd
00000010: a08f d1be 0d60 83bf 5001 9abe 92a3 e3bf
00000020: 4ea4 c5bf c7c5 243f af0d b43e f937 3dc0
00000030: 37e1 d8bf 5291 1b3f 8a3b aabe 099d 98be
00000040: fca1 acbf b02d 2f3f 8450 ad3e d428 ae3e
00000050: 24c6 a93e 78bf 22c0 7d5d f6bf e776 d63c
00000060: 50a1 05c0 eab2 d13e 08c3 bebf 021c e9bd
00000070: 163d fdbf ccb0 88be eba5 36be 81cb aebf
00000080: d31a 393e 31db 243f 9366 e03e dd74 52bf
00000090: d9c9 17c0 8497 eb3e d19b e03e b638 3b3f
000000a0: c13a 033f 9e61 f03f 4907 cdbe 0df4 7abe
000000b0: 67f8 4dc0 4d09 043e d13b 213f 1a3e 5abf
000000c0: 7410 8d3e 69a0 953e 56b1 773e 88a6 7abe
000000d0: ca7f 9f3e 2ddf fbbe e1f1 a63e a415 b6be
000000e0: 1041 5dbf 2c82 d3be 9db4 b33d 7c1b cebf
000000f0: 55d3 d23e bbdc 2f3f 0292 c3bf b57f 0d3f
00000100: 2140 f4be b596 c23e 64c4 d9be 1697 86bf
00000110: fe1d 81be 961a 94bd e88c e73e f108 173e
00000120: 9d13 53bf ce80 353f cc38 803d e30b a9be
00000130: 0a43 843e cd7d 05bf b209 ba3e 5d2c f0bd
00000140: bf82 033f d12f cfbe 9136 e23f c660 26bf
00000150: 4cfc afbd de9b 033f 571c 4e3f 0781 2e3f
00000160: 4c6b 16bf 4a8e 9ebf 5887 4cc0 1734 4cbf
00000170: f5aa 053f 4ed2 bdbe cc1a 043f b60f 163f
00000180: 8d29 bc3f b640 363f c035 dc3e 3c43 3e3f
00000190: ad4f 023f 6533 5fbf 9242 f73d faf4 f3bf
000001a0: 4a4b 1fbe eebf a33e 20ec 923e 8336 3f3f
000001b0: 8214 91bf ce46 543f 6464 3abf 3696 e73e
000001c0: 6e70 903e a99f 213f 2c97 283f 9eb8 ab3e
000001d0: 6a6c 8c3e 90a9 febe ed8d 96bf 4ecc 5bc0
000001e0: 6081 88bf 1157 6d3e c0e2 5d3f 01a3 d5bf
000001f0: 0106 0fc0 7f81 223d 54b9 1a3f 9381 ca3d
00000200: d3d7 b03e a4ac 1c3f 437c 22c0 d3e3 8dc0
00000210: 5db0 b0c0 6394 fbbe bb40 4d3f a92f 05c0
00000220: 8ae2 febe f024 a53f 372a 9dbf e441 f73e
00000230: ec4b bbbf 697f 76be d47e 863d 901e d4be
00000240: 88a1 4f3f 7869 16bf 91b4 6bbf 0439 b4bd
00000250: ff7f a6bd 6970 b7bf 3b73 693f d42a 44bf
00000260: eb5d d83c 0585 823f 62ce 983b 5c9f 1b3f
00000270: 5758 1c3f 2810 2c3f 5c6f 2cbf a789 b7bf
00000280: def4 b7bf 2c08 b23f 407e 9cbc 7979 b2c0
00000290: b191 47be 2634 5fbf 172d aebf 979d 47bf
000002a0: 535c 10c0 3b13 e9be 7070 d9bd 06e3 50bf
000002b0: 617f 4cbf 47c6 6dc0 f058 a6be 639c 093e
000002c0: 7cf3 e33e a0ff 86be 1f15 3ac0 81f2 c7be
000002d0: 33be 3c3f 5540 4bbf bf41 0b3f 076e ffbf
000002e0: ef21 b4bf c24d 72c0 9622 9bbf 5d2d cc3e
000002f0: b4a5 473f 867c d5be 5643 91be b19d df3e
00000300: a142 b7bf 3f5b 883f 41de c73e 78d0 14c0
00000310: ab1b 333f 7ae1 063e 75f0 2dbf f03e eb3e
00000320: 152c 6e3d eddd 4dbf fcc0 eb3d 17a3 0e3f
00000330: 8de2 12c0 7cc3 85bd 2a90 10c0 33d9 f5bf
00000340: f567 083e 1db3 e53e 3fe1 24bf 001e 4bbd
00000350: dd0f 9abe 109e 2f3e 7259 59be 0c48 0d3f
00000360: acd7 2e3f 7359 50bd 8d65 36bf b580 aa3e
00000370: e6fa 993e 2b17 533f a3b7 593e f3fd f1be
00000380: f677 e3bf baf9 a43e 9787 e83e f26e 0fbf
00000390: 689a 573f c0a6 01c0 a136 02bf 59f8 ebbf
000003a0: bc2e b53e baf5 9b3e 63ab 90c0 cd98 cc3e
000003b0: 122b e6bf eb2d debf 8592 1ec0 ded6 8ec0
000003c0: 5b56 ab3e 0d3e 3cbd 904a a6bd a299 cabe
000003d0: eb87 8c3f 3683 edbc 408d 28bf 1669 443f
000003e0: 3f4c 3c3f 7f98 2bc0 fa1c 06bf e4c9 a93e
000003f0: 0028 80bd 54b0 7cc0 dfae 2ebc 2b65 d03e
-0.70886433 -0.07939223 0.31337807 -0.089639485 -0.4092989 -1.0263687 -0.30079126 -1.7784293
-1.5440767 0.64364284 0.3516669 -2.9565413 -1.694373 0.60768616 -0.3324855 -0.29807308
-1.3486934 0.6842909 0.3385049 0.34015524 0.33158982 -2.5429363 -1.924728 0.026179744
-2.0879707 0.40956813 -1.4903269 -0.11382295 -1.9784267 -0.26697385 -0.1783673 -1.3655854
0.18076639 0.6439696 0.43828258 -0.8220957 -2.3716948 0.46014035 0.43868878 0.7313341
0.51261526 1.877979 -0.4004462 -0.2450716 -3.2182863 0.12894173 0.629819 -0.8525101
0.27551615 0.29223946 0.24188742 -0.24477589 0.31152183 -0.49193707 0.32606414 -0.35563385
-0.864274 -0.4131025 0.087746836 -1.6102138 0.4117686 0.6869618 -1.5278933 0.5527299
-0.47705176 0.38005605 -0.42532647 -1.0514858 -0.25218195 -0.07231633 0.4522469 0.14749505
-0.824518 0.70899665 0.06260833 -0.3301688 0.25832397 -0.5214508 0.36335522 -0.117272116
0.5137138 -0.4046617 1.7672902 -0.64991415 -0.08593044 0.5140971 0.80511993 0.6816563
-0.5875747 -1.2387173 -3.1957607 -0.7976698 0.52213985 -0.37074512 0.5160339 0.58617723
1.470018 0.7119249 0.43009758 0.7432134 0.50902826 -0.87187797 0.12073244 -1.9059136
-0.15556064 0.31982368 0.28695774 0.74692553 -1.1334383 0.8292054 -0.72809434 0.4523179
0.28210777 0.6313425 0.6585567 0.3353929 0.27426463 -0.4973874 -1.1762062 -3.4343448
-1.0664482 0.23177744 0.8667412 -1.669037 -2.2347414 0.03967428 0.6043904 0.098879956
0.3453966 0.6120093 -2.5388343 -4.4340606 -5.5215287 -0.49136648 0.80176896 -2.081034
-0.4978221 1.2901897 -1.2278508 0.48292458 -1.4632545 -0.2407204 0.06567159 -0.41429567
0.8110585 -0.5875468 -0.920724 -0.08799937 -0.08129882 -1.433118 0.9119145 -0.7662785
0.026411971 1.0196844 0.0046632746 0.6079004 0.61072296 0.6721215 -0.6735742 -1.4338883
-1.4371603 1.3908744 -0.01910317 -5.577328 -0.1948917 -0.8718895 -1.360751 -0.7797484
-2.255635 -0.45522484 -0.10617149 -0.8159641 -0.79881865 -3.715227 -0.3248973 0.13438563
0.445217 -0.263669 -2.9075391 -0.39052203 0.7372772 -0.7939504 0.54397196 -1.9955453
-1.4072856 -3.785996 -1.211993 0.3987836 0.7798722 -0.41696566 -0.28371686 0.43674996
-1.4317209 1.0652846 0.39036754 -2.325224 0.6996409 0.1317195 -0.67945033 0.45946455
0.05814751 -0.80416757 0.11511418 0.55717605 -2.2950776 -0.06531426 -2.258799 -1.9206909
0.13320906 0.44863215 -0.644062 -0.049589157 -0.30090228 0.1715014 -0.21225527 0.5518806
0.6829784 -0.050866555 -0.71248704 0.3330132 0.30074233 0.82457227 0.21261458 -0.4726406
-1.7770984 0.32221776 0.45415947 -0.56028664 0.8421998 -2.0258026 -0.5086461 -1.8435165
0.35387218 0.30460912 -4.520921 0.39960328 -1.7981894 -1.7357763 -2.4776928 -4.463729
0.33464321 -0.045957614 -0.081196904 -0.39570338 1.0978979 -0.02899323 -0.6584053 0.7672285
0.7355384 -2.6811826 -0.52387965 0.33161843 -0.062576294 -3.9482622 -0.01066181 0.40702185

encoder.conv2.bias f4 [24]
00000000: b2de 39bf f2ff bebe 93c3 2fbe e4a6 b1bf
00000010: 3b3a 4bbe aeea 13bf 5331 3bbd b153 cebe
00000020: f784 813d a023 8ebe d933 e1bd ccf3 5dbf
00000030: b027 f2be 0ba9 72bd 35b8 5ebe abe0 813c
00000040: d9c8 e5be 2fd4 e43b 7cec babd 109c 04bf
00000050: 5b01 a8bf 13c7 ccbc bf14 f6be 3959 183f
-0.7260543 -0.37304646 -0.1716445 -1.3879056 -0.19846432 -0.5777997 -0.045701336 -0.40298226
0.06324189 -0.27761555 -0.10996217 -0.8670013 -0.47295904 -0.059243243 -0.21749957 0.0158542
-0.44879797 0.006983302 -0.09127137 -0.5180063 -1.3125414 -0.02499727 -0.48062703 0.5951114

encoder.conv2.lin.weight f4 [24, 32]
00000000: 810c df3e e8be 99c0 2059 433e 3676 863e
00000010: 4aae ee3e ae3d db3e 7296 cabe d439 91be
00000020: 8a92 293f 13f5 b23e cefb 503f 66ee 183e
00000030: 83aa 54bf 9770 e4bf 8061 f5bd ee5a 223f
00000040: 6c01 65bf 8d92 61be 4a45 32bf 2317 103e
00000050: c266 1d3d a25b bcbf 947a dabd 7e17 aa3e
00000060: 8b15 3cbe 48c0 363f fb3a 1d3f 422f b6be
00000070: 5fd5 6e3f f67b 373f b7e6 04bf efa2 963e
00000080: 30c7 2bbf 68cb 413f 322f ec3e 164b 57c0
00000090: 685d 97be 1edc 3abd f6d1 91bf 6e87 57bf
000000a0: ee57 0a3f cdec 1ebf 3154 81bd 9261 61bd
000000b0: 2995 6fbe 152d 9ebf 8b67 ab3f 8ec8 febe
000000c0: 9800 0cbf 2bcb 403f 357d 023f 89fb 38bf
000000d0: 6969 743f 8603 40bf 8977 863e dfc4 cfbe
000000e0: 2da1 0e3f e767 1840 9cc8 a7bf f01b 4d3e
000000f0: 4620 e33e af06 9bbf 3fc5 103d c0a8 6bbe
00000100: 4d12 3b3f c3ac fdbc adf4 cf3e 8573 bd3e
00000110: 7874 363f afbd 103f 2a57 55bf abad 173f
00000120: 8403 2f3f e8a4 99bf df86 fbbf eb0c 953e
00000130: e3ea 6d3e 06d8 f73d 2dfe 0b3f fcec 83bf
00000140: b18f bcbf 571e a9be 2175 a1bf 63f4 5ebf
00000150: d90a 093f 796b 47bf 562f 553d 38ed 78bf
00000160: c7b6 ce3e df46 bd3e 4587 a5bf ecfe dc3e
00000170: 5ad6 253f 56d1 d43c f98d a0be 7de5 c7bf
00000180: 21ab 153e 174d ad3d 9020 e9be cc19 77be
00000190: e226 89bd e181 043e 585c 88be 5d99 10bf
000001a0: cb4a 2f3f 5c73 0cbf 963e 71bf 7d08 37bf
000001b0: 1943 863e 6fb6 85bd d741 6b3f 1d05 223e
000001c0: b236 36bf 92e7 853f 2804 48be cfc6 2abf
000001d0: ab4d 2e3f 52ee 47bf 33ef 913f 6ea9 acbe
000001e0: 2ed7 b339 31ef 623f 3912 4ebf 2375 2f3f
000001f0: e1a5 01be 0727 a03e 9e7d 493d 5e9a 0dbf
00000200: 231a 4d3f df85 513d 0636 7ebf 3158 f33e
00000210: 7bac 973e 5740 80bf b1a2 8cbf 59d1 5d3f
00000220: 5e68 1dbe 81f0 e2bb d5d0 95bc b2e9 aa3e
00000230: 679f f2be 52f3 693f e4a2 183f 1f9f 413f
00000240: 2161 65bf 3c34 4a3f 5eaa 003f 5d92 363f
00000250: 79cb f8be e7dd 0cbf 9b8d 0ebf 6c10 a7bf
00000260: 829b 123f 929c 89bf 7293 413f 197f 03be
00000270: 414a 87be 853a 42bf 7b63 5a3d da02 0ac0
00000280: 5d30 39be dcfb 513f d83a 7a3f ea12 1440
00000290: cc2a 3bbf 62be c9bf b3c9 25bf a79e 29bf
000002a0: 74ef 93be b976 383f f76b 873d 9c34 7ebf
000002b0: 0ae3 8d3f 10c0 fbbf e6c5 0a3f 46e2 09bf
000002c0: 6a9b cbbe 6c6c 893f b0ed bfbf 9028 943f
000002d0: 4db1 863e 62b0 1ac0 9b0e 93be 5810 01c0
000002e0: a8cb b0bf 14da c0bf 9dfa 1dc0 c750 b43f
000002f0: 4d4f 9bbf bffc 183f a65f 08c0 d1de 07c0
00000300: 62ea 61be e8ae 0d3f 9f63 a3be 4edd 433f
00000310: bb24 34be ab3b 93be c296 62be df34 8d3e
00000320: 95ec 12bf 69f6 73bf c989 04bf cd8e 56be
00000330: 2d3d 17bf 26a6 01bd 0792 cb3e 54d8 f4bf
00000340: ebcf a6bd e502 96bf b7b6 813e c305 493e
00000350: 5355 7a3f d5af 4bbf 6b2d 4d3f be6d 1fbf
00000360: c750 973e fe35 aebf 59e0 0c3f ab50 613f
00000370: 13e4 c23d 2750 a03d 494b aebe 6e30 1bbf
00000380: ae3b d8be f4d9 fd3d dfe2 35be ff85 b73e
00000390: bbe4 90bf 7400 76bf de36 b3be d0ac 383f
000003a0: fbe8 e83e 9b80 99be 17d2 aebe e2f0 4f3f
000003b0: 1af0 9cbf 8982 e8be ae0c f03e 6361 c1be
000003c0: 021e a8be 8483 67be b131 2b3f 84b9 bcbe
000003d0: 357d 8bbd beec 0dbe 6ff1 593f 33ca ac3e
000003e0: 65a4 2c3f 3c90 113f 411b 6f3e a577 5f3f
000003f0: 7fbb bebe 6b60 52c0 8877 d2be bf62 17bd
0.43564227 -4.804554 0.19076967 0.26262063 0.46617347 0.42820495 -0.39567906 -0.28364432
0.66239226 0.34952602 0.81634223 0.14934692 -0.8307268 -1.784686 -0.11981487 0.6342
-0.89455295 -0.22028561 -0.69636977 0.14071326 0.038428076 -1.4715464 -0.10667911 0.33221048
-0.18367593 0.7138715 0.6141812 -0.3558293 0.9329433 0.71673524 -0.5191454 0.29421183
-0.6710081 0.75701 0.46129757 -3.363958 -0.2956345 -0.045620076 -1.13922 -0.84191024
0.5404042 -0.6208008 -0.06314886 -0.05502469 -0.23396744 -1.2357508 1.3390974 -0.49762386
-0.54688406 0.7531001 0.509723 -0.7225881 0.95473343 -0.75005376 0.26263073 -0.40579888
0.55714685 2.3813417 -1.3108096 0.20030189 0.4436056 -1.2111415 0.03534436 -0.23013592
0.730748 -0.030966168 0.4061636 0.37002197 0.7127147 0.56539434 -0.83336127 0.5924937
0.6836474 -1.200345 -1.9650534 0.29111418 0.23234133 0.1210175 0.54684716 -1.0306697
-1.4731351 -0.3303096 -1.261387 -0.87091655 0.5353218 -0.77898365 0.052047096 -0.9723697
0.40373823 0.36968133 -1.2931906 0.4316324 0.647802 0.025978725 -0.31358317 -1.5616909
0.14616062 0.08461969 -0.45532656 -0.24130934 -0.066968694 0.1294017 -0.26632953 -0.56484014
0.684735 -0.54863524 -0.94236124 -0.7149733 0.26223066 -0.06528937 0.9189734 0.15822263
-0.7117721 1.0461295 -0.19532835 -0.6670961 0.6808726 -0.7809802 1.1401123 -0.33723015
0.00034301862 0.8864623 -0.80496556 0.6853811 -0.12660934 0.31279776 0.049192064 -0.5531367
0.80118006 0.05115306 -0.99301183 0.47528222 0.2962378 -1.0019635 -1.098715 0.86647564
-0.15371844 -0.006925643 -0.018288055 0.3338142 -0.4738724 0.913869 0.5962355 0.75633425
-0.8960133 0.78985953 0.5025996 0.7131708 -0.48592737 -0.55026096 -0.5568482 -1.3051887
0.57268536 -1.0750906 0.7561561 -0.12841453 -0.2642384 -0.75870544 0.05331753 -2.156424
-0.18084855 0.8202493 0.9774604 2.3136544 -0.7311218 -1.5761225 -0.64760894 -0.6625771
-0.28893626 0.72056156 0.066123895 -0.99299026 1.1084912 -1.9667988 0.5420822 -0.5386089
-0.3976701 1.0736213 -1.4994411 1.1574879 0.26307145 -2.4170156 -0.2872208 -2.0166225
-1.3812151 -1.5066552 -2.4684212 1.4087151 -1.2133576 0.5976066 -2.130838 -2.1229746
-0.22062066 0.5534501 -0.31911942 0.7650956 -0.17592137 -0.2875646 -0.22127822 0.275794
-0.57392246 -0.9529787 -0.51772743 -0.20952912 -0.5907772 -0.031652592 0.39759848 -1.9128518
-0.08145126 -1.1719633 0.25334713 0.19631104 0.97786444 -0.79565173 0.8014743 -0.6227683
0.29553816 -1.3610227 0.5502983 0.88013715 0.09516158 0.07827788 -0.34041813 -0.6062077
-0.42233032 0.12395087 -0.17762326 0.35844418 -1.1319803 -0.9609444 -0.35002798 0.7213869
0.4549025 -0.2998093 -0.3414466 0.81226933 -1.2260773 -0.4541209 0.46884674 -0.37769613
-0.32835394 -0.22608763 0.668727 -0.36860287 -0.06810991 -0.13859841 0.85134023 0.33748016
0.67438346 0.5686071 0.2335024 0.8729194 -0.37252423 -3.287135 -0.4110682 -0.036959406

encoder.conv_mu.bias f4 [16]
00000000: 5498 d43c 8600 0d3d f6f7 0bbc b844 37bc
00000010: dd32 033e dde9 80bd 7a65 42bc 2c48 57bd
00000020: 6678 453c 2f58 f4bb b155 473d be38 d43c
00000030: 62f8 21bd b1d2 113d 1bde 2cbc fbb7 353d
0.025951542 0.034424327 -0.008543005 -0.011185817 0.12812372 -0.06294606 -0.011865014 -0.052559063
0.012052631 -0.0074568014 0.048665706 0.025905963 -0.039543517 0.03560132 -0.010551001 0.04436491

encoder.conv_mu.lin.weight f4 [16, 24]
00000000: 02aa dbbf a31f ae3e cdfb 2ac0 3e47 19bf
00000010: 0014 24bf d40c 4b3f b61b d7be ac3d d23f
00000020: 0ed7 d7be 0f84 783e 46d5 10be ff5d 213f
00000030: e94a 463f e229 5cbe b113 8c3e 329e e73d
00000040: 1203 9a3f 5ee7 11c0 b386 abbd e704 f5bf
00000050: 828e 0b3f 10b4 1fbe ab62 0cc0 ed26 6cbe
00000060: decf 94be 1668 40bc 760f d6bf 0a1d b1be
00000070: 3328 cfbd 2d2c 8fbf ecf5 cebe c000 d13f
00000080: 93e9 04bf 9f67 4a3f b86c f13e c797 2bbf
00000090: 9c13 293e 1d25 8b3e b9b7 74be 9d0b 25be
000000a0: 0457 2e3e c42c 9dbe 482e e2be 56bd 22c0
000000b0: 0412 0ebf 5936 9abd b6f0 223f 3655 3b3f
000000c0: 28be 453f 66b5 db3d 294b f53d 6628 09bf
000000d0: 0fa2 f23f 557c 2e3f 1dda afbe 7f51 8cbf
000000e0: 3bec 30bf 530d 153f 3470 15c0 51ee c1bf
000000f0: 311e 54bf acb2 0ac0 f31a 563f d822 173f
00000100: 008b c23e 2178 3f40 b91c 913f 80fa d13f
00000110: 27d4 493e d47f 3f3c 20a7 d340 f4bb 843e
00000120: ca56 c23f f81e 0fbe f287 6240 cffe 683e
00000130: 3b23 253f aae6 b43e a93c 0fbf 6f61 edbf
00000140: 0c8f 543f bfe4 c53e 5d1f 0dbf 4616 05bf
00000150: 167a 93bf 0131 353f b7c9 183e 2e15 b3be
00000160: 0faa 04bf f855 5640 19d1 16bf 316b 1940
00000170: 2a86 3dbe 4f98 1abe e052 3140 bedb 46be
00000180: 57d6 b83b 5230 793f b4af 18bf d55a 473f
00000190: 4eb9 90bd 4267 8dbe 19cb 363d d172 5a3d
000001a0: f045 1b3e e407 debd 1c81 7e3f 8b00 2fc1
000001b0: c06b e2bd d5f1 a63e f54a 87be a2b0 85bf
000001c0: a646 843e 84e1 29c1 bccd 87be 5a62 453f
000001d0: 3eeb 69bd dcd8 27bf 4625 9ac1 ac01 783e
000001e0: 46d5 0f3f 9d61 8e3f 8345 cc3f dac1 763d
000001f0: e7cd 163f d2b6 fbbe 1f39 43bf 0a61 7abf
00000200: fc21 f63d 7f96 04bf cbce 413d 3332 09bf
00000210: c912 1dbe a66c 093f b32d 20bf 7812 3cbe
00000220: fee6 d8bf 9f89 3340 9cf2 3f3f c614 633e
00000230: 7c2d 863f 9e75 6cbb c09e 5f40 fb66 3b3f
00000240: e500 133f db6f 3dbf 350e 0b40 e808 573f
00000250: 62fd 22bf 4d5b c63d e556 b63e e773 73bf
00000260: 251d 0abe aeab bfbe 8e75 783e 26dc a740
00000270: bf4d 17bf 3868 f93e 8bc9 0fbe 72fa 8abf
00000280: 4f2e c3be 5e3b 42c1 ebad 8b3e a203 b83f
00000290: 2769 283e 32db e3be f43c bbc1 74e8 923f
000002a0: bb2c 6ebf e82c 85bf 20a5 35bf ab9a 5abf
000002b0: bcc4 29c0 1c86 e63d b4e9 993e a27e ee3e
000002c0: 1070 ed3d 57b1 7bbe 47a7 453f 13b6 8ec0
000002d0: 32bf 1c3f aecc c6be 85c9 99be e967 7dbf
000002e0: d2ad 443e 37c7 3741 2507 813c e56d 23bf
000002f0: add7 173e 9dd1 87be 111f b041 c61a 883f
00000300: 9be4 77bf 3c8b c9bd 5d83 9cbf f97d 9abe
00000310: 67c8 57bf 8127 523e 0ca6 42bf 3ff5 c63f
00000320: 1765 df3e 4db0 a0be fde8 663f 08be b03e
00000330: b479 063f f4e7 50bf a5e6 bd3e 8c29 703d
00000340: a91e 943f 5ce6 f4bf 857e 98bc 3933 42c0
00000350: 5ecd 9ebe 9329 9dbe 1285 d6bf a483 a13e
00000360: 589d 2f3f aa58 a4be 7c5c 0440 b5c5 2c3f
00000370: 359e 973f 1e8e 24bb a7f9 433d 3098 edbf
00000380: 1114 42be 6156 1f3f 30d2 d1be e309 8d3d
00000390: 4c66 dfbf 33d5 953f ab8d 1cbc 8599 6d3e
000003a0: 0800 b5be 5ca1 2a40 e008 29bf e300 0340
000003b0: 03c6 b93c d67b cd3d da61 ec3f 3fa0 4a3e
000003c0: 3a9a e93f 3cbf 303e 6b5d 1840 fafa 013f
000003d0: bea8 403d b6d7 70bf 5376 8cbe 07b9 b3bf
000003e0: 0c0b 20bf c7af 2b3e eb41 963f 5dd0 333e
000003f0: 6895 61bf b386 203f e162 a03e 4430 ad3e
-1.7161257 0.34008512 -2.6716187 -0.5987433 -0.6409302 0.7931645 -0.4201333 1.6425071
-0.4215626 0.24269126 -0.14143857 0.6303405 0.77458054 -0.21500352 0.27358773 0.1130947
1.2032187 -2.2797465 -0.08375301 -1.9142121 0.54514325 -0.15596032 -2.1935222 -0.23061724
-0.2906484 -0.011743566 -1.6723468 -0.34592468 -0.10115089 -1.1185356 -0.40421999 1.6328354
-0.51918906 0.79064363 0.47153258 -0.6702847 0.16511387 0.27176753 -0.2389821 -0.16117711
0.17025381 -0.30698216 -0.44175935 -2.5428061 -0.5549624 -0.07529897 0.63648546 0.73176897
0.7724328 0.107279584 0.11977226 -0.5357727 1.8955706 0.68158466 -0.34346095 -1.0962371
-0.6911046 0.58223456 -2.3349733 -1.5150853 -0.8285857 -2.1671553 0.8363487 0.5903754
0.37996674 2.991707 1.133689 1.6404572 0.19709836 0.011688191 6.614151 0.25924647
1.5182736 -0.13976657 3.5395474 0.22753452 0.6450688 0.35332233 -0.55951935 -1.8545359
0.8303077 0.38651082 -0.5512598 -0.5198711 -1.1521633 0.707779 0.14920698 -0.34977096
-0.5182199 3.348997 -0.5891281 2.3971674 -0.18508211 -0.15097164 2.7706833 -0.19419762
0.0056407857 0.97339356 -0.596431 0.77872974 -0.07066594 -0.27617842 0.044627283 0.053332154
0.15163398 -0.10841349 0.99415755 -10.937633 -0.11055708 0.32606378 -0.26424375 -1.0444529
0.2583515 -10.617558 -0.2652415 0.771032 -0.05710911 -0.65565276 -19.2682 0.24219388
0.56184804 1.1123539 1.5958713 0.060243465 0.5890793 -0.49162918 -0.76259035 -0.9780432
0.12018201 -0.5179214 0.047316354 -0.5359222 -0.15339197 0.5368141 -0.6256973 -0.1836642
-1.6945493 2.8052747 0.7497957 0.22175893 1.0482631 -0.0036080847 3.4940643 0.7320401
0.5742324 -0.739988 2.1727421 0.83997965 -0.6366788 0.09685383 0.3561317 -0.9509873
-0.1348768 -0.3743567 0.24263594 5.2456236 -0.59103006 0.48712325 -0.14041726 -1.085768
-0.38121268 -12.139494 0.27281126 1.4376109 0.16446362 -0.4450317 -23.404762 1.1477189
-0.93037003 -1.0404329 -0.70955086 -0.85392255 -2.6526327 0.11256048 0.30061114 0.46580988
0.1159364 -0.24579369 0.7720837 -4.459726 0.6122924 -0.38828033 -0.3003656 -0.9898668
0.19206932 11.486136 0.015750477 -0.6383956 0.14828368 -0.2652711 22.01517 1.0633171
-0.968332 -0.0984101 -1.2227589 -0.30174235 -0.84290165 0.20522882 -0.7603462 1.5543593
0.43631813 -0.31384507 0.9019926 0.34519982 0.52529454 -0.8160393 0.3709003 0.058633372
1.1571857 -1.91328 -0.018615017 -3.0343764 -0.31016058 -0.3069578 -1.675936 0.31545746
0.6859946 -0.32098895 2.0681448 0.67489177 1.1845156 -0.0025109123 0.04784551 -1.8562069
-0.18952967 0.6224118 -0.40980673 0.06886651 -1.7453094 1.1705688 -0.009555261 0.23203094
-0.35351586 2.6660986 -0.6602917 2.0469291 0.022677427 0.100333855 1.8467362 0.19787692
1.8250191 0.1726045 2.3807018 0.50773585 0.047035925 -0.9407915 -0.27434024 -1.4040841
-0.62516856 0.16766272 1.1738867 0.17559953 -0.881186 0.62705535 0.3132544 0.33825886

encoder.conv_logstd.bias f4 [16]
00000000: 6901 70c0 b59f 62c0 8ff7 86c0 ff65 7ac0
00000010: 20b5 b6c0 9d05 8ac0 ed77 abc0 7bd0 abc0
00000020: f01a 61c0 f7ad 6ec0 845a 71c0 70bf 79c0
00000030: 6cd5 80c0 22da a1c0 e87a 7bc0 1dae 8dc0
-3.750086 -3.5409977 -4.2177196 -3.9124753 -5.70961 -4.313185 -5.3583894 -5.3691993
-3.5172691 -3.729368 -3.7711496 -3.9023094 -4.0260525 -5.0578775 -3.9293766 -4.427504

encoder.conv_logstd.lin.weight f4 [16, 24]
00000000: b3a7 ac3d b89c 8cbd db03 3a3f 6d95 253f
00000010: 0f7b 183f fe3d ef3c 77eb 55bf 0251 313e
00000020: ee39 4cbf 09a7 9d3f f2ad 29bc 98d7 d0bc
00000030: 29ff b63e 4a6a f53e 5fbe 1dbf 77d3 f0be
00000040: b4a4 6f3f 9d00 53bc a16b c53e 4cfd d1be
00000050: 68a1 16bf 94c4 b9be 2d19 843f 678c 6abf
00000060: ff0b 08bf f55c fa3c 6e48 833f 6189 d73e
00000070: b02d fe3e e3cd 0bbe 9479 9dbe 9f09 acbd
00000080: 0e99 01bf ebdd 263f 3d3b 413d e3b1 b63e
00000090: 7ec8 153e c244 73be 38f6 a3be ba50 7abe
000000a0: 6996 9d3e 8fb7 6b3c ffd9 d83d ae0e 11bf
000000b0: feb4 95be 8a10 80bc ceac 833e ba4c d1be
000000c0: 3c0d 51bf 2028 19be 918c 943f 248e 633f
000000d0: c247 053f 55c3 a7bd 2e01 0abf 36dd 5b3d
000000e0: 6762 2fbf 3811 943f 63b0 123c a8ef df3e
000000f0: 6f95 bd3e 65e5 583e 6a19 1c3f 73c2 a63d
00000100: aeee 0e3f ffc2 503c 165f 063e 90e7 17bf
00000110: f1aa 1ebf dc80 b63f 1111 6b3f e86e 84bf
00000120: 2fb3 b1be e493 b7be b57c 823f 421c 0e3f
00000130: c7b7 353e d8c6 a53d 7830 3abf e822 dd3e
00000140: 34a4 70bf 061d 943f d3f7 07bf 3d76 973e
00000150: 7478 523b de51 e93e abce a1bf 7233 32bf
00000160: 8b7a 283f b337 7cbc c6d6 4b3f 2546 4ebe
00000170: d38a 0abf 9337 b9be 3647 193f 2a11 45bf
00000180: 3e56 aabf 19d6 c3be 32ae 7f3f eb00 543f
00000190: f4ab 143f c50e e83c 4846 99be 9233 623e
000001a0: 3d3c e4be eb7b 193f 4767 953e 9e50 453f
000001b0: 218d 073f b6a4 5a3d 42be de3e ea01 0dbf
000001c0: d145 383f c9eb f53e a86b 9a3e 8e4d 7ebf
000001d0: 8881 b4be e105 923f a0ea 503f 8f6e 2dbf
000001e0: 4144 97bf aafe 93be 5a3d 4f3f dadd 583f
000001f0: ec35 2b3f 6c65 e7bd 1cc2 13bf 88ab 0e3d
00000200: 03d7 2fbf 6bc7 873f f001 b6be b8c4 e13e
00000210: 0aa0 083f d5fa ed3e aba0 a9bd 646c af39
00000220: f7c3 283f 942a 883e 9219 583e 85a5 93bf
00000230: 5854 1bbf 2d99 9f3f f190 3b3f 3c5a 80bf
00000240: 7d58 d7bf de6c c4be 4728 be3f 8143 7f3f
00000250: 6838 243f cb7b aabd b60d 1bbf cd70 603e
00000260: bdda 5ebf 6ec5 873f b937 1bbd 17fc 1c3f
00000270: 3151 4b3f 4e9f a33e 0033 463f 067d e0bd
00000280: cb4a 4b3f 1526 633e fd94 0b3e de46 91bf
00000290: 72af 20bf 95c6 d93f 2f1e 533f 4f71 89bf
000002a0: ce26 0fc0 8542 f7be 907c dc3f bce3 8e3f
000002b0: 1e44 1e3f 0d97 b6bd 5fed 1ebf bb61 3d3d
000002c0: 4cfe 50bf c20c 873f f873 44be c5c1 153f
000002d0: f320 533f 4086 e73e b36c 7c3f 1620 8bbd
000002e0: 4965 3b3f d339 d73e cfc6 543e 2337 adbf
000002f0: 3ce3 49bf d0e3 0240 7c7d 293f a0df a0bf
00000300: 6b99 61be 7088 11be 8167 353f 94b2 3f3f
00000310: aa75 f33e 3105 56be 9ef9 11bf 8b9a 4c3e
00000320: eb7b 25bf 6c83 6c3f f1ae abbd 83d0 6dbc
00000330: 6fbe 2f3e 253f f53e e71b 6ebf 2490 e6bd
00000340: 17b9 d03e 6004 1a3d 4234 cc3e 0808 96be
00000350: 84e4 d8be 5940 8cbe 4e13 033f 5e78 26bf
00000360: 3665 60bf 8a03 6abd 0135 803f 36f7 0b3f
00000370: 9736 153d eef6 283d a033 81be 9ea4 753d
00000380: d079 53bf 86d0 3e3f fa8c 1bbf 1756 6a3e
00000390: 9b61 6f3e 9a26 393e e8d8 4ebf 53ad e0bd
000003a0: 2be4 f63e dc8c dbbc a691 d23d c28d e8bd
000003b0: c95c c9be 8d27 94bf b145 503f e70d ddbe
000003c0: e158 04bf b370 c2be b162 3f3f 5c78 e13e
000003d0: 3d0d 103e 3922 673d 6efc 2bbf 237c 223e
000003e0: 02a8 0ebf e901 2d3f dde1 c5be 4752 013e
000003f0: 7ab8 833e e670 ff3e c550 7cbf 381c 66be
0.084304236 -0.06865829 0.7266213 0.6468113 0.5956277 0.029204365 -0.83562416 0.17316058
-0.79775894 1.23166 -0.010356413 -0.025493428 0.35741547 0.47932655 -0.6161861 -0.47036335
0.9361069 -0.012878564 0.38558677 -0.41013563 -0.58840036 -0.3628279 1.0320183 -0.91620487
-0.53143305 0.030561903 1.0256479 0.42097 0.49644232 -0.13652758 -0.3075682 -0.084002726
-0.5062417 0.6518237 0.047175635 0.35682592 0.14627263 -0.23756698 -0.32023787 -0.24444857
0.30778816 0.0143870255 0.105884545 -0.56663024 -0.2923965 -0.015632886 0.25717777 -0.4087885
-0.8166082 -0.14956713 1.1605397 0.88888764 0.5206262 -0.081915535 -0.5390805 0.05367776
-0.68509525 1.1567755 0.008953187 0.4373753 0.3702807 0.21181257 0.6097628 0.08142557
0.55832946 0.012741803 0.1312221 -0.5933771 -0.61979586 1.4258075 0.91822916 -1.0346346
-0.3470702 -0.3585502 1.0194308 0.5551187 0.17745887 0.08094567 -0.7273021 0.43190694
-0.94000554 1.1571357 -0.53112525 0.29582396 0.0032115253 0.45570272 -1.2641195 -0.6960975
0.65811986 -0.015394139 0.79624593 -0.20143946 -0.5411808 -0.36175212 0.59874284 -0.76979315
-1.3307569 -0.3824928 0.99875176 0.828139 0.5807488 0.028327355 -0.29936433 0.22089985
-0.44577208 0.5995471 0.29180357 0.7707614 0.5294972 0.053379737 0.4350453 -0.55081046
0.7198153 0.48031452 0.3016026 -0.9933709 -0.35255075 1.1408044 0.8160801 -0.67746824
-1.1817704 -0.2890523 0.8095299 0.8471352 0.66879153 -0.112986416 -0.5771806 0.034831554
-0.68687457 1.0607733 -0.35548353 0.44095397 0.533692 0.46480432 -0.08282598 0.00033459358
0.6592402 0.26594985 0.21103504 -1.1534888 -0.60675573 1.246862 0.7326804 -1.0027537
-1.682388 -0.3836431 1.4856042 0.9971238 0.6414857 -0.08324393 -0.60567796 0.2191803
-0.8705252 1.0607126 -0.03789494 0.6132216 0.79420763 0.31957477 0.7742157 -0.10961346
0.79411 0.22182496 0.13631053 -1.1349752 -0.6276771 1.7013727 0.8246793 -1.0737704
-2.2367435 -0.48292938 1.7225513 1.1163249 0.6182269 -0.089155294 -0.6208095 0.04623578
-0.81638026 1.0550768 -0.19184864 0.58498794 0.8247215 0.45219612 0.9860336 -0.06793229
0.73201424 0.42036304 0.20778964 -1.3532451 -0.7886236 2.0451546 0.662071 -1.2568245
-0.2203118 -0.14212203 0.7086106 0.74881864 0.47550708 -0.20900418 -0.5702151 0.19980828
-0.6464221 0.92388034 -0.08382977 -0.014515045 0.17162488 0.47899738 -0.93011326 -0.112579614
0.40766212 0.03760183 0.3988362 -0.29303002 -0.42361844 -0.27392843 0.5120133 -0.65027416
-0.87654436 -0.05713228 1.0016176 0.5467409 0.036429014 0.041251116 -0.252347 0.059971444
-0.82607746 0.7453693 -0.6076199 0.22884403 0.23377077 0.18081132 -0.8079972 -0.10970559
0.48220953 -0.026800565 0.102816865 -0.11355163 -0.39328602 -1.157457 0.8135634 -0.4317467
-0.5169812 -0.37976608 0.74759966 0.4403714 0.1406755 0.05642912 -0.6718205 0.15867667
-0.5572511 0.6758104 -0.38648883 0.12629043 0.25726682 0.49890822 -0.98560745 -0.22471702

classifier.weight f4 [2, 16]
00000000: 8f8f 3a41 d333 c740 8515 82c0 7133 80c1
00000010: 6a84 d73e fc47 d4c0 d8d6 7a3f 07d6 983e
00000020: 8575 2141 e075 6ac1 d8aa 2fc1 a93e 4641
00000030: 6961 d2bf 7d16 d8be 717e 0f41 75e4 62c0
00000040: e531 3ac1 f4bf cfc0 955f 8540 000d 8041
00000050: c4a5 05bf 466b d340 ea3b 8bbf 9d25 c0bc
00000060: 2520 24c1 d7a3 6d41 3c45 3041 f5e7 48c1
00000070: 6d1d 0040 13a8 373e 2577 08c1 67dd 6840
11.6600485 6.225076 -4.065127 -16.025118 0.4209321 -6.633787 0.97984076 0.2985079
10.091191 -14.653778 -10.97921 12.390298 -1.6435977 -0.42204657 8.9683695 -3.545194
-11.637181 -6.492182 4.1679177 16.006348 -0.52206063 6.606845 -1.0877659 -0.023455435
-10.257848 14.8525 11.016903 -12.55663 2.001796 0.17935209 -8.529088 3.6385133

classifier.bias f4 [2]
00000000: da41 acbf b09e 8a3f
-1.3457596 1.0829678
